mPINNs-R1/mPINNs_result/result1/model.pth (torch, 35100 bytes, 10 tensors)

weight f4 [48, 2]
0.47781345 0.05581343 0.6198043 -0.2861605 -0.5446011 -0.18494269 0.60797393 -0.6060526
0.6081653 -0.11626284 0.1323766 0.29285085 -0.028456654 -0.32224873 0.42023784 0.4086074
0.08999795 0.65242827 -0.14446789 -0.44045156 -0.19805938 0.3717351 -0.5232636 -0.058269985
0.3626942 -0.5933688 0.79909337 0.11093122 0.25524998 0.47921878 -0.6454597 -0.27990714
-0.40852174 0.29177254 -0.55098283 -0.17018196 0.41120705 0.3046133 0.10896743 0.6915709
-0.3528346 -0.50233024 -0.5118495 0.058256447 0.5977943 0.6955708 0.7387168 0.29771978
-0.25709245 -0.2438998 0.63863856 -0.60928655 -0.4423659 0.45667586 0.5499112 -0.089148164
-0.6181639 -0.48355302 0.3666796 -0.46369672 0.5375959 0.1804432 -0.15830791 -0.52373654
0.09696084 -0.16390407 0.03467508 0.09917115 0.43160328 -0.046999265 0.31941855 0.08401042
0.032967243 0.16307989 -0.51679784 0.39363566 0.47665623 0.032867223 0.55393815 -0.6844306
-0.29067147 0.5211385 0.66216284 0.5618811 -0.5969148 -0.078776866 -0.24273518 -0.26532808
-0.21905419 -0.012033844 0.41102192 -0.42287517 -0.67491513 -0.18279198 -0.6988697 0.06935992
00000000: f7a3 f43e a09c 643d 7fab 1e3f a183 92be
00000010: fa6a 0bbf 9e61 3dbe 2ea4 1b3f 4326 1bbf
00000020: b9b0 1b3f 361b eebd bb8d 073e 8cf0 953e
00000030: ee1d e9bc c9fd a4be 6a29 d73e fd34 d13e
00000040: d850 b83d 8a05 273f 64ef 13be de82 e1be
00000050: 14d0 4abe 1054 be3e 9af4 05bf 82ac 6ebd
00000060: 0eb3 b93e 05e7 17bf 6291 4c3f e82f e33d
00000070: 20b0 823e 2a5c f53e d93c 25bf fd4f 8fbe
00000080: c329 d1be 3663 953e 360d 0dbf 2e44 2ebe
00000090: bb89 d23e 46f6 9b3e 512a df3d ca0a 313f
000000a0: bda6 b4be b798 00bf 9208 03bf 509e 6e3d
000000b0: 0c09 193f ee10 323f 8b1c 3d3f ba6e 983e
000000c0: 9fa1 83be dfc0 79be d17d 233f 34fa 1bbf
000000d0: c97d e2be 6bd1 e93e fbc6 0c3f 5093 b6bd
000000e0: fd3f 1ebf 4394 f7be 6ebd bb3e a869 edbe
000000f0: e39f 093f 1ac6 383e 781b 22be 9913 06bf
00000100: 6893 c63d 78d6 27be 7507 0e3d 3e1a cb3d
00000110: 1bfb dc3e 4d82 40bd d48a a33e a80d ac3d
00000120: a908 073d 6afe 263e dd4c 04bf 9d8a c93e
00000130: 490c f43e c89f 063d e4ce 0d3f d836 2fbf
00000140: e4d2 94be 5569 053f 8183 293f 71d7 0f3f
00000150: 69cf 18bf c455 a1bd 928f 78be 15d9 87be
00000160: be4f 60be 9a29 45bc 7771 d23e 1883 d8be
00000170: 3dc7 2cbf d22d 3bbe 20e9 32bf 930c 8e3d

bias f4 [48]
0.44164014 0.22572261 -0.55768526 -0.0008156371 -0.1796306 -0.43859792 0.6091979 0.27949354
-0.5810744 -0.42890522 0.23476675 0.5237423 -0.7102851 0.6251336 0.30478102 -0.08563982
-0.47414324 -0.31235904 -0.16094385 0.05652669 -0.44810566 -0.18803808 -0.030815946 -0.28412244
0.05070919 0.09428454 -0.3961337 0.1979246 0.6925603 -0.1886418 0.23186885 0.15661924
-0.18684179 -0.34677744 0.21660547 0.5704658 0.29373527 -0.2363232 0.30180955 -0.42644405
0.51400054 0.32240918 0.47998092 0.64741796 0.47291908 -0.35313252 0.6831975 0.57869023
00000000: a81e e23e d423 673e 76c4 0ebf 7bd0 55ba
00000010: 16f1 37be e88f e0be 65f4 1b3f c719 8f3e
00000020: 4bc1 14bf 7799 dbbe b266 703e fa13 063f
00000030: 3fd5 35bf c108 203f 420c 9c3e ee63 afbd
00000040: e7c2 f2be 86ed 9fbe 77ce 24be 8888 673d
00000050: 1b6e e5be 0e8d 40be b971 fcbc 7f78 91be
00000060: 71b4 4f3d 4118 c13d 09d2 cabe bfac 4a3e
00000070: a24b 313f 512b 41be 076f 6d3e cb60 203e
00000080: 7453 3fbe d08c b1be d3cd 5d3e 0c0a 123f
00000090: 7864 963e b5fe 71be c886 9a3e e056 dabe
000000a0: 8a95 033f d112 a53e 0fc0 f53e 2fbd 253f
000000b0: 7322 f23e c9cd b4be 08e6 2e3f 0b25 143f

weight f4 [48, 48]
-0.018587964 -0.26197058 0.10197738 0.128684 -0.05049884 0.117748596 -0.043669444 -0.10339594
0.049066555 0.024689782 0.050283797 -0.05449693 0.018456908 0.004524847 -0.0015768524 0.055323638
-0.06318868 -0.10619897 0.0817384 -0.11230522 0.06106739 -0.007800832 -0.1337637 -0.12829229
0.12202811 -0.088436365 0.17775777 -0.10085606 0.030011952 -0.026012527 -0.1288211 0.0052327276
-0.058772944 0.08970148 -0.14943893 -0.025256008 -0.07740778 0.131007 -0.028584119 -0.12863448
-0.14331204 0.1175909 0.13035682 -0.06662941 0.13198538 0.010995256 -0.029820094 0.051400572
-0.010691058 -0.06303905 -0.11370161 -0.12562467 0.07969539 0.18431242 -0.07394326 0.038246125
0.22394735 0.07461216 0.096025705 0.10643487 0.015438113 0.041240606 -0.07037246 0.012884945
0.12767647 0.09297787 0.03508376 0.09560384 0.014927828 0.019922268 -0.1524306 -0.033956468
-0.13708022 0.046242297 -0.028512029 -0.075082205 -0.09368943 -0.08375465 -0.0074993237 0.00997324
0.04668646 0.003384416 0.06127717 0.11245591 -0.111513436 -0.029706957 0.114586696 -0.07612168
-0.09992435 0.01094859 -0.09166045 0.05126406 -0.01563541 -0.11902275 -0.01521246 -0.06376065
0.16113266 0.06847424 -0.10985632 0.1593922 -0.02831184 0.05262504 0.08598402 0.054943763
-0.09998114 0.09865478 -0.028350068 -0.014479826 -0.11443998 0.14675653 0.14084725 -0.16586383
-0.051284987 -0.08486902 -0.065345675 0.14419675 -0.07721461 -0.29343128 -0.10810239 0.031232316
-0.07738059 -0.021911591 -0.122718714 0.0786478 0.00661704 0.041386623 -0.02850658 0.12247578
-0.050877802 0.026130972 0.15461712 -0.11169268 0.03820436 -0.04007855 0.11181339 0.07337683
-0.08271818 -0.05823726 -0.030662555 0.092505224 -0.06177888 -0.0909249 0.003057919 0.09619618
-0.020827578 0.005733809 0.003826368 -0.11347111 -0.059336115 -0.05594981 -0.03521305 -0.09065804
0.123722576 -0.12871876 0.13383207 0.029515069 0.034314305 -0.07745939 0.15393002 0.003804803
-0.041662823 0.08608532 -0.1327735 0.16579376 -0.09635618 0.09701142 -0.030141372 -0.117276795
-0.108757004 -0.11431825 0.09381505 -0.0028901973 -0.08936998 9.946223e-05 0.104608305 0.07820412
-0.06341433 -0.07423409 0.09522828 -0.0012709169 -0.10953845 0.04256729 -0.07953935 -0.19635883
0.15752295 0.14958006 0.035365965 0.09092007 0.09519208 0.06968076 0.09170675 -0.025073634
0.07716938 -0.06970345 -0.119540855 0.117207736 -0.1284296 0.082314484 -0.114095755 0.07394412
-0.012465852 -0.10574709 -0.0022782583 0.09867727 0.060344603 -0.030406782 0.06653266 0.06036819
-0.029644199 -0.053722236 0.07363337 0.1203759 0.032830663 0.10824424 -0.12549339 -0.121217296
-0.07921558 -0.124486536 0.03555108 -0.09910989 -0.053174846 0.12881199 0.113008566 0.07561445
0.071297124 0.011494787 0.022020161 -0.12356044 -0.0904565 -0.06446259 -0.16075167 -0.004528944
0.051975157 -0.15784158 -0.08550738 0.021250539 -0.15555167 -0.03066812 0.060135756 -0.12289934
-0.13796534 0.15701792 -0.070285454 0.12308701 -0.01265621 0.007940065 0.015846709 0.04616159
-0.18172859 0.17276368 -0.11997796 0.048965603 0.068964586 0.11073283 -0.03666684 -0.0011669525
00000000: c945 98bc 0221 86be 84d9 d03d bdc5 033e
00000010: dfd7 4ebd 2d26 f13d bbde 32bd 40c1 d3bd
00000020: 03fa 483d 3a42 ca3c 62f6 4d3d 2c38 5fbd
00000030: f132 973c 2b45 943b 63ae ceba 0a9b 623d
00000040: 1169 81bd d87e d9bd 7666 a73d 4700 e6bd
00000050: cd21 7a3d 1f9e ffbb 5af9 08be 0e5f 03be
00000060: e0e9 f93d 201e b5bd 2206 363e 9f8d cebd
00000070: a0db f53c 3918 d5bc aee9 03be 4d77 ab3b
00000080: e6bb 70bd 69b5 b73d 8506 19be b0e5 cebc
00000090: f887 9ebd b326 063e 3e29 eabc c2b8 03be
000000a0: 64c0 12be 7fd3 f03d 427c 053e 0075 88bd
000000b0: 2d27 073e 7225 343c 4549 f4bc 6889 523d
000000c0: 8c29 2fbc 9e1a 81bd 64dc e8bd c1a3 00be
000000d0: 5637 a33d 65bc 3c3e 906f 97bd f8a7 1c3d
000000e0: 7452 653e 43ce 983d 20a9 c43d 86fa d93d
000000f0: 24f0 7c3c e9eb 283d 701f 90bd 601b 533c
00000100: 9fbd 023e 2e6b be3d fdb3 0f3d f2cb c33d
00000110: d993 743c 0634 a33c c416 1cbe f015 0bbd
00000120: c25e 0cbe 9068 3d3d 0f92 e9bc b3c4 99bd
00000130: 3ee0 bfbd 8f87 abbd e3bc f5bb cd66 233c
00000140: 4d3a 3f3d 14cd 5d3b c5fd 7a3d 494f e63d
00000150: 2861 e4bd 015c f3bc 6eac ea3d afe5 9bbd
00000160: 23a5 ccbd b761 333c 79b8 bbbd 43fa 513d
00000170: d515 80bc 33c2 f3bd af3d 79bc f294 82bd
00000180: f6ff 243e 393c 8c3d 5afc e0bd b537 233e
00000190: 3bee e7bc 5b8d 573d 6418 b03d b60c 613d
000001a0: e9c2 ccbd 840b ca3d 673e e8bc cb3c 6dbc
000001b0: 825f eabd 5847 163e 433a 103e 35d8 29be
000001c0: 3510 52bd cfcf adbd f4d3 85bd 50a8 133e
000001d0: b222 9ebd a03c 96be c964 ddbd eada ff3c
000001e0: b779 9ebd f07f b3bc f353 fbbd 1912 a13d
000001f0: c1d3 d83b 0585 293d a286 e9bc 95d4 fa3d
00000200: 3e65 50bd 9f10 d63c f353 1e3e 22bf e4bd
00000210: 2d7c 1c3d 6829 24bd 6bfe e43d 9746 963d
00000220: 2668 a9bd 318a 6ebd 0a30 fbbc 6173 bd3d
00000230: da0b 7dbd d536 babd 5e67 483b 8102 c53d
00000240: 999e aabc ade2 bb3b cdc3 7a3b 8b63 e8bd
00000250: 6d0a 73bd a12b 65bd 8f3b 10bd ecaa b9bd
00000260: 4362 fd3d dace 03be 460b 093e 96c9 f13c
00000270: 288d 0c3d 07a3 9ebd d59f 1d3e 005a 793b
00000280: a3a6 2abd 804d b03d c7f5 07be d7c5 293e
00000290: 6456 c5bd ecad c63d 0aeb f6bc d12e f0bd
000002a0: febb debd b01f eabd 1b22 c03d 7769 3dbb
000002b0: 9c07 b7bd 6196 d038 e13c d63d 7b29 a03d
000002c0: 5fdf 81bd 0b08 98bd 0b07 c33d e594 a6ba
000002d0: b255 e0bd 0a5b 2e3d 87e5 a2bd 4a12 49be
000002e0: b24d 213e 842b 193e e7db 103d 4d34 ba3d
000002f0: 11f4 c23d c9b4 8e3d c0d0 bb3d 3967 cdbc
00000300: fb0a 9e3d afc0 8ebd d6d1 f4bd 9c0a f03d
00000310: 0d83 03be 7f94 a83d 09ab e9bd 0470 973d
00000320: 933d 4cbc ee91 d8bd d54e 15bb 4f17 ca3d
00000330: e72b 773d a517 f9bc 4642 883d a344 773d
00000340: 64d8 f2bc d90b 5cbd 18cd 963d a487 f63d
00000350: 7279 063d 28af dd3d 5781 00be c640 f8bd
00000360: c73b a2bd ccf2 febd 029e 113d 20fa cabd
00000370: decd 59bd 4ae7 033e 0971 e73d c0db 9a3d
00000380: 3a04 923d a254 3c3c a063 b43c 420d fdbd
00000390: 4241 b9bd f604 84bd 169c 24be 8967 94bb
000003a0: e7e3 543d 39a1 21be 7e1e afbd 9c15 ae3c
000003b0: f048 1fbe b63b fbbc e950 763d a6b2 fbbd
000003c0: c946 0dbe 4ec9 203e d2f1 8fbd 0b15 fc3d
000003d0: fe5b 4fbc 0c17 023c f5d0 813c ef13 3d3d
000003e0: 0f17 3abe f6e8 303e 01b7 f5bd 2890 483d
000003f0: 4e3d 8d3d e5c7 e23d f82f 16bd 6ef4 98ba

bias f4 [48]
0.018083101 -0.049943414 -0.01436335 0.044218916 0.081444696 -0.0037152544 0.037488744 -0.0050367303
-0.062984854 -0.07033778 0.0941949 -2.138777e-05 0.060524657 0.059531517 0.12678166 0.08579158
0.020666026 -0.079103835 -0.09962444 0.06692024 -0.09828765 -0.0013867074 0.08274149 0.08063327
-0.08364717 0.031071743 -0.1459142 -0.027503358 0.054625116 -0.13364081 -0.051425688 0.075769104
0.098927036 0.08744113 0.013632827 0.10353883 -0.0109975925 -0.15079448 0.088125765 0.12992664
-0.09413476 -0.0800437 0.012832596 0.07408759 0.023571936 -0.050120607 0.04715794 -0.002195034
00000000: 0323 943c 7791 4cbd 4254 6bbc e51e 353d
00000010: 7acc a63d a07b 73bb cc8d 193d 280b a5bb
00000020: 34fe 80bd 410d 90bd 41e9 c03d e369 b3b7
00000030: b4e8 773d 52d7 733d 0dd3 013e 7fb3 af3d
00000040: cc4b a93c 3101 a2bd e607 ccbd 7b0d 893d
00000050: 094b c9bd 2ec2 b5ba 5f74 a93d 0e23 a53d
00000060: 354f abbd 2b8a fe3c 886a 15be b94e e1bc
00000070: 96be 5f3d 23d9 08be bea3 52bd d52c 9b3d
00000080: 429a ca3d 5614 b33d 395c 5f3c 2b0c d43d
00000090: 3f2f 34bc de69 1abe 487b b43d 7d0b 053e
000000a0: bac9 c0bd f4ed a3bd cf3f 523c 3cbb 973d
000000b0: ef19 c13c 444b 4dbd af28 413d 8fda 0fbb

weight f4 [48, 48]
-0.09494438 0.063244246 0.16306888 -0.100345165 -0.13463654 -0.083604135 0.117056645 -0.025597403
0.11875747 -0.10762217 -0.047301095 0.11381223 -0.17337061 -0.18298459 -0.049000077 -0.041370828
0.112698816 -0.004145404 0.02866088 -0.017768284 -0.23551072 -0.14334317 -0.061791837 0.06137022
-0.06591014 0.16830646 0.12749988 0.12724625 0.11515792 0.07272398 0.095538266 0.0978578
-0.13684854 0.08879017 0.0875358 -0.07959385 0.09483375 -0.056741025 -0.072981074 -0.08554366
-0.1408756 0.13221067 0.07007627 0.019510854 -0.13267715 0.03660962 -0.028555801 -0.059147384
-0.12740605 -0.115436144 -0.1353183 0.07179338 -0.06220616 -0.036112837 -0.13086392 0.1778771
-0.009720207 -0.03170531 -0.085221805 0.0934975 -0.11234498 0.03954856 -0.100573115 -0.048158854
0.049579106 0.056556657 0.015245838 0.14288498 0.007921251 -0.017680628 -0.08119838 0.14274171
-0.08087742 -0.16725984 -0.1595669 -0.14561297 -0.000112369 -0.101688825 -0.05615214 -0.03020321
0.12170921 0.0994859 -0.046153143 0.0432216 -0.07253641 0.073894635 -0.017890982 0.080419965
-0.05130384 0.021810321 -0.11253529 -0.053979795 -0.11413163 0.10995628 0.14845835 0.004201807
0.1171731 -0.07311283 -0.014570935 -0.009640934 0.08954644 -0.09376899 -0.04508418 -0.032211766
0.11656715 -0.0013787299 0.10574663 0.10686597 -0.14160351 0.005800234 0.075036846 -0.051891387
-0.07535326 0.35779867 0.047722176 -0.13287571 -0.08314331 -0.06517785 0.05651746 -0.051796004
-0.10677353 -0.036666535 -0.10934439 0.011772016 0.05303984 -0.031230276 -0.2167217 0.13626109
-0.006107433 -0.03835312 -0.03061228 -0.049590725 0.14763376 0.10738852 -0.026540881 0.037331015
0.041919824 -0.07581425 0.11578695 -0.17345576 0.014587477 0.09952279 0.05136704 0.04671168
0.004999866 0.108973496 0.16403328 -0.17253445 0.017069697 -0.017835567 0.0804063 -0.041199483
0.050222255 -0.12742731 -0.014591726 0.031056132 -0.05516417 -0.13271569 -0.01669887 0.111358166
-0.0120159695 -0.122802265 -0.045945276 -0.19061339 -0.14819194 -0.014214573 -0.17474325 0.12089347
-0.050569456 0.12109749 -0.015297671 0.12226043 -0.07370598 -0.09285517 -0.0059122792 -0.10091964
0.056010928 -0.032347858 0.036532328 -0.10792999 -0.045930807 -0.09979834 0.023998126 0.011556223
-0.053593315 0.10665033 -0.07197341 0.08902035 -0.026851218 -0.09727035 -0.025826098 -0.046161547
0.02304641 0.05195839 0.006407533 -0.11410904 0.030557377 0.07247961 0.013299217 -0.045797337
-0.23092462 -0.10436736 0.05620038 -0.051460873 -0.014417643 0.081410214 -0.045350563 -0.02900531
-0.10511657 -0.065058276 -0.039943073 -0.08767371 0.07675415 0.04898225 0.15983148 -0.03972418
0.080326155 -0.10373671 0.03339141 -0.048418906 0.1184437 0.105402656 -0.21790458 -0.03262318
0.041912057 -0.004941435 0.1746557 0.027375853 0.038585976 -0.15821438 -0.09734134 0.040225524
0.13355294 -0.14155175 -0.10304095 0.10455594 0.15713072 0.030270906 -0.15709956 -0.11101727
0.13468987 0.12936556 -9.628777e-05 0.013727592 0.08338 -0.15118812 -0.011353083 0.107058346
-0.040656496 0.11086236 -0.11096965 0.15301739 -0.000770955 -0.0075346804 -0.18953942 -0.031549193
00000000: 3372 c2bd 3386 813d 87fb 263e c481 cdbd
00000010: 29de 09be a538 abbd 65bb ef3d a5b1 d1bc
00000020: 1e37 f33d 0369 dcbd cbbe 41bd 6316 e93d
00000030: 1188 31be 5060 3bbe 4eb4 48bd 7574 29bd
00000040: a3ce e63d 2bd6 87bb 39ca ea3c cb8e 91bc
00000050: b929 71be 8dc8 12be 7019 7dbd 575f 7b3d
00000060: e5fb 86bd 8758 2c3e 548f 023e d74c 023e
00000070: ead7 eb3d 4ff0 943d 91a9 c33d ac69 c83d
00000080: 0622 0cbe 9fd7 b53d f845 b33d 1a02 a3bd
00000090: 3238 c23d 4769 68bd 1a77 95bd 8431 afbd
000000a0: b141 10be 3c62 073e 2684 8f3d 3ad5 9f3c
000000b0: 85dc 07be f8f3 153d dbed e9bc 8744 72bd
000000c0: bb76 02be c969 ecbd e190 0abe 6808 933d
000000d0: e3cb 7ebd 0eeb 13bd 3101 06be 6a25 363e
000000e0: 8141 1fbc 6ddd 01bd c588 aebd 9e7b bf3d
000000f0: 2015 e6bd acfd 213d 47f9 cdbd 3842 45bd
00000100: 7613 4b3d f4a7 673d aec9 793c 7150 123e
00000110: 22c8 013c f7d6 90bc 564b a6bd e22a 123e
00000120: 10a3 a5bd 2a46 2bbe 8165 23be 911b 15be
00000130: a6a7 ebb8 3b42 d0bd c9ff 65bd b96c f7bc
00000140: ae42 f93d 43bf cb3d 140b 3dbd 2209 313d
00000150: f88d 94bd 1256 973d 1c90 92bc 39b3 a43d
00000160: fa23 52bd 8fab b23c e778 e6bd eb19 5dbd
00000170: d8bd e9bd c230 e13d 7705 183e 50af 893b
00000180: 73f8 ef3d 2ebc 95bd eeba 6ebc 02f5 1dbc
00000190: 2064 b73d f509 c0bd 30aa 38bd 7cf0 03bd
000001a0: c2ba ee3d 80b6 b4ba b091 d83d 8cdc da3d
000001b0: 8300 11be e40f be3b ebac 993d 108c 54bd
000001c0: cf52 9abd 6331 b73e 5478 433d 9210 08be
000001d0: 0a47 aabd f77b 85bd da7e 673d 0c28 54bd
000001e0: 15ac dabd a62f 16bd f4ef dfbd 6adf 403c
000001f0: 4e40 593d a3d6 ffbc 4bec 5dbe 0788 0b3e
00000200: dc20 c8bb 2918 1dbd 9bc6 fabc a51f 4bbd
00000210: 4e2d 173e 83ee db3d 436c d9bc 68e8 183d
00000220: 1fb4 2b3d 8044 9bbd b521 ed3d 639e 31be
00000230: 5000 6f3c 9bd2 cb3d 3f66 523d bf54 3f3d
00000240: ead5 a33b 7f2d df3d 57f8 273e dfac 30be
00000250: c0d5 8b3c e51b 92bc 0fac a43d cac0 28bd
00000260: dab5 4d3d 4e7c 02be 2212 6fbc 6e69 fe3c
00000270: d3f3 61bd 9fe6 07be 12cc 88bc c00f e43d
00000280: a1de 44bc c17f fbbd 1d31 3cbd 2830 43be
00000290: a1bf 17be 3ee4 68bc e5ef 32be ff96 f73d
000002a0: eb21 4fbd f601 f83d 15a3 7abc ad63 fa3d
000002b0: 29f3 96bd da2a bebd cbbb c1bb f5ae cebd
000002c0: b76b 653d 307f 04bd eca2 153d 660a ddbd
000002d0: f121 3cbd 1263 ccbd b897 c43c 5056 3d3c
000002e0: aa84 5bbd 7d6b da3d cc66 93bd 4d50 b63d
000002f0: 16f7 dbbc ad35 c7bd 4191 d3bc e413 3dbd
00000300: d3cb bc3c 52d2 543d 48f6 d13b 00b2 e9bd
00000310: 7753 fa3c 3170 943d f6e4 593c fd95 3bbd
00000320: 8177 6cbe 8ebe d5bd 5f32 663d a3c8 52bd
00000330: fa37 6cbc 66ba a63d 83c1 39bd 8b9c edbc
00000340: 5b47 d7bd 463d 85bd 599b 23bd 468e b3bd
00000350: 4831 9d3d 9da1 483d ddaa 233e d2b5 22bd
00000360: 0a82 a43d ea73 d4bd 6ec5 083d e752 46bd
00000370: 9c92 f23d 59dd d73d 6122 5fbe e29f 05bd
00000380: faab 2b3d c3eb a1bb f2d8 323e 5343 e03c
00000390: 540c 1e3d f302 22be e55a c7bd 85c3 243d
000003a0: 1ac2 083e f1f2 10be 2207 d3bd 6d21 d63d
000003b0: e0e6 203e b1fa f73c b5de 20be 065d e3bd
000003c0: 24ec 093e 6878 043e 1aee c9b8 b2e9 603c
000003d0: 22c3 aa3d 0fd1 1abe 4802 3abc 6841 db3d
000003e0: 6d87 26bd ce0b e33d 0e44 e3bd 97b0 1c3e
000003f0: ea19 4aba 7be5 f6bb 9f16 42be ba39 01bd

bias f4 [48]
0.03792773 0.05854625 -0.042679407 -0.07245385 0.055213846 -0.023280367 -0.08834321 0.09755421
0.08097116 -0.017998004 -0.021173086 -0.049368378 0.057478186 -0.095402464 0.04029237 0.14144313
-0.14264777 -0.114384644 0.112810016 0.054675877 0.08183675 -0.063983314 0.0108579025 -0.14149877
0.06926921 0.13725956 -0.11900745 0.10962187 -0.0748549 -0.079383664 -0.07378291 0.093323916
0.021141348 -0.15835373 0.11648255 -0.11267712 -0.04889721 -0.018366901 -0.12289628 -0.109863944
-0.0009089988 -0.12351827 -0.0044031804 -0.06380452 0.11620266 0.017252184 -0.09250478 -0.13100913
00000000: 1b5a 1b3d 31ce 6f3d 9ad0 2ebd af62 94bd
00000010: ea27 623d 78b6 bebc 49ed b4bd 80ca c73d
00000020: 35d4 a53d 8d70 93bc 2e73 adbc 7f36 4abd
00000030: 3f6e 6b3d 5e62 c3bd 9d09 253d 78d6 103e
00000040: 4212 12be 7f42 eabd f008 e73d d0f3 5f3d
00000050: 079a a73d af09 83bd 58e5 313c 0ee5 10be
00000060: 04dd 8d3d c58d 0c3e 2eba f3bd 6e81 e03d
00000070: 874d 99bd e793 a2bd 7f1b 97bd 9c20 bf3d
00000080: 9f30 ad3c 7b27 22be 678e ee3d 43c3 e6bd
00000090: 7148 48bd 2f76 96bc 0bb1 fbbd 5900 e1bd
000000a0: e049 6eba 26f7 fcbd 8e48 90bb f2ab 82bd
000000b0: a9fb ed3d 7454 8d3c 2573 bdbd 4227 06be

weight f4 [48, 48]
-0.20169361 -0.1263706 -0.1308591 -0.029898027 0.16518639 0.1089593 -0.10379131 0.019709503
-0.07517126 -0.039048597 0.08041704 -0.05111779 0.021595735 -0.11526553 0.053132582 -0.08794189
0.05098434 -0.13862984 -0.12346022 0.029890986 0.02984665 -0.059706658 -0.02548376 0.048377275
-0.026281558 0.006207115 0.035729922 0.12703992 -0.023209775 0.09114986 0.050994776 0.01643715
-0.047649868 0.0072568236 0.10535195 -0.048439506 -0.049369402 0.13809685 -0.09290392 0.034668844
-0.09821473 -0.12001781 0.048891217 -0.06761412 0.17181544 -0.049289986 -0.015703581 0.0868227
-0.07880305 0.105558194 -0.14814202 -0.030675322 0.098101415 -0.016956532 -0.0788781 0.021963635
-0.14898597 -0.16621031 -0.029351354 0.012030321 -0.10118852 0.024270952 0.07335429 -0.040119965
-0.09106026 -0.03286708 0.013936087 -0.1315611 -0.0950515 0.08692782 0.0075948862 -0.087651
0.12568656 0.07797138 0.058138918 0.009755256 -0.004740269 -0.0063633663 -0.056542214 0.09957061
0.0765387 0.012562302 0.0028134098 -0.07803992 -0.0011155669 0.12393742 -0.039712854 -0.06698341
-0.10736044 -0.077520624 0.036955923 -0.058991123 -0.09042224 -0.13532838 -0.08463457 -0.06734536
-0.13462342 -0.09817929 0.039261978 0.12500675 0.1087732 0.082170516 -0.072625116 -0.023470834
-0.14162438 -0.026046399 0.017190615 -0.09199844 -0.05439898 -0.079845704 0.07777223 0.113122165
-0.0059485026 -0.0016704575 -0.1376274 0.058810443 0.09763037 -0.16066884 0.05239016 -8.566208e-06
0.087349966 -0.0843238 -0.14159709 -0.041685853 -0.044151146 0.106639855 -0.14320715 -0.069988996
-0.10727566 -0.105636746 0.0993682 -0.06980387 0.05199684 0.15710793 0.06292084 0.0634841
0.081605844 0.07257883 -0.048957806 -0.020537838 0.008042941 0.0043006004 0.0670712 -0.14423785
-0.14343199 0.119100116 -0.006278508 -0.13321339 -0.001991791 -0.10351069 -0.05925559 -0.084719636
0.096180856 -0.03872717 0.07303251 0.091199435 -0.059667356 0.10711646 0.08487345 -0.08775419
-0.04129055 -0.054448236 0.085411094 -0.1324888 -0.0026393826 -0.108914725 0.013067267 0.15109831
-0.02298806 -0.10257798 0.14730795 0.10944356 -0.013520479 0.025966844 0.054664873 0.08950511
-0.04769293 0.054223478 0.077060655 -0.12448288 0.12984066 -0.016563762 -0.033321157 0.029658658
-0.07564802 0.08017516 0.034392335 -0.12278545 -0.027987417 -0.034067035 -0.07849755 0.003205925
-0.0028530348 0.15322931 0.08447283 -0.028999718 0.06473892 0.061704714 -0.03526703 0.08648592
-0.022395454 0.11296174 0.13360871 -0.0782274 0.074485205 0.0801961 -0.14937629 -0.008774502
0.095583044 0.06711818 -0.11867289 0.06014542 0.0193105 -0.029543094 -0.06845156 0.0050708377
0.037092276 -0.09772325 -0.108627416 -0.14269467 0.09684984 -0.02598767 0.114103444 0.1541664
0.07171684 -0.047603548 -0.18971159 0.08955065 -0.11160197 -0.065028794 -0.07076825 -0.05236177
-0.08282478 -0.13167919 -0.13482761 0.11080413 0.084846005 0.07177967 -0.120553106 0.11749567
-0.16568308 -0.11956944 -0.02439595 -0.07726413 0.19062352 0.07924166 -0.06319076 0.11938336
-0.1600038 0.083823696 -0.15924205 -0.12313156 -0.11713838 0.062026158 -0.08707747 -0.13647716
00000000: c588 4ebe 4b67 01be eeff 05be b5ec f4bc
00000010: 9f26 293e 0e26 df3d 8a90 d4bd d375 a13c
00000020: 64f3 99bd 6cf1 1fbd b0b1 a43d e360 51bd
00000030: 8ae9 b03c 5610 ecbd 8da1 593d e11a b4bd
00000040: f5d4 503d fbf4 0dbe b6d8 fcbd f1dd f43c
00000050: f680 f43c f88e 74bd 51c3 d0bc 4027 463d
00000060: 6c4c d7bc 0e65 cb3b 8a59 123d c116 023e
00000070: 6d22 bebc c7ac ba3d e6df 503d 34a7 863c
00000080: 822c 43bd a6ca ed3b c3c2 d73d 8168 46bd
00000090: 9237 4abd 4369 0d3e 6944 bebd eb00 0e3d
000000a0: ce24 c9bd e6cb f5bd 2842 483d 4679 8abd
000000b0: 63f0 2f3e 4ce4 49bd cca4 80bc 1ad0 b13d
000000c0: 7e63 a1bd e52e d83d 8bb2 17be d04a fbbc
000000d0: 65e9 c83d 6de8 8abc d78a a1bd 15ed b33c
000000e0: c78f 18be 0933 2abe 4072 f0bc d31a 453c
000000f0: ed3b cfbd e0d3 c63c c63a 963d d554 24bd
00000100: cd7d babd a29f 06bd 2f54 643c f4b7 06be
00000110: 5caa c2bd 3707 b23d 86de f83b 5e82 b3bd
00000120: fab3 003e 75af 9f3d 1323 6e3d 82d4 1f3c
00000130: 4254 9bbb c983 d0bb cf98 67bd adeb cb3d
00000140: 52c0 9c3d 1dd2 4d3c 2f61 383b 65d3 9fbd
00000150: 3738 92ba e7d2 fd3d f2a9 22bd 992e 89bd
00000160: cadf dbbd 22c3 9ebd 185f 173d ada0 71bd
00000170: 4c2f b9bd 8693 0abe e454 adbd 5dec 89bd
00000180: b9da 09be 3912 c9bd 2bd1 203d c501 003e
00000190: 7cc4 de3d 0449 a83d 7abc 94bd e845 c0bc
000001a0: fb05 11be 425f d5bc 55d3 8c3c ae69 bcbd
000001b0: 77d1 5ebd 2586 a3bd 0c47 9f3d 98ac e73d
000001c0: a8eb c2bb 41f3 daba 32ee 0cbe 38e3 703d
000001d0: 6ef2 c73d 5f86 24be 1097 563d 95b7 0fb7
000001e0: 8ae4 b23d f5b1 acbd d4fe 10be c9be 2abd
000001f0: d5d7 34bd ff65 da3d e5a4 12be 6456 8fbd
00000200: 57b3 dbbd 1458 d8bd 8e81 cb3d 55f5 8ebd
00000210: a3fa 543d e7e0 203e a4dc 803d f403 823d
00000220: f720 a73d 36a4 943d fb87 48bd f83e a8bc
00000230: 8ac6 033c 0dec 8c3b a05c 893d 16b3 13be
00000240: d6df 12be c3ea f33d f1bb cdbb 1769 08be
00000250: b588 02bb 6afd d3bd fdb5 72bd 7d81 adbd
00000260: 78fa c43d 62a0 1ebd 1292 953d c5c6 ba3d
00000270: c265 74bd e05f db3d 22d2 ad3d 78b8 b3bd
00000280: 4820 29bd 1d05 5fbd 03ec ae3d 25ab 07be
00000290: 7ef9 2cbb af0e dfbd 1718 563c 84b9 1a3e
000002a0: 7551 bcbc 6714 d2bd e5d7 163e f223 e03d
000002b0: 0085 5dbc 6bb8 d43c 46e8 5f3d 754e b73d
000002c0: a959 43bd 7019 5e3d fad1 9d3d e1f0 febd
000002d0: f3f4 043e bab0 87bc c47b 08bd b7f6 f23c
000002e0: 59ed 9abd e032 a43d fade 0c3d f076 fbbd
000002f0: de45 e5bc e089 0bbd 53c3 a0bd 7f1a 523b
00000300: fbf9 3abb 25e8 1c3e 1700 ad3d d190 edbc
00000310: d795 843d 15be 7c3d 2974 10bd 881f b13d
00000320: ac76 b7bc 7c58 e73d b9d0 083e b035 a0bd
00000330: b38b 983d da3d a43d 19f6 18be eec2 0fbc
00000340: 0bc1 c33d 4275 893d c60a f3bd 0b5b 763d
00000350: 0e31 9e3c 5c04 f2bc 5530 8cbd 4529 a63b
00000360: 12ee 173d 2123 c8bd 0d78 debd 8d1e 12be
00000370: 3559 c63d 18e4 d4bc 11af e93d ccdd 1d3e
00000380: 47e0 923d f0fb 42bd c143 42be 5566 b73d
00000390: 938f e4bd d12d 85bd f2ee 90bd 4c79 56bd
000003a0: 0aa0 a9bd e9d6 06be 4010 0abe 47ed e23d
000003b0: bec3 ad3d 3801 933d 8ce4 f6bd 92a1 f03d
000003c0: d3a8 29be d3e0 f4bd 04da c7bc a83c 9ebd
000003d0: d032 433e 7449 a23d 286a 81bd 437f f43d
000003e0: 09d8 23be c2ab ab3d 5910 23be 662c fcbd
000003f0: 3fe6 efbd 240f 7e3d ac55 b2bd abc0 0bbe

bias f4 [48]
0.0627056 0.10816637 0.05712176 -0.048195504 -0.0070194057 0.10152926 0.09456401 -0.11643365
0.09037112 -0.12768032 -0.048898127 -0.05205586 -0.04051882 0.02705019 -0.13189203 0.06738915
-0.0091226455 0.06131823 0.109953284 0.008240181 -0.046810612 -0.059768002 -0.06814575 0.11930595
0.1333445 -0.08411824 -0.13904391 -0.12956911 -0.08425064 0.06921543 0.07941222 -0.0055551473
0.117360234 0.07889247 -0.12636776 -0.08955712 0.07198896 -0.11539558 0.09959054 -0.090032786
-0.04952225 0.05876608 0.0151070375 0.078097686 -0.08465059 0.03704748 -0.11075513 0.1319293
00000000: cb6b 803d 5486 dd3d 82f8 693d a668 45bd
00000010: 0b03 e6bb 93ee cf3d c7aa c13d c474 eebd
00000020: 7e14 b93d a1be 02be 6749 48bd 8738 55bd
00000030: 10f7 25bd 5c98 dd3c b40e 07be 5303 8a3d
00000040: 2677 15bc d328 7b3d 302f e13d d301 073c
00000050: 7cbc 3fbd 4bcf 74bd 0090 8bbd ae56 f43d
00000060: 768b 083e 2f46 acbd 8761 0ebe c4ad 04be
00000070: 998b acbd d2c0 8d3d e0a2 a23d f407 b6bb
00000080: 905a f03d 6092 a13d 8d66 01be b969 b7bd
00000090: f36e 933d 8554 ecbd 20f6 cb3d 1c63 b8bd
000000a0: d8d7 4abd b3b4 703d 8283 773c aef1 9f3d
000000b0: 4a5d adbd 19bf 173d 96d3 e2bd 7918 073e

weight f4 [4, 48]
0.025600703 -0.10834537 0.061343834 0.06954042 0.027346877 0.032150522 -0.11965586 0.008644109
-0.14605497 -0.05552861 -0.06536679 0.13445905 -0.11223938 0.011240118 0.05250231 0.018247653
-0.0057761744 0.023901682 0.13064556 0.06372429 -0.09195878 -0.12733288 -0.021962916 0.07437521
-0.12050214 0.05423231 -0.11832403 0.110076234 0.025561828 0.051316597 -0.0063467207 0.07627246
0.117002696 0.11069475 0.035711765 -0.095666595 0.0013671601 -0.13104428 0.09928833 -0.052061666
0.110263586 0.07929104 -0.10908625 -0.1546476 -0.009579627 0.0015357648 -0.06652912 0.053943865
-0.061332885 0.054662466 -0.17572805 0.07597632 0.10192202 -0.10922475 0.06542368 -0.13724323
0.055160202 -0.000106259744 0.12383848 0.14599162 -0.015051187 0.06936627 0.08191442 0.10927846
-0.11800253 -0.1355363 -0.0015919411 -0.051576328 0.04483387 -0.17109102 -0.16192685 0.13551055
-0.018272245 0.050514523 -0.019751675 0.121726036 -0.047379006 -0.10486924 -0.1518132 -0.038102206
-0.061218303 -0.0374105 0.10987137 0.012161582 0.095220976 -0.094027914 -0.06785592 0.094376735
0.092933625 0.15394273 -0.06916736 0.018210849 -0.0038059137 -0.090502225 0.13043694 -0.10283818
-0.019860275 -0.025585338 0.04240589 -0.1377699 0.14535345 -0.24264309 0.088703014 0.08915156
-0.043011274 0.12949061 0.09873555 -0.08743265 0.034175634 -0.12170179 0.09439073 0.08209475
-0.094149314 -0.056402475 0.11720611 0.13300332 0.075387545 0.11440851 0.023997106 0.06686364
0.12001775 -0.18106483 -0.1406168 0.05026859 0.18505901 -0.19853853 0.060181845 0.19055057
3.3888555e-05 -0.048105903 -0.14792493 -0.06578424 -0.2158442 -0.027175853 -0.091956176 0.021703128
-0.09003224 0.1763071 -0.07349533 -0.07498285 0.010903681 0.11986799 0.028051665 0.12689501
-0.1070171 -0.10938856 -0.14474842 -0.07489111 0.04981355 -0.045474224 -0.04250013 0.05142159
0.037421502 -0.054798283 -0.10726281 0.11641869 0.055061355 0.11773297 -0.15352847 -0.0817091
-0.06822214 -0.040506244 -0.009015587 0.17048126 0.046421383 -0.0123532815 -0.04696174 -0.052118674
-0.024235155 -0.17508817 -0.065750696 -0.0070299576 0.049165327 -0.07614911 0.06800066 -0.07656338
0.09648664 0.11003921 -0.0025046985 0.0005953919 -0.08831547 -0.003069932 0.026694717 -0.081524745
-0.12476165 -0.14587602 0.118435025 -0.100785986 -0.07519844 -0.15824793 0.0385049 -0.09239429
00000000: 91b8 d13c 2de4 ddbd ac43 7b3d 356b 8e3d
00000010: 8f06 e03c 44b0 033d 220e f5bd 05a0 0d3c
00000020: 6f8f 15be f871 63bd 06df 85bd a2af 093e
00000030: c3dd e5bd 7928 383c aa0c 573d 1a7c 953c
00000040: 1046 bdbb 76cd c33c f3c7 053e e181 823d
00000050: e354 bcbd 8d63 02be 93eb b3bc 0852 983d
00000060: d3c9 f6bd b322 5e3d de53 f2bd a66f e13d
00000070: 0a67 d13c 5a31 523d 27f8 cfbb bc34 9c3d
00000080: 1c9f ef3d eeb3 e23d 8046 123d d9ec c3bd
00000090: 4832 b33a 7930 06be ae57 cb3d 9d3e 55bd
000000a0: e0d1 e13d 5763 a23d 9d68 dfbd f15b 1ebe
000000b0: def3 1cbc b74b c93a 6b40 88bd 3ef4 5c3d
000000c0: 3138 7bbd c0e5 5f3d 0ef2 33be 7999 9b3d
000000d0: 7ebc d03d 3ab1 dfbd dafc 853d 7d89 0cbe
000000e0: aaef 613d c4d7 deb8 079f fd3d d47e 153e
000000f0: 4199 76bc e70f 8e3d bfc2 a73d 63cd df3d
00000100: 4fab f1bd 07ca 0abe aea8 d0ba b341 53bd
00000110: b8a3 373d 7c32 2fbe 27d0 25be 47c3 0a3e
00000120: adaf 95bc 51e8 4e3d 44ce a1bc 804b f93d
00000130: 7d10 42bd afc5 d6bd eb74 1bbe 0f11 1cbd
00000140: 0bc0 7abd c13b 19bd 3e04 e13d 5f41 473c
00000150: 3703 c33d b591 c0bd 0bf8 8abd 9748 c13d
00000160: fc53 be3d 2aa3 1d3e 9ea7 8dbd eb2e 953c
00000170: a36c 79bb 3b59 b9bd 4391 053e d39c d2bd
00000180: 04b2 a2bc 5898 d1bc ccb1 2d3d 8d13 0dbe
00000190: 89d7 143e 6e77 78be eda9 b53d 1895 b63d
000001a0: 972c 30bd 3099 043e dd35 ca3d e40f b3bd
000001b0: c0fb 0b3d ca3e f9bd ed4f c13d 4b21 a83d
000001c0: 5bd1 c0bd 4806 67bd c209 f03d 0632 083e
000001d0: c964 9a3d 024f ea3d 9495 c43c ceef 883d
000001e0: decb f53d 0f69 39be dafd 0fbe 70e6 4d3d
000001f0: 1c80 3d3e af4d 4bbe 3d81 763d b01f 433e
00000200: 8f23 0e38 b20a 45bd a279 17be e3b9 86bd
00000210: 4306 5dbe e59f debc 8553 bcbd c2ca b13c
00000220: d362 b8bd d989 343e b884 96bd 9c90 99bd
00000230: 5aa5 323c 597d f53d 9bcc e53c c4f0 013e
00000240: c82b dbbd 1c07 e0bd ee38 14be 8360 99bd
00000250: 4b09 4c3d 2e43 3abd 9e14 2ebd 729f 523d
00000260: 4a47 193d 2a74 60bd 9bac dbbd ec6c ee3d
00000270: 0488 613d fc1d f13d 9136 1dbe 1a57 a7bd
00000280: 0db8 8bbd e0e9 25bd 1db6 13bc a492 2e3e
00000290: 5924 3e3d 6b65 4abc f45a 40bd 647a 55bd
000002a0: ce88 c6bc 504a 33be 4da8 86bd 8f5b e6bb
000002b0: 9561 493d 11f4 9bbd ee43 8b3d 43cd 9cbd
000002c0: ca9a c53d 3d5c e13d de25 24bb 1314 1c3a
000002d0: bede b4bd ea30 49bb e1ae da3c 72f6 a6bd
000002e0: 0983 ffbd 8660 15be 108e f23d e268 cebd
000002f0: a401 9abd bf0b 22be 50b7 1d3d 3839 bdbd

bias f4 [4]
-0.08167182 0.022277959 0.09016934 0.06454185
00000000: 8e43 a7bd 4480 b63c b4aa b83d 842e 843d
