mPINNs-R1/mPINNs_result/result6/model.pth (torch, 34972 bytes, 10 tensors)

weight f4 [48, 2]
0.68667334 0.39396548 0.27394116 -0.48310307 -0.53507185 0.4821954 -0.15302424 0.5758259
0.36850983 0.06658455 0.24234593 0.6219181 0.15328838 -0.4904877 -0.15658061 0.13085136
-0.68252605 -0.18577185 0.23016182 -0.21085195 0.713291 -0.42593557 -0.33788803 0.119337566
-0.26940867 0.17311305 -0.5543907 -0.44066706 -0.5225788 0.62128496 0.50729346 0.43238604
0.5172512 0.3466579 0.6713072 0.017819516 -0.15948291 0.09176646 -0.5104962 0.69007623
-0.40186244 0.4265952 0.43896797 0.3362387 -0.20286372 0.52735096 -0.48682708 0.35357347
-0.5897687 0.11336266 0.08376802 -0.6010472 0.5237523 0.5298159 0.1621585 0.38172483
0.123194225 0.5640243 -0.71098447 0.51601225 -0.46206883 -0.5648578 0.5788306 0.15624529
0.5117473 -0.7299422 0.120165944 -0.4383624 0.6631151 -0.2621061 0.5704655 -0.5518972
-0.22093165 -0.4840308 0.47567973 0.010610387 -0.6565926 0.3213573 0.6796327 0.15718327
0.33976918 -0.61673754 0.31688836 0.3511292 -0.30645153 -0.14945069 0.295414 -0.44729838
0.19064105 0.7190508 0.61362994 -0.03648843 0.5339731 -0.7027199 0.5671164 0.4685303
00000000: d3c9 2f3f d8b5 c93e 0442 8c3e 4959 f7be
00000010: 78fa 08bf 51e2 f63e 63b2 1cbe 5469 133f
00000020: 52ad bc3e 7b5d 883d 8829 783e 0636 1f3f
00000030: a1f7 1c3e 3421 fbbe ab56 20be e6fd 053e
00000040: 07ba 2ebf fa3a 3ebe 8aaf 6b3e 93e9 57be
00000050: 3d9a 363f 3a14 dabe a9ff acbe 4167 f43d
00000060: efef 89be 8c44 313e 8dec 0dbf 1d9f e1be
00000070: b9c7 05bf 880c 1f3f fcdd 013f b461 dd3e
00000080: 936a 043f 257d b13e cada 2b3f 3cfa 913c
00000090: 7d4f 23be 0ef0 bb3d e1af 02bf d6a8 303f
000000a0: eac0 cdbe b06a da3e 69c0 e03e 7b27 ac3e
000000b0: 82bb 4fbe 7900 073f 6641 f9be 9507 b53e
000000c0: 15fb 16bf af2a e83d 918e ab3d 3bde 19bf
000000d0: a114 063f 04a2 073f e10c 263e 7071 c33e
000000e0: 414d fc3d e663 103f 1403 36bf 6119 043f
000000f0: 4994 ecbe 859a 10bf 3e2e 143f c4fe 1f3e
00000100: df01 033f 7edd 3abf 9019 f63d 0971 e0be
00000110: e9c1 293f c532 86be 070a 123f 2349 0dbf
00000120: e83b 62be e3d2 f7be 4b8c f33e 30d7 2d3c
00000130: 7416 28bf f288 a43e 69fc 2d3f a7f4 203e
00000140: 3af6 ad3e 83e2 1dbf 313f a23e 35c7 b33e
00000150: 37e7 9cbe 9a09 19be 8140 973e 4b04 e5be
00000160: 6837 433e b713 383f da16 1d3f e474 15bd
00000170: 76b2 083f 74e5 33bf 8a2e 113f 34e3 ef3e

bias f4 [48]
0.61421347 -0.01825279 -0.5283722 0.21078676 0.5082737 0.4085348 0.17547578 -0.27745825
-0.38510907 -0.58493423 -0.18300666 0.50405234 -0.07626307 -0.44207233 0.21618907 0.5741515
0.17300932 0.06410592 -0.53590566 -0.6342653 -0.43256953 -0.46488398 0.2008482 -0.5016864
-0.10280113 0.16242081 0.2888024 0.55310196 -0.20030127 0.5100111 -0.33037674 -0.32570377
-0.6128438 -0.30827683 0.4692151 0.23570335 0.05756517 0.029134186 -0.6211118 -0.5145917
-0.41956818 0.66782975 -0.021645503 0.24910301 0.30956346 0.2748231 -0.6577802 -0.078917064
00000000: 183d 1d3f e086 95bc 6743 07bf 7cd8 573e
00000010: 3a1e 023f 792b d13e ecaf 333e 020f 8ebe
00000020: 042d c5be 40be 15bf 1966 3bbe 9309 013f
00000030: d02f 9cbd 4e57 e2be ab60 5d3e 98fb 123f
00000040: 5b29 313e f749 833d 1d31 09bf 365f 22bf
00000050: c179 ddbe 4605 eebe 27ab 4d3e 856e 00bf
00000060: 6689 d2bd a451 263e e8dd 933e 1798 0d3f
00000070: c71b 4dbe 1690 023f 2427 a9be a5c2 a6be
00000080: 55e3 1cbf 76d6 9dbe f63c f03e 385c 713e
00000090: 75c9 6b3d d1aa ee3c 2f01 1fbf 48bc 03bf
000000a0: a4d1 d6be e4f6 2a3f e951 b1bc dc14 7f3e
000000b0: 1a7f 9e3e 9db5 8c3e 4864 28bf 459f a1bd

weight f4 [48, 48]
-0.04875938 -0.12367896 0.017537182 0.005967665 -0.0039183376 -0.09960138 0.0017919041 -0.054484386
0.0050043794 0.06151442 -0.005161216 -0.11772932 -0.019753193 -0.045855585 0.070952594 0.11810518
-0.05540734 0.113834135 -0.14286987 0.09875641 -0.13145083 0.06244241 -0.045534227 0.028363189
0.05185082 0.10875497 0.06208735 -0.1228834 0.11367545 0.11777526 -0.12882791 0.1532676
-0.089628264 -0.09459043 -0.033871785 -0.0072148186 0.050173137 -0.00801439 0.11188154 0.16745135
-0.11220682 -0.024899403 -0.11222747 -0.062223695 -0.044522952 -0.020892391 0.060672432 0.008457066
-0.023036689 -0.086032085 -0.12363835 0.10386839 0.07717274 -0.13564792 -0.08429787 0.05675948
-0.026770575 -0.089894295 0.069187045 0.05493207 -0.03602963 0.12731932 0.1293103 0.06375114
0.05350867 -0.19041204 -0.042265143 -0.07304251 0.11371194 0.06349576 -0.13191022 0.0056409026
0.016399968 0.14280882 0.0062983925 -0.070253916 -0.062637664 -0.12835144 0.10852557 -0.12965746
0.11976981 0.01517775 0.04222755 0.1312842 0.093348294 0.045731433 0.12103764 0.033380743
0.05712389 -0.048940863 0.010368287 -0.007883614 0.06442139 0.07908212 -0.13731214 -0.1643976
-0.14911605 -0.02237394 0.067905605 0.038019393 -0.06275541 0.04604376 -0.026466263 0.13613974
0.17709294 0.13971734 0.0014124684 -0.017419731 0.05287017 -0.056515828 -0.059440244 -0.034582153
-0.039664783 -0.15238796 0.004872121 -0.13336797 0.13346508 -0.08044639 0.002394121 0.12563598
0.20101032 -0.115013935 0.034891065 0.099388264 -0.11524235 0.027913764 0.060778324 -0.03844503
0.04600506 -0.045618523 -0.05898077 0.008139909 -0.07267291 -0.14787233 -0.0064313337 0.005439198
0.110143974 -0.10460704 0.048897225 0.0059863473 -0.121820256 -0.1846673 0.14853615 0.049438536
0.04579091 -0.13076831 -0.061747517 -0.06895348 -0.00668227 0.019609319 -0.07596614 -0.09799068
0.036635537 0.07119402 -0.022910168 -0.020565614 -0.005023834 -0.08118074 -0.011424498 -0.061204262
0.031971335 -0.005776138 -0.020992227 0.1200082 0.07103066 -0.17473778 0.00906134 -0.019189784
0.14758974 -0.10271353 0.13762708 0.1311694 0.002539663 -0.018144242 -0.15221626 0.016903017
0.07660548 -0.023755487 -0.09295632 -0.007587818 -0.07105123 -0.16250105 -0.056089494 -0.1879751
-0.010118854 -0.15229982 0.14151706 -0.10482589 -0.023377873 -0.17101012 0.0357962 -0.14482175
-0.07805122 0.095591776 -0.019191092 -0.090973854 -0.10322311 0.12797144 -0.040211983 0.11226974
0.038460024 -0.08690692 0.080759875 0.09424884 0.07137658 0.11781504 0.066208825 -0.112418115
0.05058727 -0.14820533 -0.003645005 0.07941542 -0.05075735 0.028513785 -0.040562667 0.21287097
-0.010904803 0.10239653 -0.02679575 -0.05256819 -0.09252733 0.018721893 0.100251116 -0.07111017
0.043193758 0.11111381 -0.13002616 0.0072870417 -0.053458873 -0.21745291 0.027190201 0.0619855
-0.06575273 -0.09125941 0.034323484 0.02399612 -0.058329076 -0.08542675 0.13121085 0.06271101
-0.0059906314 -0.05412035 -0.03635543 0.015209394 -0.055694062 -0.06921772 0.06625561 0.052807104
0.14234489 -0.07745322 -0.07261234 -0.11640038 0.14555116 -0.044825736 -0.052953843 -0.010823881
00000000: eab7 47bd 654b fdbd 23aa 8f3c 678c c33b
00000010: 6665 80bb cffb cbbd 53de ea3a 052b 5fbd
00000020: c7fb a33b 8bf6 7b3d 6b1f a9bb 121c f1bd
00000030: 73d1 a1bc 11d3 3bbd 984f 913d 21e1 f13d
00000040: cff2 62bd df21 e93d 7b4c 12be cd40 ca3d
00000050: 0c9b 06be 9dc3 7f3d 1982 3abd eb59 e83c
00000060: 8761 543d edba de3d 4e4f 7e3d 4baa fbbd
00000070: adce e83d 2834 f13d 77eb 03be 2ff2 1c3e
00000080: 068f b7bd a1b8 c1bd 24bd 0abd 496a ecbb
00000090: 5982 4d3d ca4e 03bc 2622 e53d 5e78 2b3e
000000a0: b0cc e5bd d5f9 cbbc 84d7 e5bd 46de 7ebd
000000b0: b35d 36bd 8526 abbc a883 783d 818f 0a3c
000000c0: 70b7 bcbc 9731 b0bd 1a36 fdbd f3b8 d43d
000000d0: be0c 9e3d 4ae7 0abe 5da4 acbd a17c 683d
000000e0: f74d dbbc 801a b8bd f0b1 8d3d 7300 613d
000000f0: ce93 13bd ff5f 023e eb69 043e f58f 823d
00000100: e82b 5b3d 60fb 42be 371e 2dbd 5097 95bd
00000110: cee1 e83d 110a 823d 7913 07be 52d7 b83b
00000120: 3a59 863c 7a3c 123e bf62 ce3b 49e1 8fbd
00000130: 2d48 80bd 8f6e 03be a742 de3d edc4 04be
00000140: e049 f53d 19ac 783c ccf6 2c3d 5e6f 063e
00000150: 642d bf3d e250 3b3d 95e2 f73d 3fba 083d
00000160: bdfa 693d 3776 48bd bfdf 293c 462a 01bc
00000170: 5def 833d cef5 a13d 8e9b 0cbe d857 28be
00000180: e1b1 18be 8e49 b7bc 1812 8b3d 39ba 1b3d
00000190: e985 80bd 6298 3c3d c7cf d8bc 3768 0b3e
000001a0: da57 353e 1012 0f3e 9322 b93a d3b3 8ebc
000001b0: 648e 583d 247d 67bd 9d77 73bd 04a6 0dbd
000001c0: 8a77 22bd 970b 1cbe 50a6 9f3b 9d91 08be
000001d0: 12ab 083e 14c1 a4bd afe6 1c3b b8a6 003e
000001e0: a6d5 4d3e 6d8c ebbd efe9 0e3d 138c cb3d
000001f0: 2e04 ecbd 68ab e43c b1f2 783d 8978 1dbd
00000200: cd6f 3c3d 7dda 3abd d295 71bd 415d 053c
00000210: 89d5 94bd d86b 17be f0bd d2bb 4d3b b23b
00000220: 2a93 e13d 373c d6bd 7548 483d 1f29 c43b
00000230: e67c f9bd 6d19 3dbe dc19 183e 1080 4a3d
00000240: 408f 3b3d 21e8 05be f7ea 7cbd 7b37 8dbd
00000250: f2f6 dabb b9a3 a03c 2394 9bbd 56af c8bd
00000260: 250f 163d 2cce 913d 1bae bbbc 3879 a8bc
00000270: f99e a4bb 1642 a6bd d12d 3bbc 52b1 7abd
00000280: 60f4 023d c245 bdbb e4f7 abbc dcc6 f53d
00000290: 8678 913d 76ee 32be 0476 143c e533 9dbc
000002a0: c421 173e 795b d2bd 1dee 0c3e 4551 063e
000002b0: 7a70 263b 3ca3 94bc 94de 1bbe 3278 8a3c
000002c0: 55e3 9c3d de9a c2bc e25f bebd 3ba3 f8bb
000002d0: 4f83 91bd ad66 26be 19be 65bd 8b7c 40be
000002e0: 8dc9 25bc 7cf4 1bbe d9e9 103e f5ae d6bd
000002f0: f482 bfbc 471d 2fbe 099f 123d 274c 14be
00000300: 51d9 9fbd 9fc5 c33d a336 9dbc 8050 babd
00000310: a366 d3bd f20a 033e 52b5 24bd aded e53d
00000320: 4288 1d3d 41fc b1bd 6f65 a53d 8905 c13d
00000330: e22d 923d 0349 f13d 7e98 873d 783b e6bd
00000340: 9934 4f3d 23c3 17be 09e1 6ebb 8da4 a23d
00000350: f0e6 4fbd be95 e93c 0a25 26bd d9fa 593e
00000360: 0faa 32bc 46b5 d13d c382 dbbc be51 57bd
00000370: f87e bdbd a85e 993c 7550 cd3d 35a2 91bd
00000380: f0eb 303d a38f e33d 9425 05be 23c8 ee3b
00000390: b1f7 5abd faab 5ebe fcbd de3c 82e4 7d3d
000003a0: 5ea9 86bd 37e6 babd c896 0c3d 8393 c43c
000003b0: 78ea 6ebd 38f4 aebd 235c 063e a16e 803d
000003c0: 0f4d c4bb 4dad 5dbd 6ee9 14bd d230 793c
000003d0: 751f 64bd 05c2 8dbd 05b1 873d 434c 583d
000003e0: dcc2 113e cb9f 9ebd c7b5 94bd 5363 eebd
000003f0: 5d0b 153e 319b 37bd 21e6 58bd a656 31bc

bias f4 [48]
-0.022638792 -0.031362724 0.047900178 -0.052012354 0.12286147 -0.04509571 0.08763641 -0.008978769
-0.074302636 -0.07995479 -0.07349531 0.046957307 -0.022795474 -0.092306696 0.11526389 0.056231458
0.15761171 -0.09783921 -0.08738267 -0.019287808 -0.012472594 -0.040191803 -0.099155016 -0.059817538
-0.12253056 0.13109478 0.0240455 0.0013854494 0.1511652 -0.02196722 -0.11700687 0.10977481
0.061680015 -0.04629858 -0.073375165 -0.16441065 -0.004875555 0.09486668 -0.038635753 -0.0086340895
0.089342766 0.08335807 -0.13820058 -0.13459265 -0.092766345 -0.13480896 0.04370821 0.01937584
00000000: fd74 b9bc 3376 00bd fa32 443d e80a 55bd
00000010: cb9e fb3d 47b6 38bd b87a b33d b01b 13bc
00000020: fb2b 98bd 56bf a3bd b684 96bd 4e56 403d
00000030: 93bd babc 4b0b bdbd 790f ec3d f552 663d
00000040: f764 213e ec5f c8bd aff5 b2bd 7701 9ebc
00000050: da59 4cbc 29a0 24bd c911 cbbd 3c03 75bd
00000060: 4df1 fabd b63d 063e 12fb c43c f897 b53a
00000070: 0dcb 1a3e 99f4 b3bc 4ca1 efbd 9ed1 e03d
00000080: 2fa4 7c3d 94a3 3dbd b845 96bd 445b 28be
00000090: 1fc3 9fbb 7649 c23d 8640 1ebd ff75 0dbc
000000a0: 57f9 b63d a3b7 aa3d 7484 0dbe a8d2 09be
000000b0: 48fc bdbd 5c0b 0abe 6107 333d 15ba 9e3c

weight f4 [48, 48]
-0.0558637 -0.0995244 -0.13370171 0.1948135 -0.052638713 -0.046831813 0.14349622 0.021742702
-0.15357244 -0.12863043 -0.14400212 0.15415622 0.045460396 0.00045366134 0.14147787 0.01985534
-0.02592374 0.0048248526 -0.051056616 -0.09452105 -0.030816201 0.034140546 0.011603541 0.04574317
0.0579408 0.050162762 0.039060313 -0.13672028 -0.07417865 -0.08578733 0.035840068 -0.09285619
0.09920844 -0.11365822 0.069342904 -0.1395269 -0.07046477 -0.12866558 0.18646145 0.059781298
0.010520076 0.059986457 -0.07332669 0.025671111 0.14862692 -0.12332682 0.00995098 0.090152346
-0.022771502 -0.12002911 -0.14237915 0.12787361 -0.008742533 -0.102131076 -0.05262255 0.12461138
0.047233295 -0.0854627 -0.115357146 0.12590903 0.055143826 -0.1206418 -0.065423585 0.14006077
-0.019057743 -0.07062901 0.12793887 -0.05142988 0.0794837 0.056212906 0.11939444 -0.061622895
-0.08173998 -0.11687935 -0.051960845 0.051518057 0.11419463 -0.05331356 0.13365549 -0.026725022
-0.070001185 0.035969887 0.09169986 0.12870435 -0.09968634 0.08917692 0.13717982 0.059952352
0.15861793 0.11489099 -0.11668707 -0.07815682 -0.057760663 0.12328884 -0.08935636 0.11795986
0.16657919 -0.11333914 0.027375039 -0.17842127 -0.087884404 0.08504335 0.06716264 0.03475925
0.20796135 0.026239567 0.07645419 -0.06267926 0.096064225 -0.070498295 -0.026385615 0.05576218
-0.16962995 -0.0020254839 -0.0421901 0.143588 -0.13165909 -0.095531054 0.1054903 -0.058937877
-0.008388925 -0.1377617 -0.1812819 -0.05843407 -0.13773689 0.0712434 -0.07675266 0.026645575
0.10324508 0.10739826 -0.0006416244 -0.09643119 0.045642182 -0.008792065 -0.21322452 -0.118555106
0.08879981 -0.18184254 0.18522383 0.010112484 -0.086603515 0.1612641 -0.121130586 -0.10935415
0.10353521 0.018843018 -0.14655823 0.0013458407 0.0004173777 0.13463676 0.14212643 -0.0063739843
-0.08807473 0.10367307 0.033657484 -0.12183234 -0.11466359 0.0368548 -0.09907464 0.05656338
0.06328135 -0.09210833 -0.050426055 0.17694516 0.11584007 0.12619121 -0.075283594 0.18572119
0.15175836 0.12039987 -0.02915484 0.015950108 0.053329382 -0.09569228 -0.023302423 0.13829409
-0.09265512 0.02422837 0.033338312 -0.07969492 0.08027604 -0.13836999 -0.06744392 0.0012123645
0.084154196 -0.081527635 0.10595554 -0.039607026 0.10297049 0.12341957 -0.004648478 -0.06648397
-0.021056293 -0.036346167 0.15600511 0.12692003 0.12401394 -0.052095804 -0.0774976 -0.10444537
0.049040563 -0.10830759 0.11876996 0.012223055 -0.2635447 0.028990915 0.060954724 -0.0095484
0.14048117 0.27333745 -0.087056674 -0.08938304 -0.08152584 0.061140705 -0.105740026 -0.04487799
-0.10622485 0.07886666 0.002167213 0.06302121 0.09752136 0.07159275 0.03428725 -0.172786
-0.1093141 0.057997912 0.004865435 -0.08453848 0.11302191 0.103616975 -0.011893377 0.015383237
0.029880676 0.021339042 -0.14209136 0.15704966 0.0456384 0.02358002 0.042409375 -0.13017334
-0.108788 -0.004640965 0.1167939 0.09099542 0.0067301174 -0.050569735 -0.11604741 -0.018228332
-0.04555462 -0.13311322 0.1481989 -0.11682293 -0.05651659 0.010896314 -0.09265775 -0.116043076
00000000: 56d1 64bd 73d3 cbbd 1ae9 08be 317d 473e
00000010: b19b 57bd b7d2 3fbd acf0 123e c01d b23c
00000020: 1842 1dbe b2b7 03be 4b75 13be 21db 1d3e
00000030: ae34 3a3d 65d9 ed39 93df 103e aaa7 a23c
00000040: 065e d4bc cc19 9e3b be20 51bd 4194 c1bd
00000050: 4272 fcbc f5d6 0b3d c71c 3e3c 315d 3b3d
00000060: 5553 6d3d 7877 4d3d b5fd 1f3d 6700 0cbe
00000070: faea 97bd 45b1 afbd 09cd 123d 632b bebd
00000080: cb2d cb3d a4c5 e8bd a703 8e3d 24e0 0ebe
00000090: d54f 90bd e9c0 03be c0ef 3e3e 3cdd 743d
000000a0: 665c 2c3c 5cb4 753d 4e2c 96bd 394c d23c
000000b0: a831 183e c692 fcbd 6f09 233c cba1 b83d
000000c0: 4d8b babc d2d1 f5bd d7cb 11be 4df1 023e
000000d0: d73c 0fbc 192a d1bd be8a 57bd 4034 ff3d
000000e0: b377 413d 1107 afbd 5e40 ecbd 4cee 003e
000000f0: 7ede 613d 0c13 f7bd cdfc 85bd 176c 0f3e
00000100: fc1e 9cbc f1a5 90bd 6802 033e 23a8 52bd
00000110: 5ac8 a23d 813f 663d 1285 f43d 4a68 7cbd
00000120: 4a67 a7bd 715e efbd e5d4 54bd 9904 533d
00000130: e0de e93d 525f 5abd fcdc 083e 6fee dabc
00000140: c85c 8fbd 2955 133d 23cd bb3d 13cb 033e
00000150: 5a28 ccbd 64a2 b63d de78 0c3e 9990 753d
00000160: bd6c 223e f84b eb3d a1f9 eebd af10 a0bd
00000170: 7296 6cbd dc7e fc3d 7800 b7bd f094 f13d
00000180: bc93 2a3e 5a1e e8bd 9e41 e03c 11b4 36be
00000190: bdfc b3bd 352b ae3d 918c 893d b75f 0e3d
000001a0: d2f3 543e 5cf4 d63c 0494 9c3d fc5d 80bd
000001b0: 52bd c43d 6961 90bd a526 d8bc e266 643d
000001c0: 79b3 2dbe fbbd 04bb 87cf 2cbd bc08 133e
000001d0: a4d1 06be c9a5 c3bd 4c0b d83d d868 71bd
000001e0: b471 09bc 6711 0dbe f6a1 39be 9058 6fbd
000001f0: e60a 0dbe 0fe8 913d 8030 9dbd d247 da3c
00000200: 2872 d33d 9ef3 db3d af32 28ba b77d c5bd
00000210: 4cf3 3a3d 980c 10bc 8757 5abe 05cd f2bd
00000220: addc b53d ee34 3abe 51ab 3d3e d5ae 253c
00000230: 2f5d b1bd 6b22 253e 5013 f8bd 12f5 dfbd
00000240: 450a d43d ac5c 9a3c 5c13 16be ec66 b03a
00000250: 7dd3 da39 38de 093e 9789 113e dbdc d0bb
00000260: 8660 b4bd 8c52 d43d 6edc 093d 3c83 f9bd
00000270: bfd4 eabd 0ff5 163d a5e7 cabd 01af 673d
00000280: a799 813d 4ba3 bcbd 8d8b 4ebd 1d31 353e
00000290: 8f3d ed3d 4538 013e 492e 9abd b22d 3e3e
000002a0: 8b66 1b3e 3594 f63d 22d6 eebc cda9 823c
000002b0: e96f 5a3d 50fa c3bd b9e4 bebc f79c 0d3e
000002c0: f8c1 bdbd 937a c63c c18d 083d 1737 a3bd
000002d0: c467 a43d ddb0 0dbe 0a20 8abd 34e8 9e3a
000002e0: 0959 ac3d f6f7 a6bd 38ff d83d fa3a 22bd
000002f0: 31e2 d23d 66c3 fc3d 4252 98bb bf28 88bd
00000300: 3f7e acbc b8df 14bd cebf 1f3e 53f7 013e
00000310: 05fb fd3d 6962 55bd 10b7 9ebd 74e7 d5bd
00000320: c2de 483d 5fd0 ddbd aa3d f33d 3543 483c
00000330: 55ef 86be 5b7e ed3c a9ab 793d e470 1cbc
00000340: 4cda 0f3e e3f2 8b3e c54a b2bd 750e b7bd
00000350: 05f7 a6bd ad6e 7a3d 3a8e d8bd fcd1 37bd
00000360: 6a8c d9bd d884 a13d cd07 0e3b 4411 813d
00000370: 47b9 c73d 389f 923d ca70 0c3d d0ee 30be
00000380: 12e0 dfbd 388f 6d3d 3a6e 9f3b 8322 adbd
00000390: 0878 e73d 2335 d43d 70dc 42bc f909 7c3c
000003a0: 52c8 f43c 37cf ae3c 6680 11be a0d1 203e
000003b0: 55ef 3a3d e32a c13c 74b5 2d3d 294c 05be
000003c0: 3ecc debd 3c13 98bb a431 ef3d cf5b ba3d
000003d0: 5188 dc3b 3622 4fbd 44aa edbd 9553 95bc
000003e0: 7b97 3abd d54e 08be 74c1 173e dc40 efbd
000003f0: f17d 67bd 7486 323c 59c3 bdbd fea7 edbd

bias f4 [48]
-0.05523123 0.015558704 -0.14750022 -0.080078244 0.10388268 0.1275262 0.13045272 0.03490849
-0.14031164 -0.0029296896 -0.14581576 -0.12593098 -0.09804312 0.04737199 -0.100957476 -0.13813044
0.046373535 -0.0155305555 0.0077366102 0.022044688 0.012513865 -0.06081863 -0.03985183 -0.13725723
0.1336052 0.11275173 -0.0249175 0.004416028 0.04453412 0.0024140333 0.010436896 0.12448473
0.081654854 0.031507395 -0.03407459 0.04131299 -0.022558315 0.055942 -0.10890912 0.13121568
0.122854926 -0.018483508 -0.013621286 -0.086258635 0.06609219 -0.07291255 -0.0023690534 -0.012342742
00000000: 243a 62bd efe9 7e3c 4c0a 17be 1000 a4bd
00000010: 71c0 d43d 3a96 023e 6695 053e 34fc 0e3d
00000020: dbad 0fbe 0900 40bb ba50 15be 0df4 00be
00000030: d5ca c8bd 2209 423d cbc2 cebd 1172 0dbe
00000040: 2df2 3d3d df73 7ebc 6483 fd3b 1097 b43c
00000050: f406 4d3c f51c 79bd ac3b 23bd 298d 0cbe
00000060: cdcf 083e 61ea e63d c91f ccbc 54b4 903b
00000070: 6969 363d c234 1e3b 84ff 2a3c daf1 fe3d
00000080: a93a a73d e60d 013d cc91 0bbd cf37 293d
00000090: 37cc b8bc 7023 653d bf0b dfbd 675d 063e
000000a0: 5d9b fb3d ba6a 97bc d02b 5fbc 5ea8 b0bd
000000b0: 585b 873d 2d53 95bd 1f42 1bbb 3639 4abc

weight f4 [48, 48]
-0.040521204 -0.08875501 0.12269582 -0.08187964 -0.16613457 -0.09677784 -0.06154021 -0.11394819
0.11070541 -0.11977374 0.07806919 0.029256087 -0.079756945 0.05958373 -0.09359671 -0.058937814
-0.020393636 -0.12282628 0.06016398 0.028172608 -0.045273088 0.1235341 0.0024400735 -0.114860214
0.053002406 -0.01616397 -0.011121363 0.093377516 0.1029734 -0.011304472 -0.07594332 -0.08730873
0.07314043 -0.043469243 0.18258849 -0.026944986 0.004842469 0.014024857 -0.11636877 -0.0027790384
-0.0044779326 -0.15020584 0.17880525 0.05291426 -0.14772874 0.034881927 -0.16299416 -0.038076576
0.02213448 -0.023127735 0.17469032 -0.113351814 0.13562427 0.1337533 0.0038206356 -0.11843252
-0.13911563 0.055061173 -0.0801181 -0.01199437 -0.054215487 0.018117622 -0.13767414 -0.0986558
-0.06492517 -0.16055632 -0.08277235 -0.096998766 0.051494826 -0.1230917 -0.08326555 -0.038534626
0.09351475 0.06682658 -0.059535246 0.13507494 0.1339168 0.021301959 0.07440272 0.061691344
-0.04786366 0.042447064 0.01936554 0.16379823 0.11393581 -0.12992877 0.03075233 0.12216075
0.024466464 0.073578246 0.12214303 -0.08501922 -0.1284632 0.056943618 -0.0891714 -0.05293626
0.0054667983 -0.058259785 -0.073650904 0.07607912 0.078597926 -0.03675926 -0.09282461 0.098556
-0.02612586 0.0020510308 -0.014129668 -0.12694207 0.07848293 -0.11856406 -0.102438115 0.0753128
-0.0013605129 0.015310461 -0.11213733 0.054125436 -0.0545668 -0.12422888 0.014915567 0.08594666
-0.086019754 -0.0041619088 0.011265967 0.13179605 0.14753443 -0.03446716 -0.021445116 0.09791695
-0.12702909 -0.028912134 -0.0010346852 0.07486471 -0.046804875 -0.09519012 -0.0121793095 -0.06726882
-0.06547696 -0.07148079 -0.03780245 0.12518322 -0.15764326 -0.0016631151 0.10528575 -0.026606807
-0.04090044 -0.09800038 0.11135736 0.07451275 0.114161864 -0.08170708 0.075803615 -0.06832908
-0.041306246 0.0063336906 0.087470636 0.035323862 0.06970196 -0.11490107 -0.01704187 -0.11716239
0.019266019 -0.070980445 0.048150282 -0.17890114 -0.09740664 -0.026467385 -0.12060721 0.12845898
0.012212185 0.17101447 0.016734049 -0.017406467 -0.19596905 0.048402887 -0.111851245 0.15080573
-0.008867862 0.02880517 0.09770798 0.020150788 0.14277004 -0.022293966 -0.04031348 0.13093205
0.14584304 -0.10150876 -0.08946267 0.03321541 -0.03386726 -0.029790167 -0.17809692 0.060746286
-0.0642159 -0.10970442 0.06595487 0.06213329 0.12390364 -0.12659185 -0.019487185 0.0065085907
-0.041140735 0.07980533 0.059308935 0.030265007 0.037427515 -0.060627673 0.06576789 0.00069482415
0.11985403 0.033695687 -0.06219475 0.05939514 -0.0013026141 -0.11011288 -0.08132815 -0.13120066
-0.17094554 0.036497694 -0.16273354 -0.019994931 0.02304438 0.1415815 0.062029317 0.1757511
0.07505574 0.008630452 -0.11799502 -0.038657725 0.09413442 0.13129 0.04013669 -0.11048926
0.014853061 0.1415794 -0.1106455 0.12893689 0.11500778 0.00045107125 0.11589165 0.10180777
-0.1570252 -0.08170433 0.16497263 0.016034266 -0.021761557 0.018868271 0.13840674 -0.0037538223
0.12292186 -0.11509913 -0.027125806 -0.05665934 0.07626897 -0.09518906 -0.16631891 0.13678041
00000000: 90f9 25bd 30c5 b5bd f247 fb3d 83b0 a7bd
00000010: 2e1f 2abe 7633 c6bd 9611 7cbd ab5d e9bd
00000020: 85b9 e23d ef4b f5bd bde2 9f3d 76aa ef3c
00000030: 9c57 a3bd 120e 743d a2af bfbd c768 71bd
00000040: 8e10 a7bc 588c fbbd 816e 763d 3eca e63c
00000050: 4670 39bd 72ff fc3d a4e9 1f3b d53b ebbd
00000060: 0d19 593d 4d6a 84bc 6136 36bc b63c bf3d
00000070: b8e3 d23d 6436 39bc 2c88 9bbd ebce b2bd
00000080: a6ca 953d ce0c 32bd 7af8 3a3e bbbb dcbc
00000090: 93ad 9e3b 84c8 653c c052 eebd 8720 36bb
000000a0: 9fbb 92bb 8fcf 19be b918 373e a0bc 583d
000000b0: 3446 17be 5ae0 0e3d f1e7 26be 2ff6 1bbd
000000c0: 5e53 b53c 6076 bdbc 05e2 323e ff24 e8bd
000000d0: 17e1 0a3e a0f6 083e a163 7a3b c08c f2bd
000000e0: 5474 0ebe d387 613d f514 a4bd 0984 44bc
000000f0: 0f11 5ebd 686b 943c 73fa 0cbe 0d0c cabd
00000100: 7df7 84bd e068 24be 8d84 a9bd 4aa7 c6bd
00000110: 3dec 523d 8017 fcbd 2187 aabd 7cd6 1dbd
00000120: a984 bf3d 60dc 883d 3bdb 73bd 1651 0a3e
00000130: 7c21 093e 7281 ae3c 7460 983d 10b0 7c3d
00000140: af0c 44bd f9dc 2d3d 7ba4 9e3c b9ba 273e
00000150: 2e57 e93d 0c0c 05be 4fec fb3c 6a2f fa3d
00000160: e56d c83c 31b0 963d 2026 fa3d 8f1e aebd
00000170: db8b 03be b63d 693d 7f9f b6bd b1d3 58bd
00000180: d422 b33b d0a1 6ebd 49d6 96bd 5fcf 9b3d
00000190: f3f7 a03d e190 16bd d41a bebd bad7 c93d
000001a0: e605 d6bc 966a 063b 1f80 67bc 1afd 01be
000001b0: a9bb a03d b7d1 f2bd 13cb d1bd 993d 9a3d
000001c0: 3d53 b2ba bad8 7a3c 42a8 e5bd a2b2 5d3d
000001d0: 7081 5fbd b66b febd 6c60 743c cd04 b03d
000001e0: 202b b0bd 9f60 88bb e494 383c 8bf5 063e
000001f0: 4413 173e 702d 0dbd abad afbc af88 c83d
00000200: ea13 02be 24d9 ecbc 469e 87ba ab52 993d
00000210: 78b6 3fbd 0af3 c2bd ba8b 47bc 3cc4 89bd
00000220: c918 86bd 8564 92bd bed6 1abd 0830 003e
00000230: 3c6d 21be e2fc d9ba 0ea0 d73d 85f6 d9bc
00000240: 3887 27bd 6cb4 c8bd 540f e43d 249a 983d
00000250: b2cd e93d 0b56 a7bd ed3e 9b3d 1ef0 8bbd
00000260: bd30 29bd d98a cf3b ce23 b33d c1af 103d
00000270: e7bf 8e3d 4151 ebbd 649b 8bbc d6f2 efbd
00000280: c5d3 9d3c 325e 91bd 3b39 453d dc31 37be
00000290: 227d c7bd 21d2 d8bc ea00 f7bd c08a 033e
000002a0: 9e15 483c 6b1e 2f3e d815 893c 0298 8ebc
000002b0: 1cac 48be 1b42 463d 4412 e5bd d16c 1a3e
000002c0: 824a 11bc d2f8 eb3c 1f1b c83d 4413 a53c
000002d0: 4f32 123e d6a1 b6bc bf1f 25bd 0d13 063e
000002e0: e157 153e d3e3 cfbd 3438 b7bd e20c 083d
000002f0: 65b8 0abd 820a f4bc 0a5f 36be 19d1 783d
00000300: a083 83bd b6ac e0bd 5913 873d 7a7f 7e3d
00000310: 31c1 fd3d 4ba1 01be 97a3 9fbc 0446 d53b
00000320: 3083 28bd fa70 a33d eded 723d 52ee f73c
00000330: 984d 193d b954 78bd 51b1 863d dc24 363a
00000340: 0876 f53d 7d04 0a3d ecbf 7ebd 5148 733d
00000350: 7abc aaba dd82 e1bd 608f a6bd 7759 06be
00000360: 590c 2fbe 9b7e 153d 9fa3 26be 69cc a3bc
00000370: 91c7 bc3c befa 103e 7412 7e3d 19f8 333e
00000380: d3b6 993d bd66 0d3c 5fa7 f1bd 9057 1ebd
00000390: 8cc9 c03d e370 063e 5f66 243d 3148 e2bd
000003a0: 415a 733c 31fa 103e 1c9a e2bd 0808 043e
000003b0: 3389 eb3d c27d ec39 9a58 ed3d 9880 d03d
000003c0: 37cb 20be 9a54 a7bd 96ee 283e 4b5a 833c
000003d0: 4b45 b2bc a291 9a3c 7fba 0d3e b002 76bb
000003e0: 75be fb3d 18b9 ebbd f036 debc a013 68bd
000003f0: e832 9c3d 7bf2 c2bd 814f 2abe 2a10 0c3e

bias f4 [48]
0.11602314 0.036542326 0.07226129 -0.12237285 -0.08003364 0.027925272 0.11136376 -0.05223348
0.0836794 0.14036745 -0.096938215 -0.050143536 -0.11219537 -0.06554203 -0.0032615096 -0.04210577
-0.0017061401 -0.06477875 -0.08348693 -0.04849592 -0.038941704 0.073021725 0.04159403 -0.07503738
0.1224709 -0.11682764 0.0480124 0.006917236 -0.13839108 0.019589232 0.05058991 -0.15140793
0.03551732 0.07763869 0.083801925 0.018142823 0.07401986 0.13076775 0.07985916 -0.10457381
0.08841613 -0.11161621 -0.105432995 -0.008030708 -0.09177168 -0.118822634 -0.08462714 -0.005371627
00000000: 8a9d ed3d 68ad 153d bafd 933d 9e9e fabd
00000010: ade8 a3bd 8ac3 e43c af12 e43d c6f2 55bd
00000020: 1b60 ab3d 7cbc 0f3e 8b87 c6bd 4f63 4dbd
00000030: b0c6 e5bd e63a 86bd 0dbf 55bb 1a77 2cbd
00000040: 90a0 dfba b9aa 84bd 32fb aabd a8a3 46bd
00000050: 5681 1fbd 6a8c 953d 805e 2a3d 33ad 99bd
00000060: 06d2 fa3d 5443 efbd a6a8 443d fba9 e23b
00000070: 64b6 0dbe 9979 a03c 5e37 4f3d ae0a 1bbe
00000080: 9c7a 113d 0901 9f3d 58a0 ab3d 42a0 943c
00000090: b997 973d fbe7 053e 338d a33d cb2a d6bd
000000a0: 8413 b53d 0a97 e4bd 41ed d7bd 3b93 03bc
000000b0: caf2 bbbd 4859 f3bd fe50 adbd 7904 b0bb

weight f4 [4, 48]
-0.05787567 0.06981497 0.07216969 -0.037433203 0.0764352 -0.1368298 -0.13273029 -0.0013430588
0.13106334 0.05683037 0.15353435 0.12708059 -0.04524234 -0.009627301 -0.040680986 0.094050534
-0.018296951 0.078374065 -0.07631373 -0.105122164 0.066053644 0.13551228 -0.030726993 0.009991098
-0.0664424 -0.08732936 0.03860982 0.03471032 0.12865104 0.0418301 0.1080761 0.038905784
0.0069586774 -0.09041149 0.07680706 0.12551938 0.12834094 -0.03610305 -0.06409703 -0.116987914
0.1564737 -0.15967073 -0.021350052 -0.006303008 -0.13110165 -0.104616776 0.0855741 0.1261269
0.03223372 0.12167377 -0.080547735 0.08083708 0.052600008 -0.00090768613 -9.559203e-05 -0.052786637
-0.054002706 0.12805524 -0.008283233 0.12005591 -0.06641236 0.09362501 -0.010639918 0.066593416
0.037176844 -0.083167054 -0.043314543 -0.025093382 0.07858235 0.15422073 0.12863913 -0.051936395
0.041630294 -0.020141363 0.029961208 -0.11525379 0.060111348 -0.020021401 0.072233215 -0.009692122
-0.00727786 0.14043094 -0.010730742 0.16881089 -0.05349199 0.0006582439 0.15145862 0.13946514
0.10221283 0.11034195 0.20051229 -0.035663623 0.039427936 -0.16918944 0.1703283 0.13832209
-0.16416523 0.029827183 0.18394524 -0.13061233 0.030285198 -0.15285511 0.00048085675 -0.044808667
0.08679492 0.09626987 -0.048806593 0.028935147 0.12491688 -0.05083778 0.12171153 -0.13651828
-0.0554594 0.10583443 0.13434838 -0.010880996 -0.14160964 0.17634399 0.11822574 -0.181557
-0.036271572 -0.1341565 0.018321576 -0.12552421 -0.024066608 0.17939495 0.0014994208 -0.27257487
0.1662232 0.024314446 0.05886881 -0.07044049 0.09763127 -0.11715402 -0.069428496 -0.13516976
-0.031098945 0.06647227 0.17075989 -0.049098194 0.23998787 0.06853298 -0.016000701 -0.06472113
0.08712271 -0.060079455 0.08742449 -0.03564043 0.13853107 -0.11572594 -0.10871841 0.09697455
-0.17324616 0.029768875 -0.05295017 -0.045664307 -0.08029709 0.09422233 -0.16274008 0.06999265
-0.09123462 -0.15895852 -0.0036861335 0.015323975 -0.10261902 -0.06810354 0.09531703 -0.061437596
0.17707229 0.10617541 -0.120970465 0.016925426 0.09478942 -0.06705441 -0.13289234 0.047957703
-0.04451068 -0.05799457 0.13983685 0.09592097 0.0725627 -0.10908427 0.039384715 -0.049243618
-0.011189575 0.059737362 -0.12316841 0.090631746 -0.04274337 -0.07165826 0.042773508 -0.033460088
00000000: 0a0f 6dbd 27fb 8e3d b4cd 933d 8f53 19bd
00000010: 0f8a 9c3d 1c1d 0cbe 73ea 07be 9309 b0ba
00000020: 7835 063e f6c6 683d 1c38 1d3e 6a21 023e
00000030: 0850 39bd d4bb 1dbc 1ba1 26bd 919d c03d
00000040: 7de3 95bc 9582 a03d 5f4a 9cbd 4a4a d7bd
00000050: 2247 873d bbc3 0a3e 2db7 fbbc b4b1 233c
00000060: f412 88bd bcd9 b2bd 5525 1e3d 692c 0e3d
00000070: 19bd 033e 0a56 2b3d 0157 dd3d ac5b 1f3d
00000080: 9e05 e43b a929 b9bd 054d 9d3d 2788 003e
00000090: cf6b 033e cbe0 13bd 4e45 83bd 5c97 efbd
000000a0: a43a 203e b980 23be 4ee6 aebc 7789 cebb
000000b0: 833f 06be 5241 d6bd 7941 af3d 6927 013e
000000c0: 8107 043d 1930 f93d 36f6 a4bd e98d a53d
000000d0: 1b73 573d c9f1 6dba 9578 c8b8 cd36 58bd
000000e0: f131 5dbd ea20 033e 66b6 07bc dfdf f53d
000000f0: 3403 88bd 78be bf3d 0d53 2ebc 2162 883d
00000100: bf46 183d 7d53 aabd 976a 31bd a390 cdbc
00000110: c8ef a03d 0aec 1d3e fab9 033e 42bb 54bd
00000120: 8784 2a3d 80ff a4bc 3571 f53c 2e0a ecbd
00000130: 5137 763d ec03 a4bc 02ef 933d b5cb 1ebc
00000140: 1d7b eebb 21cd 0f3e fecf 2fbc c3dc 2c3e
00000150: 6b1a 5bbd 008e 2c3a f817 1b3e f3cf 0e3e
00000160: f654 d13d f6fa e13d 1853 4d3e 0514 12bd
00000170: 307f 213d ff3f 2dbe 8b6a 2e3e 4ea4 0d3e
00000180: ee1a 28be 2358 f43c 245c 3c3e 3dbf 05be
00000190: aa18 f83c 0d86 1cbe 801b fc39 4b89 37bd
000001a0: 89c1 b13d 2329 c53d 6ce9 47bd 6709 ed3c
000001b0: 6cd4 ff3d 473b 50bd e543 f93d 73cb 0bbe
000001c0: 6529 63bd b9bf d83d 9f92 093e 3446 32bc
000001d0: 1e02 11be 8593 343e 5620 f23d 14ea 39be
000001e0: 8091 14bd 5260 09be 2117 963c 6b89 00be
000001f0: 5627 c5bc 4fb3 373e 3788 c43a ef8e 8bbe
00000200: 6a36 2a3e 172f c73c 6c20 713d 1b43 90bd
00000210: e7f2 c73d 72ee efbd 8730 8ebd f169 0abe
00000220: 37c3 febc 9d22 883d aedb 2e3e 301b 49bd
00000230: 61bf 753e 055b 8c3d e713 83bc 838c 84bd
00000240: 646d b23d e015 76bd 9c0b b33d b3fb 11bd
00000250: 17db 0d3e b901 edbd c2a7 debd 989a c63d
00000260: 7167 31be dbdd f33c 47e2 58bd 7f0a 3bbd
00000270: cd72 a4bd a3f7 c03d 56a5 26be 4e58 8f3d
00000280: 37d9 babd 06c6 22be 0f93 71bb 6911 7b3c
00000290: ec29 d2bd de79 8bbd 9335 c33d fda5 7bbd
000002a0: 7052 353e 7e72 d93d 5dbf f7bd 31a7 8a3c
000002b0: f520 c23d d353 89bd ee14 08be 4c6f 443d
000002c0: d550 36bd b78b 6dbd 6431 0f3e 3772 c43d
000002d0: c19b 943d 9367 dfbd de51 213d adb3 49bd
000002e0: 7b54 37bc 2aaf 743d b83f fcbd 239d b93d
000002f0: ac13 2fbd 91c1 92bd 4633 2f3d 720d 09bd

bias f4 [4]
-0.078820065 -0.11019827 0.013706888 0.061892077
00000000: 6a6c a1bd a1af e1bd db92 603c 8c82 7d3d
