mPINNs-R1/mPINNs_model/model.pth (torch, 34972 bytes, 10 tensors)

weight f4 [48, 2]
00000000: c59a f3be ad85 dc3e 13a3 1dbf 71e7 acbe
00000010: 0c6c 34bf 35a4 25be 8af8 213f d412 123e
00000020: 3dbd 23bf 67c2 5d3e 9149 033f 2854 323f
00000030: e39e 11bf 8d99 e73e 7214 49be 9e46 2c3f
00000040: e44e 14bf 0cb3 bfbd 9aee 893e 3de9 38bf
00000050: 9c79 d63e 5d76 fdbe 7ba9 2abf 4bda c83e
00000060: 4e76 213f 48d1 bbbe b99f c6be 8a10 b63c
00000070: 4c90 ba3e 81b2 dd3e 3652 c83e 4d43 d9be
00000080: 5015 2ebe 04ae a9be dd65 cf3e decc 28bd
00000090: 244e 28bf c040 e1bd 77e5 debc e613 30bf
000000a0: 9130 3bbc 8c46 933e ab7e bfbe b6bd a9be
000000b0: 240d 35bf a1a5 c83e 3131 0bbf 723c 7dbe
000000c0: db77 78be f034 10bf 3054 16bf d7c6 863e
000000d0: b788 b53d 307c 493f 3bf9 d4be 0c1b 23be
000000e0: ef27 0b3f e8cf c73d a23e 183f 661d eebe
000000f0: ab04 2bbf 54b0 893e 56c2 153f 629b 883e
00000100: 662d 13bf 41c0 0c3f 7a01 90be 66de 3abe
00000110: 90bb b0be 054d b6be 3779 743e a839 44bf
00000120: 26bc 183f a60d de3d 407d 2d3f 6435 273f
00000130: c7fd d93e b14f 093f 3f0e 5cbd 75be 38be
00000140: f594 cbbe 52c7 b3be 4b87 08bf 67f6 6bbb
00000150: 7ed8 3c3f 1582 8d3e b542 a63e 6a58 d93e
00000160: b3fc 19be f370 113f 8a78 093f a795 e53e
00000170: bf3e adbd 4947 953e 75bd a33e 32cc e2bd
-0.47579017 0.43070737 -0.61576957 -0.33770326 -0.70477366 -0.16175921 0.63269866 0.14264995
-0.6396063 0.2165619 0.5128413 0.6965966 -0.56883067 0.45234337 -0.19636706 0.67295253
-0.5793288 -0.09360322 0.2693985 -0.72230893 0.41889656 -0.49504367 -0.66664857 0.39229044
0.63071144 -0.36683106 -0.38793734 0.022224683 0.36438215 0.4330025 0.39125222 -0.4243416
-0.17000318 -0.33140576 0.40507403 -0.041211 -0.65744233 -0.10998678 -0.027209027 -0.6878036
-0.011425153 0.2876476 -0.37401327 -0.3315255 -0.70723176 0.39188865 -0.54371935 -0.2473009
-0.24264471 -0.56330776 -0.5872221 0.26323578 0.08863967 0.7870512 -0.41596398 -0.15928286
0.5435781 0.09756452 0.5947057 -0.46506804 -0.66804 0.2689234 0.5849966 0.26681048
-0.5749115 0.54980856 -0.28126127 -0.18248901 -0.345181 -0.35605636 0.23874365 -0.76650476
0.5966209 0.10842447 0.6776924 0.6531584 0.4257643 0.53637224 -0.053724524 -0.18041404
-0.39762083 -0.35113007 -0.5333144 -0.0036005022 0.7376784 0.27638307 0.32472768 0.42450267
-0.15037803 0.5681297 0.53699553 0.44840738 -0.084592335 0.2915595 0.31980482 -0.110741034

bias f4 [48]
00000000: c19c fcbc 1a0d 503f 6140 003d 750a f3be
00000010: d627 ae3e 74c5 e8be e349 233f 65b0 36bf
00000020: 6afd 32be 10b8 0a3f 6c3e 4b3d 52c7 28bf
00000030: 8ce0 32bf 0e1c fabe 0f6e 98be 2f19 cabe
00000040: 55e3 f33e 7359 973e 6b61 0a3f 62ee 063e
00000050: 2ae8 0c3f 740e 943e 6d72 19bd be43 f43e
00000060: f330 6fbe 8845 b13e b0f6 903e d837 44bd
00000070: c962 e03b 2636 833e 13b6 003f 8e41 06bd
00000080: 4f13 06bf 5321 723e 3d2c bfbe 8547 f0be
00000090: 98c5 1c3f e9e5 9639 8a85 c0bd 53a8 2f3e
000000a0: 8ed3 6e3e 37bf dbbe 81a7 7d3e 2759 04be
000000b0: dda1 8f3e 4bc5 1ebf c1fa 483e de41 6dbd
-0.030836465 0.8126999 0.031311397 -0.47468916 0.34014767 -0.45463145 0.6378462 -0.71362907
-0.17479482 0.5418711 0.049620077 -0.6592914 -0.6987388 -0.4884953 -0.29771468 -0.3947234
0.47634378 0.29560432 0.540549 0.13176873 0.55041754 0.28917277 -0.03746264 0.47707933
-0.23358516 0.3462336 0.28313208 -0.04790482 0.0068477136 0.2562725 0.50277823 -0.03277736
-0.5237321 0.23645525 -0.3733844 -0.46929565 0.61239004 0.00028781526 -0.094004706 0.17154054
0.23322889 -0.42919323 0.24770929 -0.12924634 0.2805318 -0.62019795 0.19626905 -0.057924144

weight f4 [48, 48]
00000000: d1b4 003e 392c bc3d 881b ad3d 5b0e 203e
00000010: 6478 fc3d 996a 033c 3368 e33d 14c8 d93d
00000020: 0a3a 0e3e 23be d7bd ab09 18bd 960f 653d
00000030: 4433 1bbc 3bc9 cabd aa13 bdbb 87a7 0cbd
00000040: 9946 18be c8c2 58bd 4bc0 7bbd 1f4a debd
00000050: fa20 6fbd 7f9c 1dbe 7f9f 97bd c326 e2bb
00000060: 7ded 1b3e bfb3 0cbe d55c 5fbd f98a 723d
00000070: 7d2e df3b 3b7e 9c3c c699 bcbd 0eb1 b33d
00000080: 5f7b c73c 0eef 2fbc 1828 1c3d 1142 3cbd
00000090: 551d 18be 5cea bfbc a9c5 42bd 26d4 683d
000000a0: 4485 9d3d 5751 073e 4e1f a3bd 2d2d 8b3d
000000b0: 67a9 883d 92e9 083e ae6d 023e 85b2 ed3b
000000c0: 4a24 923d 7b1b 1d3e 2c65 df3d 3f8a 2fbd
000000d0: c460 ce3d 0f84 0dbe 9c72 f93d e3d2 b1bc
000000e0: 994a 3f3d 3be4 8b3c cbab dc3c 5509 2d3e
000000f0: 8e05 e93c 0c89 4d3d a6ba 4e3d 979c f73c
00000100: 75a7 053c 150a 78bd 546a 5dbd a863 5d3d
00000110: e80c c53c 69a2 83bd 9e86 4e3d dbf8 963d
00000120: 3226 273d 2a4b e53c e82a acbd ea00 283e
00000130: 3133 ecbd c38d 1abe a571 bbbd 4ec1 a1bd
00000140: cb82 25bd cc84 d0bd 42e7 ed3d 8d92 04bc
00000150: 2433 67bd 7500 c5bd 1660 9b3a 8ba0 893d
00000160: e842 b9bd 3ed2 383e a4d4 e2bd 0049 b6bc
00000170: 54c8 3b3d 8fec 22bd 0682 b73c 0edb 1ebd
00000180: df48 b63d da2f 023e 314a 333e 3ad7 9ebd
00000190: 6f3e 093e bed3 1a3d abc9 edbd 45ed f13d
000001a0: bc91 473e e3d2 c6bd c6e1 58bd cb68 ca3d
000001b0: 1d39 b4bd e4c9 b53d 999e e03c 5668 923c
000001c0: cbfa a3bc 42c6 7abd 025e d8bd 242c 7cbc
000001d0: 5a52 f23d f2dd 193e c294 4a3e 6605 fb3b
000001e0: 27d3 ec3d 2858 b439 d2dd 74bd 0695 073e
000001f0: b9bf 48bd 5f9b 7bbe 272c cb3d 8fb9 67be
00000200: 26bf b63d 6630 983d 11a0 a63d d3ab cabd
00000210: 9e4f 5dbc a53b a03c e11d 15be c4ef cbbd
00000220: 3a02 213e d572 a83b 2680 2cbe 6084 043d
00000230: 3329 6ebd de61 69bd 0024 093e 315d a33d
00000240: 9e8a ff3d d041 6b3d a052 94bb c097 dc3c
00000250: a59f d53d 1dae 0d3d 192d 87bd 151d 1ebd
00000260: 36ea 913d 2a43 36bd a92f 083e 4e5b bebd
00000270: acf7 35bd f3e6 c73d cd03 173d 9cbb 843d
00000280: 8f41 f4bc 7432 fc3d 78e9 a93d 0cb2 0a3e
00000290: 1411 8ebc 2182 083d d012 343c 4392 003d
000002a0: 7f9f 143c 5e53 28bd 8cb7 0fbd 8142 193d
000002b0: 0c18 903d e1d0 ed3d 3b6d c13d 1f62 0ebe
000002c0: c0d2 cf3c 008e eb3d ae63 08be e0d7 0abe
000002d0: 5d8f b6bd eaca 11be 03f9 2ebe 5843 2b3e
000002e0: b931 99bd 9cb2 8ebd d929 723d dd21 d3bb
000002f0: aa46 e6bd 0802 fbbd c568 ab3d 3485 d0bd
00000300: 82a4 113d 6c1b 923d 3e89 c23d 07e9 203d
00000310: 5717 d3bc 70c7 0a3e faa1 0e3d 75b1 e23d
00000320: 8721 ad3d e007 593d e89b 7c3d 9acf 493e
00000330: 1926 20bd e239 03be 191d eebb fcc4 b13b
00000340: 3c49 d23b 6b7d 99bd 5be8 913d cf8d 043e
00000350: ad41 a8bc 715b 333e 9c04 fe3c e802 0fbd
00000360: 3cda 11be 01b0 03be 3b3c 223d 9bfe 04bc
00000370: a71b 01bd 5ae8 e23c 9468 9cbd f435 e0bd
00000380: d876 d03d bac3 b5b9 09de c9bc f0ab febd
00000390: 9616 1abe c419 2e3e 68b6 c33c 2f34 3d3d
000003a0: 9855 013e dd03 f53d 738d 1abe 7f7e 4bbd
000003b0: e059 943d a5f2 72bc 2b1b 9a3d 676f 18be
000003c0: 1510 74bd 2ea7 1c3e ed75 19bd b5eb d7bd
000003d0: b431 4dbd 9f7f 523c a333 1a3e 7565 a5bd
000003e0: 38e5 343e d89c 9c3d 7c34 59be 10c4 413d
000003f0: 98df 963d efad 153e ee5a 303d cea8 713c
0.12568976 0.09188122 0.08452517 0.15630476 0.1232765 0.00802102 0.11103859 0.10633865
0.13889328 -0.105343126 -0.037118595 0.055923067 -0.009472672 -0.09901663 -0.0057701664 -0.034339454
-0.14870681 -0.052920133 -0.06146268 -0.10853981 -0.05838106 -0.1539173 -0.07403468 -0.0069015934
0.15227313 -0.13740443 -0.05453189 0.059214566 0.0068109618 0.01910316 -0.092090175 0.08774005
0.02435082 -0.010738147 0.038124174 -0.045961443 -0.1485494 -0.023427181 -0.047551785 0.056842946
0.07691434 0.13214622 -0.07964955 0.06795726 0.06672936 0.1337035 0.12737152 0.007253947
0.07135828 0.15342514 0.10907969 -0.04285645 0.1007705 -0.13819908 0.12180063 -0.021707004
0.046702 0.017076602 0.026937386 0.16898091 0.028445031 0.050179526 0.05047097 0.030226035
0.008157601 -0.06055649 -0.05405648 0.054050118 0.024054006 -0.06427462 0.05042135 0.07371684
0.04080791 0.027989943 -0.08406621 0.16406599 -0.115332015 -0.1509314 -0.09152535 -0.07898198
-0.040407937 -0.10181579 0.116163746 -0.008091581 -0.056445256 -0.09619228 0.0011854197 0.06720074
-0.090459645 0.18048951 -0.11075714 -0.022251606 0.045845345 -0.03977638 0.022400867 -0.038783126
0.08900618 0.12713566 0.1750877 -0.07755895 0.13402723 0.03779959 -0.11610731 0.11812834
0.19489187 -0.09708192 -0.05294969 0.09883269 -0.08799956 0.08876398 0.027419375 0.017872017
-0.020017048 -0.06122423 -0.105648056 -0.015391383 0.118321136 0.15026072 0.19783309 0.0076605557
0.115637116 0.00034397957 -0.059781857 0.13240442 -0.049010966 -0.24570988 0.09920531 -0.22629379
0.089231774 0.07431106 0.08135999 -0.09896054 -0.013507752 0.01955969 -0.14562179 -0.09957841
0.15723506 0.005140642 -0.1684576 0.032352805 -0.05814476 -0.0569781 0.13392639 0.07976759
0.12477611 0.05743581 -0.004526451 0.026927829 0.104308404 0.034589875 -0.066003986 -0.038601954
0.0712475 -0.044497646 0.13299431 -0.09294759 -0.04442565 0.09760847 0.03686886 0.06481096
-0.029816417 0.12314311 0.08296484 0.13544482 -0.017342128 0.033327226 0.010990813 0.031389486
0.00907123 -0.04109513 -0.035087153 0.03741694 0.070358366 0.11612106 0.09444662 -0.13904618
0.025369048 0.11501694 -0.13319275 -0.13558912 -0.08914063 -0.14237562 -0.17087178 0.16724908
-0.07480187 -0.06967661 0.05912194 -0.006443246 -0.11243947 -0.12256247 0.083695926 -0.101816565
0.035557278 0.071341366 0.09498833 0.039284732 -0.025767965 0.13552642 0.03482244 0.110690035
0.084536605 0.052986026 0.06167212 0.197081 -0.039098833 -0.1281505 -0.0072666523 0.0054250937
0.0064174216 -0.07494625 0.071243964 0.1294472 -0.02053913 0.17515351 0.031008057 -0.03491488
-0.14243406 -0.12860109 0.03960822 -0.008117343 -0.031520512 0.027698684 -0.07637134 -0.10947791
0.10178918 -0.00034668838 -0.024642007 -0.12435138 -0.15047678 0.17002016 0.023890689 0.046192344
0.12630308 0.119636275 -0.15093021 -0.049681183 0.07243705 -0.014828359 0.07524713 -0.14886247
-0.05958565 0.15298149 -0.03746598 -0.105430044 -0.05009623 0.01284781 0.1505876 -0.08075992
0.17665565 0.07647103 -0.21211427 0.04730612 0.07366866 0.14617132 0.043055467 0.014749719

bias f4 [48]
00000000: f4e7 f33d ee3e 14be 8366 92bd 6133 b7bd
00000010: 67bf 24bd 3321 ee3c 3362 7f3d e36e ffbd
00000020: b369 85bd ba07 d4bb 4a3b 723d 0368 a13c
00000030: acca f53d ebcd 97bc 62aa a0bd 8d1c 0cbe
00000040: 0ee5 d03c 40f8 20be 4e77 1ebe c367 a53d
00000050: 5d17 1f3a 9967 943d 462a 133e 4f5f 2abc
00000060: c002 b23d f48e b63d 0f81 f23d 71ed e0bd
00000070: ef69 09be f6f8 883d 85d1 75ba 7670 e33d
00000080: 9019 d73d c868 ee3d df00 37bd 5c3b 593d
00000090: 2663 a4bd 8f4e afbd 32fb bdbd 3deb b33d
000000a0: 1e4c c5bd 4620 653c 4de5 8f3d 4cc7 9c3d
000000b0: 2cec dfbd 3943 e43d c385 d33d eb5e c83d
0.11909476 -0.14477131 -0.07148459 -0.089453466 -0.040221598 0.029068565 0.06234951 -0.12472322
-0.06514301 -0.0064706476 0.059138574 0.019702917 0.12001547 -0.018530807 -0.07844998 -0.13682766
0.025499847 -0.157197 -0.15475199 0.080764316 0.000606885 0.07246322 0.14371595 -0.0103987
0.08691931 0.08913985 0.11841022 -0.10982788 -0.13419317 0.066881105 -0.0009377229 0.111054346
0.105029225 0.11641079 -0.044678565 0.053035125 -0.080267236 -0.08559906 -0.09276427 0.087851025
-0.09633659 0.013984745 0.070261575 0.076552 -0.10933718 0.11145634 0.103282474 0.09783729

weight f4 [48, 48]
00000000: 7bb8 dfbd 63e7 a7bc ef3c 7bbd 091f 14be
00000010: 5f1b 6ebe db0f 30be 5ded 4a3d 28db 81bd
00000020: 214d babd 4c7d ac3d 0b32 083e 534f 20be
00000030: dd3d b2bd f5d0 66bc be51 0fbe c6f4 84bd
00000040: 469a afbd 7640 2bbd 3008 5e3d fc2a 9b3d
00000050: cf00 8cbd c107 f43d 84f4 3e3d cdf7 0e3d
00000060: 05bf b4bd fa57 153e 7dcd 333d 2d89 1b3e
00000070: 814c 503c 3544 d73d 1010 8bbd 2d22 493d
00000080: bcc5 fbbd 5285 0c3e 057e eebd d99b 763d
00000090: 0b45 d33d a451 1d3e 8087 eebd b1ae 9bbd
000000a0: 8e24 c23c bc88 023e bce1 e7bd 24f3 793d
000000b0: 07c3 2bbd c914 153d 504a 05be a72a 3ebd
000000c0: d841 8f3d 53f2 36bd 0d46 56bc 7d3b 9cbd
000000d0: 4894 d4bd b274 1d3e 4f25 843d fd93 b4bd
000000e0: 2b28 03be 91f2 d93d 5000 1d3d b219 3a3d
000000f0: 2239 de3c acbd ccbd eaac 6bbd 0392 e43b
00000100: f990 4f3d abd8 353b ca30 263e 2848 1c3e
00000110: 77b2 e3bd 445a 05be a6bd 303d 4623 21bd
00000120: 41a8 843d 8704 babd 9fb0 e638 f0db 00be
00000130: d08b bcb9 6a80 2f3c cf75 363b eafa 9c3c
00000140: 1b46 28bd 80f7 ce3c 123d 923d a2b6 20be
00000150: fbf4 62bb b043 47bd e4ac f93c 5b52 03bd
00000160: ebbf ebbd 62c1 0abd 992b f5bd dc89 043e
00000170: 50f3 ec3d d39b f03d 47dd d8bd 0d2e bf3b
00000180: 469b 56bd 28e7 4f3c 6d45 94bd adf6 643d
00000190: 9672 cdbc b7a4 dcbc 3dd0 a03d 6f61 c73d
000001a0: dd0f cc3d e098 b7bd 3abd 603d bd05 743c
000001b0: 3964 1bbe 7f23 e3bd e8c8 bd3c 75c0 1abe
000001c0: 7bca 3dbd 8d2b ca3d 75a4 f1bd babb fb3d
000001d0: 3845 413d eb02 ea3d 4299 fbbd 84c4 f3bd
000001e0: 0270 08be fd0d 073e 9944 bb3d 8a64 b3bd
000001f0: bed3 873d 9c51 433d 97d8 d23d 8a21 a23c
00000200: 4489 6a3c 2cbd 4cbb fa39 a23d 7986 02be
00000210: 8a00 363d 8686 393d 5dc9 f3bc 423c 82bd
00000220: 0f6f c4bd 936a dd3d f2e9 853d a04c ca3d
00000230: b32e 66bd c054 58bc f100 033e a97d dd3d
00000240: bd9e e0bc 6cf5 25bd 9baa e23d 6af4 f53d
00000250: 9a63 2d3c bd6b efbd 0624 9c3d f1df cf3c
00000260: fd01 2f3d cffc 2a3d 41bb bfbd bdaf 1bbc
00000270: 918a a2bd 1095 273e 733c 2fbd 5147 86bd
00000280: df65 f4bc 3c73 2fbe b2b4 0d3d adc8 e6bc
00000290: a769 01be 9bd3 143e c86b c93d ee67 ae3b
000002a0: cdbf 693d 5815 c4bd a2ce e3bd ee08 4a3d
000002b0: e03d cbbc 9acc edbc 043e 3abb 3bf5 fc3d
000002c0: 9d7c f4bd 5487 d8bd e37a 2d3d 0cdf 043d
000002d0: dd68 6a3d 8560 a83b a7b6 8a3c 21e4 b43d
000002e0: 5355 c9bd 30f6 5ebd e0b9 13be d720 933a
000002f0: 5c55 09be 08e0 3cbd 1d2c 693d aa66 d43d
00000300: 5037 2dbe 68ac cebd f3e9 10be edb0 ad3d
00000310: 261b 7ebd 76f8 543d be56 8c3d d021 2dbe
00000320: 44d7 28ba a467 20bb 6c0d 1dbc fb45 5f3d
00000330: f7be 233e 4f54 42bd b348 4cbc d8d2 f13d
00000340: 454e 933d 1807 86bd 31ff fbba 2cc0 1d3e
00000350: 522b c8bc fbe0 cb3d e08d e63d 226e 09bd
00000360: 122f 683e 228a 1ebe ceae ce3c 9258 3ebe
00000370: 19bb 7dbd 9086 bd3d e9b5 92be 4aee a4bd
00000380: 36b5 19be 2fd8 62bd dfc2 55bc 9c9b dc3d
00000390: de86 09be a315 f23c b577 ddbd f2cb aa3c
000003a0: 7d23 2b3c 85c8 023e 4aa9 c1bd f2d0 f5bd
000003b0: 7b21 b8bd c15e 1fbd 6c45 11bd 37b7 463e
000003c0: 52bc c63c baf1 383d 0e9f 0bbd c347 14be
000003d0: 5533 353d 45cb bcbd 1e53 1a3d 8da1 ed3d
000003e0: d2d7 173d 55af a93d cf49 33be 458b c93d
000003f0: 3cdc 34be 4ea6 fabd d390 1dbe 6e30 fbbc
-0.10923859 -0.020496076 -0.061337408 -0.14464964 -0.23252629 -0.17193548 0.049542774 -0.06340629
-0.090967424 0.08422336 0.1330034 -0.1565526 -0.08703206 -0.014087905 -0.13996026 -0.06491999
-0.08574347 -0.04180952 0.054207027 0.07576558 -0.06836092 0.119155414 0.046619907 0.03490429
-0.088254966 0.14584342 0.04389714 0.15189047 0.012713552 0.10511056 -0.06790173 0.04910486
-0.12293574 0.13722733 -0.1164513 0.06020722 0.10315903 0.15363175 -0.11646938 -0.07601679
0.023699071 0.12747473 -0.11322352 0.061022893 -0.04193404 0.036396775 -0.13016629 -0.046427395
0.069949806 -0.044664692 -0.013078225 -0.07628534 -0.10379845 0.15376547 0.064524285 -0.08817289
-0.12808292 0.10641969 0.038330376 0.04543466 0.027126852 -0.099971145 -0.05753795 0.0069754138
0.050675366 0.0027747552 0.16229549 0.152619 -0.11118024 -0.13022715 0.043149613 -0.03934028
0.064774044 -0.09082895 0.00011000153 -0.125839 -0.00035962323 0.010711769 0.0027841215 0.019162614
-0.041082483 0.025264502 0.071405545 -0.15694669 -0.0034630883 -0.048648536 0.030477948 -0.032060962
-0.11511215 -0.03387583 -0.11971206 0.12943214 0.11569846 0.11748471 -0.1058908 0.005834347
-0.052394174 0.012689389 -0.072398044 0.05589931 -0.025079053 -0.02693401 0.07852218 0.09735381
0.09963963 -0.089647055 0.05486796 0.014893946 -0.1517495 -0.11090755 0.023167089 -0.15112479
-0.04633568 0.09871588 -0.11798946 0.122916654 0.047185153 0.11426338 -0.12285091 -0.11902717
-0.13323978 0.1318893 0.09143943 -0.08759411 0.066321835 0.04768525 0.102952175 0.019791383
0.014314953 -0.0031240685 0.079212144 -0.1274661 0.044434108 0.045294307 -0.029759103 -0.063591495
-0.09591495 0.10811343 0.06538762 0.09877896 -0.05619688 -0.0132038 0.12793328 0.108149834
-0.027419442 -0.040517256 0.11067697 0.12009509 0.010582829 -0.11690471 0.076240584 0.025375338
0.042726506 0.041745003 -0.09361888 -0.0095023485 -0.07936586 0.16365457 -0.04278226 -0.06556571
-0.029833732 -0.17133802 0.034596153 -0.028171862 -0.1263796 0.14533846 0.09835011 0.005322448
0.05706768 -0.095743835 -0.111233965 0.049324922 -0.024809778 -0.029028226 -0.0028418312 0.123514615
-0.119378306 -0.10572687 0.042353522 0.032439277 0.05722891 0.005138459 0.016932799 0.08832575
-0.098307274 -0.054434 -0.14426374 0.0011224997 -0.13411468 -0.04611209 0.056926835 0.10371144
-0.16915631 -0.10091478 -0.14151745 0.084810115 -0.06203761 0.051994763 0.06852482 -0.1690743
-0.00064407685 -0.0024475837 -0.00958572 0.054510098 0.15990816 -0.047443684 -0.012468505 0.118077934
0.07192663 -0.06544322 -0.0019225833 0.15405339 -0.02443472 0.09955021 0.11257529 -0.033552296
0.22674206 -0.15482381 0.025229838 -0.18588474 -0.06194601 0.092541814 -0.2865441 -0.080532625
-0.15010533 -0.05538195 -0.013046949 0.10771868 -0.13430354 0.029551333 -0.10813848 0.020849202
0.010445473 0.12771805 -0.094561175 -0.12002744 -0.08990761 -0.038908724 -0.035466596 0.19405828
0.02425972 0.045152403 -0.034087233 -0.144805 0.044238407 -0.09218458 0.037676923 0.11603079
0.037071057 0.08285395 -0.17508624 0.09841017 -0.17662138 -0.12238751 -0.15387277 -0.030662742

bias f4 [48]
00000000: 49cf 2d3d a30a 8dbd 4ae9 ff3c 1fe2 bfbd
00000010: b43d 673d f252 39bd d079 c1bd cd36 aabd
00000020: ebdf 28be ace4 a73d c0bd c7bc 1b72 443d
00000030: 9bdf d9bd 8be3 79bd f1a6 7abc ce48 943d
00000040: 38d6 14be da47 7abd 3d83 b93d 9103 193e
00000050: ef1a b63d 4fc2 103e 0967 113e 1183 f6bd
00000060: c20b d2bd 6641 47bd dd61 113e eb23 3bbc
00000070: 4cca ea3c cf53 2f3d ae39 20bd f7a2 1a3d
00000080: c558 dabc ee6b 243d 2901 05be 7f26 383c
00000090: 776f a93d c163 c03d e6e5 823c 5169 fd3c
000000a0: 8d37 c83d 2a12 953d 0479 8a3d 3011 ec3d
000000b0: 50d3 273d eeab 113e 5c6f c43d b2af 393d
0.04243401 -0.068867944 0.03123917 -0.09369301 0.05645533 -0.04524512 -0.09447062 -0.08311234
-0.16491668 0.081979126 -0.024382472 0.047960382 -0.106383525 -0.061008018 -0.015298591 0.07240449
-0.14534843 -0.06110368 0.09058235 0.14942767 0.08891856 0.14136623 0.14199461 -0.12036718
-0.10256149 -0.048646353 0.14197488 -0.011422138 0.028660916 0.042804535 -0.039117508 0.03775307
-0.026653657 0.040141992 -0.12988724 0.011239647 0.08273213 0.093940265 0.015978765 0.030934008
0.097762205 0.07278855 0.06761363 0.11526716 0.040973008 0.14225742 0.095915526 0.04533357

weight f4 [48, 48]
00000000: 419b b0bd e38d 883d 8b79 04be bce7 2fbd
00000010: 1246 bc3c 213d f2bc 0c75 1abe 034f 383e
00000020: a6e2 093e 428c 83bd c615 b6bd 0c30 59bc
00000030: ce2b 1f3e d5ff f1bd dd55 0f3d 20c5 6dbd
00000040: d44c e83d a15f 54bd a76a 033e 52e7 9b3d
00000050: 0cbd ccbd 1134 f2bd f8e1 01be 10ae 07be
00000060: 9527 853c f2c1 9f3c ac65 50bd 29c6 6abd
00000070: 8c59 10bd ec35 4fbd 92e4 12bc 2032 7bbd
00000080: cea3 aa3c c3c0 d3bc 36dc 9c3d 66d2 ec3c
00000090: b7a6 0abd 88c2 703b 1b2f 0fbe 4753 82bd
000000a0: f9f0 a13d 92d5 8b3c 06a6 f8bd 0c14 593d
000000b0: 19e3 a13d 70f1 253e aeb0 1cbd 52f1 863d
000000c0: 9ca5 a93d 5e4b 683c fce0 453a 7ba7 55bd
000000d0: 46ef 9d3d 5512 ebbc 8c4d 4e3d 7328 013c
000000e0: 17c1 273e 3801 f93d 4dd5 0c3e f68d 4dbd
000000f0: d78f 543d 67e4 dbbd b88b 97bd c669 b6bb
00000100: 4ffd 383d 2dbe ac3d 0d5f bcba 9003 9d3d
00000110: 2097 e6bd e512 753d 2bdb 97bd 6fb5 c83d
00000120: e997 7dbd b2de d73d 0995 a73c 3258 8b3d
00000130: 507c 593d 15df 2bbe 922c 68bd d7b2 d5bc
00000140: ca45 d43d 7a00 e33d 1ac9 b4bd eb6b c7bd
00000150: df6c bb3d a2af 63bc 239c 24be 421f b4bd
00000160: f2cc 263d 47b6 1e3c 1558 5c3d 728c 9abc
00000170: b01c 153e 42f5 dfbc 84ac 2b3d 4e81 1f3d
00000180: c3f5 b33d 639a 72bd 8682 05bd b1bf c23d
00000190: 2a27 b3bd 76db e9bb 79d0 fcbd 2519 fd3d
000001a0: 7efa 8a3d 1c71 42bd 895f 04be 1666 323d
000001b0: 3eeb 243e fe5a e2bd fbf4 ebbd eaed 0dbe
000001c0: c59e ab3d 93f5 c93d 06f1 023d fe70 453d
000001d0: 7c29 a83d 36b3 023e c611 143d 1381 dfbd
000001e0: 764f 093e 2b5b b93d b9ae 863d f8ba e43d
000001f0: 409c d2bb a96a f53d 8ac2 113e bf6b ecbd
00000200: 45a3 083d 0fc9 76bd a02d c73d b91f ea3c
00000210: a1a1 4d3d cf7b cfbd 7270 ddbc 77d5 e53d
00000220: 2407 0b3e 3b7a c33d 7c57 9bbd aafa 37bd
00000230: b269 b8bd 8660 39bc f0ea bd3c d611 22be
00000240: d80c 0f3d ba8c 803d b05a 6dbc fb4e eebd
00000250: 70b2 c73d f9a1 b9bd 9678 9f3b 3274 c03d
00000260: 5498 8a3c 6a11 be3d 1619 1ebc d6c9 9a3d
00000270: 0357 ddba 4bd1 70bd ba91 953c 0476 16be
00000280: db08 ccbd b3c6 83bd fe7b 98bc cb66 ddbd
00000290: 926b ecbd 9230 b0bd c90b b83d 327e 85bc
000002a0: 1cee b33b 055e d43d 69c8 c0bd 58a1 a83d
000002b0: afec 1e3e b661 8a3c f09b 163d 59cc d5ba
000002c0: 6db9 03bd 89c4 5d3c ab43 d9bd 8e4c 48bd
000002d0: 96d4 2d3d 04c3 c23b b683 d7bd 5d5e a7bd
000002e0: d965 3c3a 8f51 543c cb99 ccbd 1962 f3bd
000002f0: 3315 953d dabd 1f3d e3d2 133e 0f70 1fbc
00000300: 228b 2bbc cb0c 8cbd ae59 0ebe 6d46 1c3c
00000310: b521 c03b d9cc bdbc 8a20 dd3d 7bca 6ebd
00000320: 63ce 5f3d 1893 0ebe 8735 8cbd c181 35bc
00000330: 4185 173e a939 33bd 0260 073d 145c c8bd
00000340: 2307 4b3d 9534 4ebd 6fa6 f43d e92b 1c3d
00000350: 3a1f 6cbd 5767 333d 6838 0bbe 465f 033e
00000360: c02a cb3c 9779 c23d ce03 b73d 3b2c 933d
00000370: 8f29 3f3b 0c0a 18bd bbe8 c43b e431 e3bb
00000380: a691 ff3a 6f86 b23d 36ab d8bd 1131 0d3e
00000390: a6d1 ae3d 3b7b 9dbc 0f2f 5cbd 6fae 2b3d
000003a0: fed8 bcbd 41c5 b3bc 0565 cc3d 17f9 5e3e
000003b0: dd40 a0bd cc69 a73d 8738 f2bd 6e6f 10be
000003c0: 16f4 0ebd 5f13 aebc 7754 21be d292 1cbb
000003d0: c5e6 66bd de11 22bd 1079 bbbd a1a0 c73a
000003e0: 78c7 a23c 792a 9a3c 811c d9bd 3a31 e8bc
000003f0: d6d0 093e 2f7e 263e ef6c febd 4044 93bd
-0.08623362 0.06667688 -0.1293699 -0.04294561 0.02298263 -0.029570164 -0.15083712 0.1799889
0.13465366 -0.064232364 -0.08890872 -0.013256084 0.15544054 -0.11816374 0.034993995 -0.05804932
0.11342779 -0.05184901 0.12833653 0.0761248 -0.09996995 -0.11826337 -0.12683856 -0.13249993
0.016254226 0.01950166 -0.05087821 -0.057317887 -0.03524165 -0.050588533 -0.008965628 -0.0613271
0.020830061 -0.025848752 0.076591894 0.02890892 -0.033850398 0.0036737043 -0.13982813 -0.0636354
0.0790729 0.017069612 -0.121410415 0.052997634 0.079046436 0.16205382 -0.038254432 0.06588997
0.082835406 0.014178125 0.0007548479 -0.052161675 0.077116534 -0.028695265 0.050366923 0.007883179
0.16382252 0.121584356 0.13753243 -0.050184213 0.05189499 -0.10736924 -0.07399696 -0.0055668084
0.04516345 0.08434711 -0.0014371589 0.07666695 -0.112592936 0.059832472 -0.0741485 0.09800231
-0.06191245 0.10540523 0.020456808 0.06803931 0.05309707 -0.16784318 -0.05668313 -0.026086254
0.10364874 0.11084075 -0.088274196 -0.097373806 0.09151625 -0.013896855 -0.16075186 -0.087950245
0.040722795 0.009687013 0.05379494 -0.018865798 0.14561725 -0.027338628 0.04191257 0.038941674
0.0878711 -0.059229266 -0.03259518 0.095092185 -0.08747704 -0.0071367575 -0.123444505 0.123583116
0.06786059 -0.04747115 -0.12927069 0.043554388 0.16105363 -0.11052512 -0.11521336 -0.13860288
0.08379892 0.09861293 0.03196814 0.04820346 0.082110375 0.12763676 0.036149763 -0.10913291
0.13409218 0.09050592 0.065762945 0.11168474 -0.006427318 0.119832344 0.14234367 -0.115439884
0.03335883 -0.06025034 0.09725499 0.02857958 0.05020297 -0.101310365 -0.027031157 0.11222356
0.13576943 0.09544798 -0.07585046 -0.044916786 -0.09004535 -0.011314517 0.023183316 -0.15827116
0.034924358 0.062768415 -0.014486954 -0.11636158 0.09750831 -0.09064097 0.00486667 0.093971625
0.016918339 0.09280665 -0.009649536 0.075580284 -0.0016886893 -0.058793347 0.018257964 -0.14693457
-0.099626265 -0.06434383 -0.018613812 -0.10810622 -0.11543955 -0.08603014 0.08986623 -0.016295526
0.0054910313 0.10369495 -0.09413225 0.08233899 0.15519975 0.016892295 0.036769807 -0.0016311511
-0.032159258 0.013535627 -0.1060861 -0.048901133 0.042439066 0.005943658 -0.10523169 -0.08172295
0.00071868073 0.012958898 -0.09990271 -0.11883945 0.07279434 0.038999416 0.14435916 -0.009731307
-0.010470184 -0.068383776 -0.13901398 0.009538275 0.005863393 -0.023168968 0.10797222 -0.05829857
0.054640185 -0.139233 -0.06846147 -0.011078299 0.14796926 -0.04375616 0.033050545 -0.097831875
0.049567353 -0.050343115 0.11945807 0.038127813 -0.057646967 0.043799724 -0.13595736 0.12829313
0.024800658 0.09495848 0.089362726 0.07186171 0.0029169058 -0.037118956 0.006009189 -0.0069334377
0.0019498363 0.087170474 -0.10579531 0.13788249 0.08536081 -0.0192238 -0.053755816 0.0419144
-0.092210755 -0.021944644 0.099802054 0.21774708 -0.07824872 0.08174476 -0.11827188 -0.14105007
-0.034900747 -0.021249471 -0.15754877 -0.0023891223 -0.056372423 -0.03956782 -0.0915395 0.0015230366
0.019870505 0.01881908 -0.1060114 -0.028343786 0.13458571 0.16259073 -0.12423121 -0.07190752

bias f4 [48]
00000000: 8546 923d 82b4 8e3d 900d 1d3b cd93 df3d
00000010: 8b60 34bd cf66 0e3e cdae b83d 1bea 973d
00000020: 010d 4b3d 6551 f2bc eeef fc3d 3e09 593d
00000030: d0b2 b43d 35c7 0c3d ef55 933d d30c 31bd
00000040: 8896 93bc 2104 903d 67b7 e9bc 9b6e 1cbd
00000050: 988f 1abe a01a aa3c 4395 0dbe 847d 943d
00000060: 85c7 ebbc 8cbb ebbd 8ee1 c9bd c07e 19be
00000070: 86fb 05be deb9 7a3d 42ba 8dbd 74b6 033d
00000080: 2990 33bd 3cb6 63bd 74c0 a93d 030e ddbd
00000090: 0e0a d83d dfdb dfbc 1daf cc3d 9534 c1bd
000000a0: 75ae e8bd 1f14 ee3d 2191 dc3d 07df 48bd
000000b0: bd20 be3d 8e60 2dbd 3943 febc 7a67 053e
0.07142357 0.06968023 0.0023964383 0.10916863 -0.044037383 0.13906406 0.090177156 0.07417699
0.04957295 -0.029579828 0.123504505 0.05298733 0.08823168 0.034369666 0.07194125 -0.04322512
-0.018016115 0.070320375 -0.028529836 -0.03819142 -0.15093839 0.020764649 -0.1382647 0.07250503
-0.028781662 -0.11510381 -0.09857474 -0.14989758 -0.1308423 0.061212413 -0.069202915 0.032156423
-0.043838654 -0.055593714 0.08288661 -0.10793688 0.10548793 -0.027326522 0.09994338 -0.09433857
-0.113614 0.116249315 0.10769869 -0.04904082 0.09283588 -0.04232841 -0.031037914 0.13027754

weight f4 [4, 48]
00000000: 7ce9 0ebe ab1b c43d 34d0 18be dfcc d53d
00000010: 0d75 0cbe 431f fd3d 85c8 a23d 59bb 67bd
00000020: 9e68 943d e0d9 c23d 1608 9dbd 8148 10bd
00000030: 9245 1f3d 9238 87bd 21b7 093e 0e89 103c
00000040: 61cf 883d 099b 1a3e bf12 073e 9960 873b
00000050: 2a3b 8a3d cd13 b33c f557 b63c 730a d73d
00000060: e4ef a43d f020 f8bd 7fa0 f73d 1197 4abb
00000070: aeef c33d a544 87ba f244 2a3d c26d 37bd
00000080: 84d1 c5bb dbc5 8c3d 0a24 febd 4e6d eb3d
00000090: 248c a43d 7d50 833d ed8d 19be 7184 dabd
000000a0: 9d1e 47bc a20e 9c3d 9a3b f9bd f55f c03d
000000b0: 00dd da3d 3bc2 fbbc bd8f ebbd 1c54 503d
000000c0: 56b6 363e c8dd 8f3d fb1d fe3d 42ec 643c
000000d0: d03c ed3d 47ee dfbd ac0a 03be a9d4 a43d
000000e0: 224d 303d 7cf9 0abe 30cf f1bd 3d99 91bd
000000f0: a710 083e 0e10 123e efd5 e63c 5715 42bc
00000100: b0c3 a73c 796b b93d 612b c4b9 fe8c 21be
00000110: affd 063c e716 efbd 25e3 f8bd 456f 8a3d
00000120: 9ef6 133d d479 bfbd cb99 01bd a500 86bc
00000130: a32f 843d 621e a73d b34a 013c 12d6 66bd
00000140: 57ba efbd 8756 513d aa57 ca3b 8602 1fbe
00000150: 14d9 6c3c 86c9 04be 68d3 af3c 7f9e ebbd
00000160: 31b0 48bb bd17 a23d 9bd1 9f3b bbec aebd
00000170: a968 6abd 0e3e 0b3e 7bba 52bd a5b1 2ebe
00000180: 3b15 ff3d 78d2 9d3d a809 b73d 43fc a2bd
00000190: b712 873d bc72 083e 1257 003e 8fb3 c53d
000001a0: e641 8f3b 11b1 d13d ad5d 2cbc 180b 333e
000001b0: ed4e 63bd ff76 8dbd 60bc 8ebd 51fe 01be
000001c0: b492 de3d 9047 323e 81e5 2b3d 30b8 8ebd
000001d0: 4f73 db3c 27bc a33d c034 e8bd 8014 183d
000001e0: 28e6 fc3c 5d8e 7e3d 5991 18be c12e 9ebd
000001f0: 2527 f73d 3921 5cbe 00df 843d 94f5 aebd
00000200: 176b 0a3d bdb2 e7bc 7e09 1f3d 7eeb 00be
00000210: f98c f93d 7a9e aebc 0dc0 183e 33f5 cc3d
00000220: 02ba 8dbd 8bf7 4b3e d774 753d b799 253e
00000230: 322d 97bb a3a5 bdbd 2e1c e33d 3287 31bd
00000240: e356 7ebd 5646 573d cfdb 1e3e 10ef 4bbc
00000250: 823b 0bbe dc15 59bd e815 d43c c5a4 8b3d
00000260: 5b6c 98bd 07d1 f43d a5cf 4d3c 7245 e6bc
00000270: 3075 fa3a 6317 403d b743 15be 1c05 6cbc
00000280: c50a c9bd f5ba b1bd 14ac 4b3d 1c33 ee3d
00000290: 77ff 29be 747c 93bd 21c0 f9bd ed23 0b3e
000002a0: acf5 05bd 2a6e 0dbd eeae 6a3d c082 66be
000002b0: ecc0 31bd e5c3 a2bd 2278 133d 5da7 923d
000002c0: 766a d63d 61db e5bd b19d bc3d cd03 dfbd
000002d0: bb99 dc3d 57a8 0e3e 7f34 91bd 09f1 3ebd
000002e0: ab57 883d ce2a 3bbe 94b2 183e 6eea 3e3e
000002f0: 9941 c53d 28ee 04be 7047 c73c 9d80 0bbd
-0.13956255 0.0957559 -0.14923173 0.10439467 -0.13716526 0.12359478 0.07948402 -0.056575153
0.07246517 0.095142126 -0.07667558 -0.035225395 0.038884707 -0.06602587 0.13448764 0.008821739
0.066801794 0.15098204 0.13190745 0.0041313884 0.06749566 0.021860028 0.022258738 0.1050004
0.08053568 -0.12115657 0.12091159 -0.0030912797 0.095672 -0.001032014 0.041569658 -0.044782408
-0.006036939 0.068736754 -0.12409218 0.114954576 0.08034542 0.06411836 -0.14995547 -0.106697924
-0.012153295 0.076199785 -0.12169571 0.09393302 0.10686684 -0.030732265 -0.11502025 0.050861463
0.17842993 0.07024723 0.12408062 0.013972344 0.11583865 -0.1093412 -0.1279704 0.08048374
0.04304231 -0.13571733 -0.11807096 -0.07109306 0.13287602 0.14263937 0.028178183 -0.011845908
0.020479053 0.09053702 -0.00037416353 -0.1577644 0.008239194 -0.1167429 -0.121526994 0.06759504
0.036123864 -0.09349409 -0.03164081 -0.01635773 0.064543985 0.08160092 0.007891345 -0.056356497
-0.117054634 0.05110791 0.006175001 -0.15528306 0.014456052 -0.129675 0.021463111 -0.1150484
-0.0030622596 0.07914684 0.004877282 -0.085412465 -0.057228718 0.1359789 -0.051447373 -0.17059954
0.12455221 0.07706159 0.08937389 -0.07958271 0.065953664 0.13325018 0.12533215 0.09653389
0.0043718694 0.10238851 -0.010520381 0.174847 -0.05549519 -0.06907462 -0.069695234 -0.1269467
0.10867825 0.17410111 0.04196692 -0.06968725 0.026788382 0.079948716 -0.11338186 0.037128925
0.030871466 0.062147487 -0.14899196 -0.07723761 0.12068013 -0.21497048 0.064878464 -0.08542934
0.033793535 -0.028283471 0.03882741 -0.12589833 0.121850915 -0.021315802 0.14917012 0.100077055
-0.06920244 0.19918649 0.05992588 0.16171919 -0.004613542 -0.09260108 0.11089359 -0.043341823
-0.06209458 0.052557312 0.15513538 -0.012447134 -0.13596919 -0.052999362 0.025889352 0.06818537
-0.07442542 0.11953931 0.012561713 -0.028109286 0.0019108411 0.046897303 -0.14576612 -0.014405515
-0.09816507 -0.08678237 0.049724653 0.11630842 -0.16601358 -0.07201472 -0.12194849 0.13587923
-0.032704994 -0.03452889 0.057295732 -0.22510815 -0.043396875 -0.0794752 0.03600324 0.07160828
0.104695246 -0.11223484 0.09209765 -0.10889397 0.10771509 0.13931404 -0.07090091 -0.046616588
0.06657346 -0.18278047 0.14911872 0.18644115 0.096316524 -0.12981474 0.024326056 -0.034058202

bias f4 [4]
00000000: fe03 f1bd 5a02 43bd cf44 2bbd 4b64 b3bd
-0.117683396 -0.047609664 -0.041813668 -0.08759364
