mPINNs-R1/mPINNs_result/result4/model.pth (torch, 35100 bytes, 10 tensors)

weight f4 [48, 2]
000000 cb d3 84 bd 99 a7 6f be ef 29 0d 3f ba 21 27 be
       -0.06485709 -0.23403777 0.5514211 -0.1632146
000010 42 36 e9 3e 49 36 28 bf 54 b3 9c 3e 15 ee d3 3e
       0.45549208 -0.6570783 0.30605567 0.4139258
000020 c1 54 0d 3f ef 2f 0b 3f 71 57 2d bf fd e2 ef be
       0.5520745 0.54370016 -0.6771155 -0.46852866
000030 1e 5f 12 bd 50 9a c9 be 71 22 2e bf ba c6 84 3e
       -0.035735242 -0.39375544 -0.68021303 0.25932866
000040 7e 18 14 bf 6d e3 7c be 2a 92 eb 3d 12 20 c6 be
       -0.5784987 -0.24696131 0.11502488 -0.38696343
000050 4c e6 b6 3d 26 a6 da 3e 52 7f eb 3e fa 70 18 3e
       0.089306444 0.42704886 0.45995575 0.14886847
000060 51 e3 2f bf de ed 6e ba 2c 9e ee be e4 3f 97 3e
       -0.6870623 -0.00091144245 -0.4660505 0.29540932
000070 5d e1 ee 3e 28 c2 2b bf f1 05 60 3e 9b 6b 04 3e
       0.46656314 -0.67093134 0.21877266 0.12931673
000080 aa 44 97 be 62 25 65 be 23 a9 bb bd 30 ef 46 be
       -0.29544574 -0.22377542 -0.0916312 -0.1942718
000090 cb 1c a4 be aa 60 c0 be fc 81 1d bf 94 4c 77 be
       -0.32053217 -0.3757375 -0.61526465 -0.24150306
0000a0 59 bb 18 3f ee 1f c4 be e3 d7 82 3e 8f de 40 3e
       0.5966087 -0.3830561 0.25555333 0.188349
0000b0 2b d0 9e 3e e8 a4 89 3e 50 08 4e bd b9 41 37 bf
       0.31018195 0.26883626 -0.050300896 -0.7158466
0000c0 57 64 f1 3e 9c a1 20 3d cd 07 be be 55 60 0d 3f
       0.47146866 0.039216623 -0.37115327 0.55225116
0000d0 a0 fb e9 be ce aa 81 3e c5 38 1b 3f 70 a2 9b be
       -0.45699787 0.25325626 0.606335 -0.30397367
0000e0 f8 71 0b 3f 59 7c 8b 3e 27 94 1e bf 2e 99 a9 3e
       0.5447078 0.27243307 -0.6194481 0.3312468
0000f0 5b 47 01 bf f1 5c 62 3e 10 7a 14 3f a9 da e9 bc
       -0.50499505 0.22105767 0.5799875 -0.028546648
000100 54 99 c9 3e a6 76 3a bf 11 8a ae be d0 e7 76 be
       0.39374793 -0.72837293 -0.3408971 -0.24111867
000110 97 3a b2 3e d0 68 da be d4 a4 09 3f 5c ee 24 be
       0.34810326 -0.4265809 0.5376713 -0.16106552
000120 c7 06 a0 be 7b 1d cc 3e b3 0b bd be a6 e3 2c be
       -0.3125517 0.39866242 -0.36922988 -0.16883716
000130 af d4 4c 3b 54 8d c2 be b9 b6 fa 3e e0 a0 91 3c
       0.00312547 -0.3799845 0.4896753 0.017776906
000140 49 6d e4 3e 57 84 66 3e dd bc f4 be 91 9a ef 3e
       0.44614628 0.22511421 -0.4780034 0.46797612
000150 f9 7f 10 3f 94 b4 25 3f a2 66 66 3e 0f b7 97 3e
       0.5644527 0.64728665 0.22500089 0.2963185
000160 f4 89 ad 3e 54 6e 5c 3e e4 00 06 3f 35 66 8b be
       0.33894312 0.21526462 0.5234511 -0.27226415
000170 a5 5a 02 3e b5 82 89 bb 45 8a d2 be ca 2f a7 be
       0.1272989 -0.0041964897 -0.41121116 -0.32653648

bias f4 [48]
000000 e8 c1 b1 3e 7e 0a e5 3d d2 09 1e be 0d c1 c1 be
       0.3471825 0.11183642 -0.15433434 -0.378426
000010 6f f0 17 3f ea b3 72 3d c2 7f 06 3f d9 86 3c bf
       0.5935125 0.05925361 0.5253869 -0.7364326
000020 36 93 1d bd c3 96 05 bf 4b 12 ae be 97 95 68 3e
       -0.03847047 -0.5218317 -0.3399833 0.22713314
000030 10 aa e5 3e 3e 3d 29 3f 8c 0a d4 3e 90 ba 20 3f
       0.4485631 0.66109073 0.41414297 0.6278467
000040 ee 36 88 bc a2 de c3 be 0f bc 75 3d 86 ef 8d 3d
       -0.016627755 -0.38255793 0.0599938 0.06930451
000050 8b b2 3b 3f 56 3a 2f bf 60 81 bf 3e a7 28 37 3e
       0.7331931 -0.6844839 0.37403393 0.17886601
000060 11 7e 28 bf 3f 4c ac 3e af 76 d9 be e4 78 e2 3c
       -0.6581736 0.3365192 -0.4247336 0.027645536
000070 a1 be 14 bd 15 9e a3 be 22 45 0d 3e 11 0c 35 be
       -0.03631461 -0.31956545 0.13795903 -0.17680384
000080 8d c8 29 bf e1 b1 e7 be 0b 43 ac 3e 30 0d 06 bf
       -0.6632164 -0.45252898 0.336449 -0.5236387
000090 8e 6a 0c 3e c7 49 29 3e c2 d5 c3 be 6a ee a6 3e
       0.13712522 0.1653205 -0.38249022 0.3260377
0000a0 2e 1f 2e bf ce 7b 64 3c 1b d8 d9 bd da 47 f5 3e
       -0.68016326 0.013945533 -0.10636922 0.4790638
0000b0 58 b8 62 bd 08 c7 7b be 05 9a 66 be 44 a7 9f bd
       -0.055351585 -0.24587643 -0.22519691 -0.07795575

weight f4 [48, 48]
000000 8a 45 28 bb 0e 1d 69 be 53 b0 a9 bd b7 2f 38 bd
       -0.0025676214 -0.2276499 -0.08285584 -0.04496738
000010 60 a0 89 3c e1 6c 24 bd 34 07 c8 bd 91 26 38 3d
       0.016800106 -0.040142898 -0.09766999 0.044958655
000020 29 a2 5b 3c 07 b3 01 3e d7 e4 cc bd 14 e8 3e be
       0.013405361 0.1266595 -0.10004585 -0.18643218
000030 bd a8 de 3d 78 40 0c 3d c3 74 b9 3d c7 d1 07 3d
       0.10872028 0.03424117 0.09055474 0.033159044
000040 07 81 09 3c 02 1b 09 bc d8 67 ef bc 00 40 15 3e
       0.008392579 -0.008368256 -0.029224321 0.14575195
000050 61 ba 9c bd 32 36 35 3d ee 2f 2d bd 1d 63 d0 bc
       -0.076527365 0.044241138 -0.042282037 -0.025437886
000060 d4 d3 fd bd 13 a2 83 3c 8b 9b b6 3d 41 24 bf bb
       -0.12393919 0.016068494 0.08916386 -0.005833179
000070 04 cf b0 3c ac e7 4a 3e 25 b6 e0 bc de 60 a1 3a
       0.021583088 0.19814938 -0.027430603 0.0012312194
000080 5b 03 99 3d 73 c2 6b 3d 8b 04 9f bd 7b d3 97 bc
       0.07471343 0.057558488 -0.077645384 -0.018533459
000090 76 9d 03 be 84 64 8c bd d0 bc 0f ba 64 05 03 be
       -0.12853035 -0.06855109 -0.00054831523 -0.12795025
0000a0 94 1f f3 bb 3a dd 27 bd 42 a8 a7 bd 65 07 c0 bd
       -0.007419536 -0.040982462 -0.081863895 -0.093764104
0000b0 55 5d e7 bd 62 a3 c0 3d 67 0b c0 bb 2b d5 36 bc
       -0.112970985 0.09406163 -0.0058607343 -0.011159222
0000c0 11 16 d4 bd a0 d8 94 3d b3 73 29 bd f4 d1 27 be
       -0.10355771 0.072678804 -0.041370105 -0.16388685
0000d0 a3 60 36 3d 6a 51 2f bd bb 50 94 bd d6 06 58 3c
       0.044525754 -0.042802252 -0.072419606 0.013185224
0000e0 bf ef 31 bd 03 80 1c bd e7 be ca 3d 1c 51 32 be
       -0.04344153 -0.03820802 0.09899693 -0.17413753
0000f0 d9 7b cb 3d e4 7f de 3d bd 64 79 bc e9 c2 79 bd
       0.099357314 0.10864237 -0.015221772 -0.060976896
000100 d7 1a af bc 36 e5 bc 3c 51 db f2 3d 49 ca 04 3e
       -0.021375103 0.023058515 0.118582375 0.1296779
000110 8c 94 6d bd 3a 93 25 be 9d 49 de 3c 9c bf 34 3d
       -0.058002993 -0.16169444 0.02713471 0.044128045
000120 2f ea b1 3d 87 d8 a7 bd 36 75 24 3e ae 63 34 be
       0.08687245 -0.08195596 0.16060337 -0.1761615
000130 e9 c9 1c 3d fe 71 52 bd 16 58 b4 3c 0b 2a af 3d
       0.038278494 -0.051378243 0.022014659 0.08552941
000140 a5 e4 80 3d 17 ba 09 3e 77 c5 20 3d c9 58 03 3d
       0.062936105 0.13449894 0.039250817 0.032067094
000150 bf 19 5a 3d 51 27 36 bd 7f 8b 6b 3d 16 ba 61 bd
       0.05324721 -0.04447109 0.05750608 -0.055109106
000160 0c 29 e6 bc 60 45 7d bc ac 8d 09 3e d2 cd 85 bd
       -0.028095745 -0.015458435 0.1343295 -0.06533398
000170 36 d2 e0 bd fc b8 49 3d d3 54 12 3d 19 e0 9b bd
       -0.109775946 0.04924868 0.035725426 -0.076111026
000180 fd 19 04 3e dd 68 e3 bd 97 9a 28 b9 c2 4c 11 3e
       0.12900539 -0.111039855 -0.00016079318 0.14189437
000190 10 14 55 bd 08 27 04 bd d9 a2 ca bc 12 94 f4 3d
       -0.052021086 -0.032263786 -0.024735855 0.11942305
0001a0 7b c4 d8 bd 64 e1 aa bd 5a 7a ca 3d 81 b8 fc 3d
       -0.10584351 -0.08343771 0.09886618 0.12339879
0001b0 00 56 9a bd fd a8 3e 3c 73 fc 19 bd 32 ee 83 bd
       -0.075359344 0.01163697 -0.03759427 -0.064419165
0001c0 2b 21 bf 3d 4f b0 ef 3c 51 4e 28 3d 1f ff da bd
       0.09332498 0.029258875 0.041090313 -0.10693192
0001d0 2e a5 28 be 97 9b e1 bd 42 f7 ac 3d e6 24 23 bd
       -0.16469261 -0.110160045 0.08445598 -0.03983011
0001e0 92 0b f4 3d 61 de 13 bd 68 7b b3 3d ac ba 0a 3d
       0.11916269 -0.03610075 0.08763772 0.03386943
0001f0 e5 6e 07 bd 71 5c 01 3e 01 4b 45 3d f0 3f a1 3d
       -0.03306474 0.1263292 0.048167232 0.07873523
000200 c1 7e 06 bd 66 0c d6 3d 85 af 68 3d e0 23 4c bd
       -0.032835726 0.104515836 0.056808013 -0.0498389
000210 57 4c 67 3c d7 dd e9 3d 5b e3 03 be 6d 01 5a 3d
       0.014117322 0.11419266 -0.12879698 0.053224016
000220 96 b8 36 bd 3f f5 17 3e c2 6c 8d 3d 09 b4 fb 3d
       -0.04460963 0.14839648 0.069055095 0.12290198
000230 9b 22 f2 bc ec a0 bd bd ed 91 db bc 7e d5 b2 bc
       -0.029557517 -0.09259209 -0.026802981 -0.021830317
000240 e0 00 9f 3d 01 70 36 be d3 d0 9b 3d 45 99 3e bd
       0.07763839 -0.17816164 0.076081894 -0.046532888
000250 22 4d dc 3d 9b 2d 16 be 27 73 00 bd 1c d3 2a 3e
       0.107568994 -0.14665835 -0.031359818 0.16682094
000260 6b 77 c5 bd a4 0e 97 3d ad 3c 12 be e3 c8 46 3c
       -0.09641918 0.07375839 -0.14280958 0.012132856
000270 5f 29 11 3e 09 9a b8 3d 84 50 3f bd 9f 81 1c be
       0.14175938 0.09013755 -0.046707645 -0.15283822
000280 2e 3c b8 bd 2e ac c5 3d 23 68 7f bc 3c 53 6c bd
       -0.08995853 0.09651981 -0.015588793 -0.057696566
000290 05 f9 f4 bd 3d fe c9 bd e6 73 a3 bc 95 5f 5b bd
       -0.11961559 -0.09862945 -0.019952726 -0.05355795
0002a0 30 43 51 bd 8c 9d 0d 3d 5a f5 9a bc ad a0 99 bc
       -0.051089466 0.034574077 -0.01891582 -0.018753374
0002b0 1c ab ff 3c bf 82 ed 3d bb c6 c6 3d d2 59 4d 3d
       0.031209521 0.115972035 0.097058736 0.050134487
0002c0 f2 0d be bd a5 a0 7e 3d 96 43 99 bd 6b e4 89 bd
       -0.092800036 0.06216492 -0.07483594 -0.067330204
0002d0 e3 09 df bc 75 ac 4b 3e 70 83 c3 3d 0e 75 05 be
       -0.027226394 0.19890006 0.09546554 -0.13032934
0002e0 2b cf 87 3d 89 1b 19 bd d3 5e 0d 3e 51 3b 9c 3d
       0.06631311 -0.037379775 0.13805704 0.07628501
0002f0 8d e6 c8 bc 65 4b 69 bd 2b 5f f6 bd 95 17 e2 bd
       -0.024523998 -0.056956667 -0.120298706 -0.11039654
000300 bf 89 b4 3d 4f e9 e7 3d 80 cb 05 be f5 05 92 bb
       0.088153355 0.11323797 -0.1306591 -0.0044562765
000310 96 6d 9a bb 40 03 f7 bd f8 db 05 be ad b0 fc bd
       -0.0047127707 -0.12061167 -0.13072193 -0.12338386
000320 fe 34 e9 bd 7e f6 0d bd 8a fe fe bb c2 cd 7c bd
       -0.113870606 -0.0346589 -0.0077818083 -0.061719663
000330 c0 c5 88 3c 06 b3 b7 3b 4f ae b0 bd 96 12 c5 bd
       0.016695857 0.005606058 -0.08626997 -0.096226856
000340 81 be 8f bd c7 ff 96 bc 3d f8 ef 3c 5c d1 39 be
       -0.070187576 -0.018432511 0.029293174 -0.1814627
000350 a9 28 d7 3d 23 34 03 3e 82 bc ce 3c 49 89 56 bd
       0.10505802 0.12812857 0.025236372 -0.05237702
000360 e9 46 0f 3d 20 0c f5 3d 0e bc ef bd ad 3f ed 3c
       0.034979735 0.11965203 -0.117057905 0.028961027
000370 8b 6e 14 3e 59 9b 8b bd 76 b8 07 3e 31 b1 a1 3d
       0.14495294 -0.068167396 0.1325396 0.07895125
000380 6f 1a d2 bd eb a2 ad bd 7f 27 89 3d 23 8f ac 3d
       -0.10258948 -0.0847834 0.066969864 0.08425739
000390 d5 08 07 3d b5 99 88 bd b6 21 fd bd 8d 2a fb 3d
       0.032967407 -0.06669942 -0.123599455 0.12263975
0003a0 3a c1 b5 bd b6 a5 11 3d 19 c0 67 3c a4 86 8c 3d
       -0.08874746 0.035558425 0.014144921 0.06861618
0003b0 92 61 da 3d 67 b0 af 3d 13 7c 78 3d c1 c8 ae bd
       0.10663141 0.08578568 0.0606652 -0.085343845
0003c0 54 2e 17 be 1a cc 9a bd ae ea d0 3d bc 06 a6 3d
       -0.14763767 -0.075584605 0.102010116 0.08106753
0003d0 2c c2 80 3d bf 58 04 3e 44 c8 85 3c 35 63 1c be
       0.06287035 0.12924479 0.016330846 -0.1527222
0003e0 b3 14 c6 bd 1d 95 ef 3d f3 2a 14 3e 2b 90 9b 3d
       -0.09671917 0.11698363 0.14469509 0.07595857
0003f0 d9 34 8d 3d a2 51 29 3c 21 b9 f4 3d 97 48 57 bd
       0.068948455 0.010334404 0.11949373 -0.05255946

bias f4 [48]
000000 58 de af bd 17 78 27 bd 8e 62 0e bd 50 86 12 3b
       -0.085873306 -0.04088601 -0.034761958 0.0022357889
000010 b0 13 d2 bd 09 0f 0c bd bc 83 17 bd d1 54 75 bd
       -0.10257661 -0.034194026 -0.036990866 -0.05989534
000020 3b 49 44 3e 33 e8 43 bd 1a 5d e1 3d fc d4 f8 3c
       0.1916856 -0.047828864 0.11004086 0.030374996
000030 50 94 ae 3d 53 0e 65 bd d0 e8 8d 3d cd c3 b0 3d
       0.08524382 -0.055921864 0.06929171 0.08631096
000040 c4 3c ec bc 1a fb 02 3e 6a ca db bd 5a b4 36 bc
       -0.028837569 0.127911 -0.10731967 -0.011151398
000050 ee af 2c 3e b4 50 be bd 05 66 a4 3d 85 63 93 3d
       0.16863987 -0.09292737 0.08027271 0.07196716
000060 c6 d3 a8 bd a4 a6 dd bd 1a b6 1c 3d b1 08 81 bd
       -0.082435176 -0.108228 0.038259603 -0.06300486
000070 9c b3 c6 3d ef c6 cd 3d a9 11 79 3d 33 09 e1 bd
       0.097022265 0.10047709 0.060807858 -0.10988083
000080 9c e2 36 3d fe 43 4b 3d ce 14 ab 3d c4 d4 fc b7
       0.044649705 0.04962539 0.083535776 -3.0139818e-05
000090 49 ee 10 be d2 31 98 3c ef af 3f 3d 41 76 61 bd
       -0.14153399 0.018578444 0.046798643 -0.055044416
0000a0 79 74 10 3e 4b 30 d3 bd 13 42 04 be 12 6f d8 bd
       0.14106931 -0.103119455 -0.1291583 -0.1056806
0000b0 17 32 d9 bd 1d 76 09 be 45 ea 55 3d 05 3b f5 bc
       -0.10605257 -0.13423963 0.05222537 -0.02993537

weight f4 [48, 48]
000000 db d6 b2 bd fc 4a 6b 3c 97 fa 8e bd 9e 28 e4 3d
       -0.08732387 0.014361139 -0.0698139 0.111405596
000010 d7 69 74 bd 3c 24 25 3d e5 d2 67 3d 13 e8 e6 3d
       -0.05967125 0.04031776 0.05659761 0.112747334
000020 11 d4 31 be 37 e7 b2 bd f2 d6 f8 3d 70 88 03 be
       -0.17366053 -0.08735507 0.121503726 -0.12845016
000030 5a b7 04 3e c0 c7 57 3d ae de b6 3b 5e 41 31 bd
       0.12960568 0.05268073 0.0055807447 -0.04327523
000040 75 d5 b4 bd cb 68 25 bc 38 76 44 bd fa 12 e2 3d
       -0.08829776 -0.010095785 -0.047964305 0.11038776
000050 78 db 70 3d a1 d1 c3 3d b5 ac 91 3d 96 8f c9 3d
       0.05880305 0.09561468 0.071130194 0.0984184
000060 af 66 52 3d 6b 3a e6 3c db ff 77 3d 70 3a b3 3d
       0.051367458 0.028104028 0.060546737 0.087513804
000070 d9 a7 09 3d 4d c3 a3 bb e1 ca 4c bc 72 95 6e bd
       0.033607338 -0.004997647 -0.012499542 -0.05824799
000080 82 dd e4 3c 11 3d b7 3c 5f 74 0e 3e 96 1f 8c 3d
       0.027937654 0.022367986 0.1391158 0.06841962
000090 e4 95 9b 3d 4e 47 6b 3b 2a 6d 8d 3d b9 6e 68 3d
       0.07596949 0.0035900655 0.06905587 0.05674622
0000a0 30 f8 32 be 78 72 79 bd fc 5a 30 bd 94 90 c3 3d
       -0.17477489 -0.06090018 -0.04305552 0.095490605
0000b0 02 25 12 be c3 82 7a 3c c6 13 61 bd 76 7c 03 bd
       -0.1427193 0.015289965 -0.054950498 -0.032101117
0000c0 05 46 8f 3d 1a 39 0b be 61 7a 4d bd ac 75 33 be
       0.06995777 -0.13596001 -0.050165538 -0.17525357
0000d0 d2 5c 17 be 11 7f 56 3d fa 09 1f be c0 44 f2 3c
       -0.14781502 0.052367274 -0.1553115 0.029573798
0000e0 2c cf c2 3d f0 27 cd 3d 35 45 99 bd b6 05 30 bc
       0.09512171 0.10017383 -0.07483903 -0.010743549
0000f0 f4 e5 94 bc fe 9c cd bd f6 0a 2e 3d 81 c7 f0 3d
       -0.018176056 -0.100397095 0.042490922 0.11756802
000100 ef 29 88 bd 9d 6e 43 bd 92 a5 2d bc af 9b 78 3d
       -0.06648623 -0.04771291 -0.010598557 0.060695346
000110 bd 54 e6 3d cb 47 88 bc b6 2e c4 3c a0 ca cc 3d
       0.11246631 -0.016635796 0.023948055 0.09999585
000120 e9 2b 64 bd bd fb 67 3c f5 93 13 bd bd de 2e 3d
       -0.05570594 0.01415914 -0.036029775 0.04269289
000130 3d ed 11 3e ea 2c 01 3e 9a 59 16 3c 29 b7 11 3e
       0.14250655 0.1261479 0.009176636 0.14230026
000140 e2 ab 1e 3e b6 db 46 3d 61 98 8c bd 76 be b9 3d
       0.15495256 0.048549376 -0.068650015 0.09069531
000150 22 11 56 bd 0d bd df 3b cc 72 c6 bd 83 1a 2a bc
       -0.052262433 0.0068279565 -0.096898645 -0.010382297
000160 f2 5e d8 bd cd 00 d9 3c 60 c7 29 3c 1e 5c 30 3d
       -0.105649844 0.02648964 0.010362476 0.0430566
000170 47 fa f8 bd 89 c9 0b be c6 d4 a3 bd 09 58 86 bd
       -0.121571116 -0.13651098 -0.07999568 -0.0655976
000180 42 fd 35 3e 63 a9 d3 bd ee 95 0c be f3 51 e6 bd
       0.17772391 -0.10335042 -0.13729069 -0.11246099
000190 02 f0 db bd 1b e9 49 bd fa 2d 2f bd a1 e8 54 3e
       -0.10739137 -0.049294572 -0.042768456 0.20791866
0001a0 fb 0b 0b be d0 3d d7 bd af 7e 96 bd 5b c4 dd bd
       -0.13578789 -0.10509837 -0.07348382 -0.108284675
0001b0 29 9b 29 be 52 e2 c3 3c e0 03 84 3d 27 6a 1a be
       -0.16563095 0.023911629 0.064460516 -0.15079556
0001c0 c6 1a 84 bd e9 cd b9 3c 10 72 3c bd 7f 7b 2a 3d
       -0.06450419 0.022681193 -0.046007216 0.04162168
0001d0 f0 5d c2 bc 07 dc 0b be 18 10 6c bd 39 47 e1 3c
       -0.023726434 -0.13658153 -0.057632536 0.027499782
0001e0 b5 0a 8c bd 15 31 83 3d 85 e2 b2 3b 43 4a ac 3d
       -0.0683798 0.06405846 0.005459132 0.08412602
0001f0 cb ec 13 be 6c dc 1a 3d 64 6c b7 3d f7 54 06 3e
       -0.14445798 0.037807867 0.08956221 0.13118349
000200 0a e8 3c bd 17 8a 9e bc 31 13 0a 3e 8a eb 2c 3d
       -0.046119727 -0.019352956 0.13483883 0.042216815
000210 70 6d 23 3b 6b 92 c7 3c 20 da 0b be e5 77 c5 bb
       0.0024937056 0.02436181 -0.13657427 -0.0060262554
000220 f6 13 aa bd 1e 8c e4 3d aa 02 18 3d 0a e5 91 bc
       -0.083045885 0.11159538 0.037111916 -0.01780941
000230 fd 42 97 be 80 ba 59 bd 89 73 98 ba a5 f1 91 3d
       -0.29543296 -0.053156376 -0.0011631112 0.07126168
000240 b5 35 0f 3e 03 64 ae 3d 65 a2 e8 bd cc 46 94 3d
       0.13985331 0.085151695 -0.11359099 0.07240066
000250 7e 6b 0e be 6f b3 0b 3d 47 46 dd bd 7e 94 19 be
       -0.13908193 0.034106668 -0.1080442 -0.14998052
000260 3c 7e 08 bd 15 66 85 3d dd cf 5b 3d ad 91 08 3e
       -0.03332351 0.06513611 0.05366503 0.13336821
000270 16 ab 68 bc 29 6a 42 3d 6d d8 ef 3d 45 33 34 3d
       -0.014200946 0.047464523 0.11711202 0.043994207
000280 5c a7 a2 bd ad 0d ae bd 9f 74 db bd 41 8d ad bd
       -0.079420775 -0.08498702 -0.10715603 -0.08474208
000290 c1 6e 2f 3e 37 94 ca bd e4 c4 01 be b0 52 81 3d
       0.17132093 -0.09891551 -0.12672764 0.063145995
0002a0 7c ee bc 3d 66 af 25 3e 2c d7 1c be bb 2d 99 3d
       0.09225175 0.1618019 -0.15316457 0.074794255
0002b0 b2 c2 af 3d ab aa e7 3d 0b c9 12 be ca b7 1f bd
       0.08582057 0.11311849 -0.14334504 -0.038993634
0002c0 a6 a4 90 bd bd 94 8f bd c1 11 14 bd 48 5e 2e be
       -0.07062654 -0.070107915 -0.036149744 -0.17028153
0002d0 1e a1 03 be 08 27 09 3e 41 8f 70 3e 2b 2f 6f bd
       -0.1285443 0.13393795 0.23492147 -0.058394592
0002e0 2a cc 94 bd 0e 7b a5 3c 06 7d 02 be e8 87 00 be
       -0.07265504 0.020200279 -0.12743005 -0.12551844
0002f0 7c ec 87 3d 9a fb 13 3e 29 c4 d0 bd 54 80 1a 3e
       0.06636903 0.14451447 -0.101936646 0.15088016
000300 00 7c 95 bb 92 58 96 bd be 11 a3 3c 1f 6c ed bd
       -0.004561901 -0.07341112 0.019905921 -0.11592888
000310 84 18 04 3e c5 46 21 3c d8 84 af bd ff 47 09 3d
       0.12899977 0.009843533 -0.0857026 0.033515926
000320 b8 51 94 bd a8 2f 15 be 88 7f 8f bc 67 63 bb bd
       -0.07242149 -0.1456896 -0.017516866 -0.09149819
000330 cc c6 c2 3d 22 a7 43 bb c2 6e 57 3d 46 c9 f6 3d
       0.09510574 -0.0029854258 0.05259586 0.120501086
000340 96 88 66 3c cd 73 91 3d 20 0c 13 be 73 35 e0 bc
       0.014070651 0.07102165 -0.14360094 -0.027369237
000350 bd f2 48 be 76 d0 01 be 6b dc be bd 8f 09 e1 3d
       -0.19623847 -0.12677178 -0.09319385 0.10988151
000360 d7 0c ba 3c d8 7f c4 bd ac 17 83 3c 02 a4 c1 3d
       0.0227112 -0.09594697 0.016002499 0.0945511
000370 bf 5e c3 3c a1 40 1f bc 7a 10 3a 3c 04 24 0e 3e
       0.02384889 -0.009719999 0.011356467 0.13880926
000380 71 4e 09 3d 95 7d 19 3e 85 9b d7 3d 96 15 bf 3d
       0.033522073 0.14989312 0.1052771 0.09330289
000390 83 46 25 be b7 a4 4a 3d 14 e5 f9 bd 53 22 9b 3d
       -0.1614018 0.04947349 -0.12201896 0.07574906
0003a0 f1 7c d7 3d 84 f4 b6 3d 7a 82 91 bd a5 ab 15 3d
       0.105218776 0.089333564 -0.071049646 0.036540646
0003b0 aa 57 86 bd 67 0b 17 3e ee 89 18 be c0 c6 e5 3c
       -0.06559689 0.14750443 -0.14896366 0.028048873
0003c0 47 45 11 be bb db 17 3d 1d 74 70 bd 94 21 10 bd
       -0.14186583 0.037074786 -0.058704484 -0.035188273
0003d0 17 e9 28 bd f6 bc 9b bc 8f 27 e1 bd 9f 79 04 be
       -0.041237917 -0.019011002 -0.10993873 -0.1293702
0003e0 e2 cd 58 3e fa 3b ca bd 30 41 d1 3d ca cd a7 3d
       0.21172288 -0.09874721 0.10217512 0.08193548
0003f0 58 b4 d0 bc 40 dc 21 3d 59 3b a9 3c 21 1d 82 bd
       -0.02547662 0.039516687 0.020658182 -0.06353212

bias f4 [48]
000000 10 52 19 be a2 1e a7 bd 0f ea 03 bd f8 87 84 3b
       -0.1497271 -0.081601396 -0.032205638 0.004044529
000010 72 cb fa bd 2e 64 47 3d 15 16 f0 3d 2d bc 04 3d
       -0.12245835 0.048679523 0.11722962 0.03240602
000020 a6 fa b1 bd c2 3e 89 bd 8d 91 ef 3d ea 80 97 bd
       -0.086903855 -0.06701423 0.116976835 -0.07397635
000030 a5 2b 11 be 56 8c 58 bc a1 a7 0c be 4a c2 14 bd
       -0.14176805 -0.013217052 -0.1373582 -0.0363181
000040 c1 44 63 bc 65 aa ed 3c ed 57 ba 3d 26 15 91 3c
       -0.013871373 0.029011915 0.09098802 0.01771028
000050 94 cf b1 3d e3 f2 7f 3b 9a 1c 47 be fb d7 c8 3d
       0.086821705 0.0039054684 -0.19444504 0.0980682
000060 39 17 78 3b fb c0 c1 bc e7 ac 9a 3d 90 18 30 bd
       0.0037855639 -0.02365159 0.0755251 -0.042992175
000070 75 73 bd 3d 6f 13 e3 bd 75 79 e5 bc 23 f1 04 3e
       0.09250537 -0.11087691 -0.028012017 0.12982611
000080 2e 6e 79 3c 2e 3a 9c 3d f6 1f 99 bb 19 cd c2 3d
       0.015224023 0.076282844 -0.0046729995 0.095117755
000090 ee 4a a5 3d ee 46 d0 3d 82 70 3f 3d d4 24 ff bd
       0.08070932 0.10169779 0.046738155 -0.12458196
0000a0 91 19 b7 3c 74 d3 16 3d d7 2d 8b 3d 95 ad 09 be
       0.022351058 0.03682275 0.06795853 -0.13445123
0000b0 11 96 e5 3d 1f a7 55 3d 43 e8 58 bd 4f 46 58 3d
       0.112102635 0.052161332 -0.052955877 0.052801427

weight f4 [48, 48]
000000 5c 47 bb 3d a2 91 c8 bc 70 ae 37 be c4 9d 78 3e
       0.0914447 -0.024483506 -0.17937636 0.24278933
000010 f4 15 fe bd eb 9a b2 3d 10 5a 0e 3e 4d a3 ec bd
       -0.12406531 0.087209545 0.13901544 -0.11554585
000020 5a 5a ee 3d e0 80 49 3d 94 b6 26 be 72 c6 3b bd
       0.11638327 0.04919517 -0.16280586 -0.04584355
000030 af d8 10 be 81 aa 14 3d 3a f9 c6 3d 2b 38 06 3d
       -0.14145158 0.036295418 0.09715505 0.03276841
000040 49 c6 d8 3c 50 ba fc 3d 8b 60 18 3e fd 55 02 3e
       0.026461737 0.12340224 0.14880578 0.12728114
000050 35 72 30 be bb 96 ca bd 86 cf c7 3d 94 cd 76 3c
       -0.17231067 -0.09892031 0.09756379 0.015063662
000060 fe 19 29 be 48 45 38 3d 3d 1c d5 bd b9 44 d1 3d
       -0.16513821 0.044987947 -0.10405777 0.10218186
000070 59 8d 2e bd c4 74 a8 bd 42 08 13 bc 1b 36 f1 3d
       -0.04261527 -0.08225396 -0.008974137 0.11777898
000080 e0 d5 0a be 81 c8 3d be 2d 1d b9 bd fb ed 07 be
       -0.1355815 -0.18533517 -0.09038768 -0.13274376
000090 e7 16 2a 3d d0 e0 87 3d 0c f5 b5 3d 87 07 06 3e
       0.041525748 0.066346765 0.088846296 0.13088809
0000a0 30 df eb 3d 75 4e 65 3d 45 ab 11 be c2 59 b5 bd
       0.11517179 0.055983026 -0.1422549 -0.088550106
0000b0 92 87 f5 bd 55 67 62 bc a1 44 a1 bd c2 85 35 bd
       -0.119887486 -0.013818582 -0.07874418 -0.044317015
0000c0 03 71 10 3d ff a2 bb bd ec c5 48 3d fa fe 00 3e
       0.035264026 -0.091619484 0.049016878 0.12597266
0000d0 92 09 d4 3c b1 8a ff 3d 1d 5b da bd 84 f9 04 3e
       0.02588347 0.12477625 -0.1066191 0.12985808
0000e0 37 33 11 3e ff 44 22 bd f1 ef 29 3e 70 31 ab 3b
       0.14179693 -0.03961658 0.16595437 0.0052243993
0000f0 a8 ed b7 3d 1c df 36 3d 1a 7f 07 be ba 76 88 3d
       0.08980876 0.044646367 -0.13232079 0.0666327
000100 11 86 e7 3b e3 47 11 3d e5 17 08 be 61 37 a6 3d
       0.0070655425 0.035468947 -0.13290365 0.081160314
000110 36 eb fd bd e4 b1 ed bc 23 8c 1c be 2f 53 ec bc
       -0.123983786 -0.029015489 -0.15287833 -0.028848259
000120 b8 6e a8 bd e0 4c 43 3c b5 9b d7 bd a7 f2 96 3d
       -0.08224243 0.011920184 -0.10527746 0.07370501
000130 ed 78 c0 3d a2 33 19 3d 70 a3 e7 bc c7 14 4d 3e
       0.09398065 0.037402757 -0.028276175 0.20027457
000140 65 f0 17 be 00 cc 8d 3d 01 32 f2 3d c2 2a 8f bd
       -0.14837797 0.069236755 0.11825944 -0.06990577
000150 de eb cd 3d 98 98 0a 3e bd d0 78 bc 8a 31 f5 bd
       0.10054754 0.13534772 -0.015186486 -0.119723395
000160 b2 77 51 bd 1d da 10 bd 8f b4 16 3d a1 96 61 bd
       -0.05113954 -0.03536426 0.036793288 -0.05507529
000170 f3 dd 67 bd 82 ca c7 3d be d2 de bd 41 88 13 be
       -0.05660815 0.09755422 -0.1088004 -0.14407445
000180 2d 2d 5f be 88 3f 45 bd 4e 26 15 bd 4d 0a 1c 3d
       -0.21794577 -0.04815629 -0.036413483 0.03809576
000190 bb 21 d2 bd cc c9 62 3d ce 3c 64 3d fc 92 75 bc
       -0.1026034 0.05536823 0.05572205 -0.014988657
0001a0 62 68 6f 3d 8c 91 7e 3d f4 cf d4 bd 25 a1 33 bd
       0.058449157 0.062150523 -0.103912264 -0.04385485
0001b0 87 1d 50 be 5a e5 3c bd df 74 05 be 7b a0 2e 3d
       -0.20323764 -0.046117164 -0.13032864 0.042633515
0001c0 b2 ed 09 3d 25 61 01 3e 00 48 af 3d e1 ac 22 bd
       0.03367395 0.12634714 0.08558655 -0.03971565
0001d0 f7 19 ac bc bf 12 08 3d d2 a0 39 be 9c 61 5c bc
       -0.021008475 0.033221003 -0.18127754 -0.013451006
0001e0 5a c9 ec 3d cd d9 07 3e 04 1f a1 3c 7c 75 e8 3c
       0.11561842 0.13266678 0.01966811 0.028376333
0001f0 f6 cc dc 3d ef cb c3 3b 16 5f fd bd 7e 79 48 bd
       0.10781281 0.0059752385 -0.12371652 -0.04894399
000200 50 1c b9 3d a5 f7 2a be ff 38 d2 3d df f3 55 bd
       0.09038603 -0.16696031 0.102647774 -0.052234527
000210 76 35 a6 3c e9 fb 78 3c ea 9e 21 bb 78 5a 10 3d
       0.020289164 0.015196779 -0.002466137 0.035242528
000220 a4 40 21 3d e9 c6 1e bd 44 44 c4 3a 31 21 e8 3d
       0.039368287 -0.038763914 0.0014973958 0.11334456
000230 81 d3 9d bd b5 c9 8d 3d f8 36 79 bd 49 df 0d be
       -0.07706357 0.06923238 -0.060843438 -0.13854708
000240 e0 82 36 be e0 15 9f 3d 19 dc 4b 3a 79 9e 93 bd
       -0.17823362 0.07767844 0.00077766326 -0.07207961
000250 55 ef c1 3c a1 26 b2 3c 93 c7 6c 3d fa 87 c3 bd
       0.023673693 0.021746935 0.057807516 -0.0954742
000260 0f 0e ef 3d ec 13 02 3e 9b ce e3 3d 7c 5d 89 3d
       0.11672603 0.12702912 0.11123391 0.06707284
000270 b4 d8 b7 bd 30 66 31 bd dc 18 7d 3c 64 0d 8a bd
       -0.0897688 -0.043310344 0.0154478215 -0.06740835
000280 c0 69 91 3c e5 c1 32 3d aa 1c 22 bd e4 3d ec 3d
       0.01775062 0.043641943 -0.039578117 0.11535242
000290 45 1e 15 be 4c 50 d9 3d 39 c3 19 be a0 08 0d 3e
       -0.14562328 0.106110185 -0.15015878 0.13772821
0002a0 8b c3 f8 3d eb 77 e7 3d 9e ee 06 3e bd 72 0a 3e
       0.12146672 0.113021694 0.13176963 0.13520332
0002b0 f6 e7 15 bc 40 0e bd 3d 99 55 5c 3d 45 99 18 3d
       -0.009149542 0.092312336 0.05379257 0.037255544
0002c0 bd 8b e4 bd 66 ac b2 3d c4 c2 54 3d ef 02 74 3c
       -0.111594655 0.08724289 0.051943555 0.014893278
0002d0 06 7c 88 3c ef 1b 0f bd c3 04 4e ba 51 03 de 3d
       0.016660701 -0.03493875 -0.0007858986 0.10840476
0002e0 c4 26 f8 bd e8 7b 8a 3d 34 37 8a bd ea e6 06 bd
       -0.12116769 0.067619145 -0.067488104 -0.03293506
0002f0 fb 36 d4 3d a5 d1 32 bb ee cb fe bd c1 23 7c bd
       0.10362049 -0.0027285602 -0.1244124 -0.061557535
000300 35 c5 84 3d 65 0f 02 3d f8 af 4b 3d 39 7a 0d 3d
       0.06482927 0.031752963 0.049728364 0.03454039
000310 09 34 db bd ca d0 69 bd 9d bb fb 3d da bc ac bc
       -0.10703284 -0.057083882 0.12291644 -0.021086145
000320 a7 93 1b 3e 50 fd d5 3d de ff 65 3d 3f b3 11 be
       0.15193044 0.10448706 0.056152217 -0.14228533
000330 aa e4 ae bd 94 b3 96 3d 6d 49 cf 3d 61 68 28 3e
       -0.08539708 0.073584706 0.10121427 0.16446067
000340 27 db 38 3d 76 1d 0d be 8e 6a 68 bb 54 21 1d bd
       0.045130875 -0.1378077 -0.0035463902 -0.038361862
000350 5e 50 d7 3b 94 95 06 be 87 24 6f be 23 96 a1 bc
       0.00657086 -0.13142997 -0.23353778 -0.019724911
000360 48 fc 8d 3c df 48 13 3e 59 4a 98 bd 93 cf 1e be
       0.017332211 0.14383267 -0.07436056 -0.15508871
000370 66 06 f0 3d fb 3b c4 3d ac cf 68 bd 5b 51 33 3e
       0.117199704 0.09581753 -0.056838676 0.17511503
000380 54 96 ab bc 4c 1f 15 bd f9 38 f7 3d d4 a8 99 3d
       -0.020945705 -0.0364068 0.120714135 0.075029045
000390 9b 4a 9f 3d 5e eb d5 3d b4 8c 91 bd b4 54 a4 3d
       0.07777902 0.10445283 -0.07106915 0.08023968
0003a0 f9 58 a8 bd ef 3d a2 bd 82 3f 2a bd 6f ee 60 bd
       -0.08220095 -0.07921969 -0.041564472 -0.054914888
0003b0 4e 14 db bd 5b 05 e7 bc 3a 47 8c 3d 2c 0c 00 be
       -0.10697232 -0.028200796 0.06849523 -0.12504643
0003c0 4d 67 2b bc 8e 75 9d bb a2 6a 87 3d 39 33 03 3e
       -0.010461641 -0.0048052734 0.066121355 0.12812509
0003d0 7b 0e 01 3e 0d c3 2e 3d 4a 5a bf bd 69 52 88 3d
       0.1260318 0.042666484 -0.09343393 0.066563435
0003e0 80 00 0a 3c cd 35 0d bd 63 8a 24 bd 54 e8 c7 bd
       0.008422971 -0.034475137 -0.04017104 -0.0976111
0003f0 e8 64 3e bb 5f b0 d2 bd 78 e2 08 be e5 b6 79 3d
       -0.0029051844 -0.10287546 -0.13367641 0.060965437

bias f4 [48]
000000 18 27 9b bd 95 0a 63 bd 84 99 ce bd 65 aa 07 be
       -0.07575816 -0.055430014 -0.100878745 -0.13248594
000010 73 51 db bd 12 dc ae bb c7 0f ff bc c0 a0 ce bc
       -0.107088946 -0.005336293 -0.031135453 -0.025223136
000020 06 6d 8e bd 65 1f 95 bd f9 69 0a 3d 01 12 dc bd
       -0.06954388 -0.07281379 0.03379247 -0.107456215
000030 04 50 ae bd 31 ba 56 3d e6 1f 82 3d 20 23 a4 3d
       -0.085113555 0.05242366 0.063537404 0.08014512
000040 d3 19 3e be c2 01 ed bd a7 fa d2 3d 15 af 9a 3d
       -0.18564539 -0.11572601 0.103017144 0.075529255
000050 88 b0 29 3b 5d 94 f1 3d 8f 80 4e bd e4 fe 0f 3e
       0.0025892574 0.11795876 -0.05041557 0.14062077
000060 ca 6c 12 3e 99 b2 d1 bd 9c 59 4f 3d 23 1b fe 3d
       0.14299312 -0.10239143 0.050622568 0.1240752
000070 86 e1 02 be 29 1c f5 3d cc 4d 9d 3d c6 07 d3 3b
       -0.12781343 0.11968262 0.07680854 0.0064401357
000080 2c f5 99 3d ba 60 06 3e 9f 1d 35 bd 7d 60 1b be
       0.07517466 0.13122836 -0.044217702 -0.15173526
000090 32 f4 de bd e5 5c ef 3d ba 2e e5 bd 23 3a c2 bd
       -0.1088642 0.1168764 -0.11190553 -0.09483745
0000a0 8b b5 d6 bd e3 dc c7 bc b8 4b 94 bc 54 e1 02 3e
       -0.10483845 -0.02439732 -0.018102512 0.12781268
0000b0 87 f7 01 3e ce 8b a5 3d 26 21 df bd b0 17 07 be
       0.1269208 0.08083306 -0.108949944 -0.1319263

weight f4 [4, 48]
000000 ba 89 ea bd 9c 4f e7 bd 89 80 07 be d0 bb 07 be
       -0.114520505 -0.11294481 -0.13232626 -0.13255239
000010 9f 92 ea bd 8d 57 54 3c 4d 89 f5 3d 3d 16 46 3d
       -0.11453747 0.012960327 0.11989079 0.04836105
000020 04 33 b5 bd 91 89 ed 3d ad 2d 9d bd 04 5a ed 3d
       -0.08847621 0.11598504 -0.076747276 0.11589435
000030 fe 04 15 3d bb f1 ed bc f4 3e 04 bd ab 9f 00 3d
       0.036381714 -0.02904593 -0.0322866 0.03140227
000040 e7 fa bc 3d 11 28 14 3e 55 52 07 3e 5e 07 cf 3d
       0.09227543 0.14468409 0.13215001 0.10108827
000050 46 63 66 bd d6 ed 02 3e dd 08 c7 bd 23 69 09 be
       -0.05624702 0.1278604 -0.097184874 -0.13419013
000060 47 ca 80 bd 60 91 fa 3c 3f 52 ee 3d 6c 1e c2 bd
       -0.06288581 0.030586898 0.11636781 -0.09478459
000070 17 fe d7 3d 4b e0 ca 3c f4 e8 85 3d a8 2f 10 3d
       0.10546511 0.024765154 0.06538573 0.0352017
000080 3c bb 1b 3d 2c 1f 07 3d 23 39 07 be 30 4f c3 3d
       0.038020357 0.032988712 -0.1320539 0.09536588
000090 d4 e8 db ba 61 76 c1 bd 62 a1 27 3d 2e a7 d7 bd
       -0.0016777762 -0.09446407 0.04092539 -0.10529934
0000a0 d0 91 7a 3d 3f 4e 44 bc a9 87 96 bd 93 dd d4 3c
       0.061174214 -0.011981546 -0.07350094 0.025984561
0000b0 e6 dc 28 3b bb a6 c2 3d c9 b1 51 3d e7 20 e5 bc
       0.0025766431 0.095044576 0.05119494 -0.02796979
0000c0 31 af 92 b9 37 86 81 bd 51 01 c2 bd 28 e8 ad bd
       -0.00027977818 -0.063244276 -0.09472907 -0.08491546
0000d0 b4 7f 04 bd 12 71 90 3d 1f 6c 1b 3d fe e5 9e 3c
       -0.03234835 0.070528165 0.03794491 0.019396778
0000e0 b1 54 14 3e e3 14 59 bd 56 a6 66 bd 3c cd 1c 3d
       0.14485432 -0.052998435 -0.056310974 0.038281664
0000f0 2d 01 6e 3c 24 b2 af bd e5 3b 64 3c cc e4 8e 3d
       0.0145266475 -0.085788995 0.013930296 0.06977233
000100 53 3f d7 bc f7 1e 1b be 7e 0a e6 3d a0 23 bc 3d
       -0.026275313 -0.15148531 0.1123247 0.091864824
000110 a0 97 5b bc 19 56 97 bd 8e b2 fb bc c2 97 14 3e
       -0.013402849 -0.07389469 -0.03072479 0.14511016
000120 89 88 c1 bd c7 cd 94 bd 5b a5 52 bd 05 60 06 be
       -0.0944987 -0.072658114 -0.051427227 -0.13122566
000130 bb d5 fc 3c c0 5d 34 3e 82 71 d1 bd 73 ba e2 bd
       0.030863633 0.17613888 -0.10226728 -0.110707186
000140 52 df d3 3d 2e 2c 28 be 25 f6 33 3c e8 e4 05 be
       0.10345329 -0.16423103 0.010983978 -0.13075602
000150 a3 a9 c2 bd c8 e5 35 3d f5 c3 2c 3e 36 90 1e 3e
       -0.09505012 0.04440859 0.16871627 0.154847
000160 ef 83 c9 bd 00 d0 6d 3d 44 9e 07 be e2 d4 c3 bd
       -0.098396175 0.058059692 -0.13243967 -0.095620885
000170 a0 bb 9c bd fe 46 94 3c 40 41 7f bd ed d3 09 be
       -0.07652974 0.018100258 -0.062318087 -0.1345975
000180 50 04 82 3d 7b 65 61 3d b7 b8 a6 bd 46 a5 33 bc
       0.06348479 0.05502842 -0.081407 -0.010964697
000190 75 c4 06 3e d8 41 9c bc d5 1e d4 3d ca 25 9e 3b
       0.1316088 -0.019074365 0.10357443 0.004826282
0001a0 f8 5a dd bd 8f 05 1b be a6 71 45 3b e5 2f 2f bd
       -0.108083665 -0.15138839 0.0030127554 -0.042770285
0001b0 d0 61 d6 3d ea c8 57 3e e5 6e 2e be 39 1d b6 3d
       0.10467875 0.21072736 -0.1703449 0.088922925
0001c0 78 f7 17 be c2 c2 a6 3d df 72 65 3d 94 27 e3 3d
       -0.14840496 0.08142616 0.056017753 0.11091533
0001d0 df 43 cf 3c 16 f8 29 3d f1 1c 5a 3c 6b eb 4f be
       0.025300918 0.04149636 0.013312564 -0.20304649
0001e0 a1 3d f7 bb da 47 67 be 3c 2c 05 bd 64 4f c2 bd
       -0.0075451885 -0.22586003 -0.03251289 -0.09487799
0001f0 23 8b 2e 3e b6 c3 c8 bd 4e f0 ab bd a6 d7 0a 3d
       0.17045264 -0.09802954 -0.08395444 0.033897065
000200 e3 ae 8b 3d ad 0a 96 bd f2 aa c2 3d 0c 01 de 3c
       0.06820466 -0.07326255 0.095052615 0.027100109
000210 0d 0e c6 bd 47 5f 95 bd 45 18 17 3e 8f 8b de 3d
       -0.09670649 -0.07293563 0.14755352 0.108664624
000220 d1 d2 fd bd cd 7a 89 3d 4e 46 4a bd c5 de ad bd
       -0.12393726 0.067128755 -0.049383454 -0.084897555
000230 8c 61 a2 3d a3 26 10 3e 1a 60 3d be d7 b0 ae 3d
       0.07928762 0.14077239 -0.18493691 0.08529823
000240 00 7b af 3d 47 45 5e 3d 91 5c d6 bd ca bb f9 bd
       0.08568382 0.054265287 -0.104668744 -0.12194021
000250 5a 50 26 bd 4c 53 43 bc 3e 19 98 3d 39 0e 0a be
       -0.040603973 -0.011921715 0.074266896 -0.13481988
000260 96 48 a6 bc 48 76 2f 3d 38 54 7d 3d 19 d4 d9 3d
       -0.020298284 0.04283741 0.061847895 0.106361575
000270 25 b2 ed 3d 80 c4 52 bd b8 cd 21 3e 4a 98 a5 3d
       0.11606244 -0.05145693 0.15801132 0.080856875
000280 d3 38 bb bd 47 01 ba 3d 3f 6a 7f bd d6 cc 48 bd
       -0.09141698 0.09082275 -0.062357184 -0.04902347
000290 80 f3 e0 bd 8c 78 45 3d 75 1e c2 bc d9 f9 16 3e
       -0.10983944 0.048210666 -0.023696164 0.14743747
0002a0 f9 9b 22 bd 9c fc be 3d 45 55 73 3d 3a cb 95 3d
       -0.03969953 0.09325525 0.05940749 0.07314153
0002b0 a5 1b c7 3d 63 8f 82 3d d1 ab 95 3d 97 b2 a7 bd
       0.0972207 0.06375005 0.07308162 -0.0818836
0002c0 dd 64 4e 3d e6 64 74 3b 35 4b ca 3d 29 bf d4 bd
       0.05038916 0.0037291585 0.09877626 -0.103880234
0002d0 b9 ce ea bc cd 87 95 bd c3 7a 97 3d ec a5 80 bd
       -0.028663026 -0.073012926 0.07396462 -0.06281647
0002e0 ce 7e 16 be 52 90 96 bd ee 61 99 3c af 4f 64 bc
       -0.1469681 -0.07351746 0.018723454 -0.013935014
0002f0 ca 20 3c 3e 9f 56 03 be 7f 9c 0f be 8e 96 b6 bd
       0.18371883 -0.12826012 -0.14024542 -0.08915435

bias f4 [4]
000000 ac 26 4e 3d 9a d5 b2 bd 83 c4 ea 3d 82 5a ca bd
       0.05032985 -0.087321475 0.11463263 -0.09880544
