mPINNs-R1/mPINNs_result/result5/model.pth (torch, 35100 bytes, 10 tensors)

weight f4 [48, 2]
00000000: ca37 57bd 95a3 dabe 22b0 cbbe 4382 423e
00000010: 878e a0bb 0560 39be 8f72 763d 9ab1 f5be
00000020: 08b8 0b3f f78d 27bf 2e73 ec3e d5e4 52bf
00000030: 91da 2a3f 39e8 c93e 367f 293f c166 6c3e
00000040: 0656 01bf 43f5 9dbe bedb 0abf 7846 f93d
00000050: 987f 0ebf 79d9 9cbc 0bd1 0d3f 057f 203e
00000060: 075c 46be e904 1bbf 1a2c dabe 8b08 22bf
00000070: 36f5 7b3e 4b75 42bf 3f5b 90be 505a a3be
00000080: f367 b5be e716 f43e 2046 023f 42c3 b83e
00000090: cc6c 3fbf 339e 3cbd 3d61 113f a694 243e
000000a0: 154d 043d a4d4 c03c 1515 b8be 9550 373f
000000b0: 2195 a53e 4acd d7bd 7ab9 473e 8000 21bf
000000c0: 529f d53e 010f 573e eab3 e83e b9ac 89be
000000d0: 93b5 d5bd 12de 4dbf 6ef2 283f 301d 72be
000000e0: 6070 113e e2cd d23e 6a91 d53e 964d f33e
000000f0: 443a e43e f7bc b73c 0da3 2dbf 7164 96be
00000100: d98e 01bf 53f9 42be db3c dfbe e8b6 f1bd
00000110: e8e8 273f b7db a9bd 55ca 32bf 54e6 dc3e
00000120: f947 2dbf 1aa5 de3e de4b bf3d 8d45 bbbc
00000130: 49b7 1ebf 024c f7bd 6202 34bf 9acc cbbe
00000140: ae9c 02bf 8874 d9be 958d 013f 3180 29bf
00000150: 965a 2c3f daae f9bd 1f7e c73e f7b5 c43c
00000160: bd21 0b3f 9690 92be e213 a2be 0ae4 063f
00000170: 4085 80bc cedc 16be 6613 50be 03b3 f0be
-0.05254344 -0.42702928 -0.39782816 0.18995003 -0.004899803 -0.18103035 0.060167845 -0.47987062
0.54577684 -0.65450996 0.46181625 -0.8238042 0.66739756 0.39434984 0.66209733 0.23086073
-0.50521886 -0.30851182 -0.5424155 0.12171644 -0.5566344 -0.019146668 0.553971 0.15673454
-0.19371043 -0.6055437 -0.42611772 -0.63294286 0.2460526 -0.75960225 -0.28194615 -0.3190484
-0.3543087 0.47673723 0.5088825 0.3608647 -0.74775386 -0.046049308 0.56789 0.1607233
0.032300074 0.023538895 -0.35953584 0.71607333 0.3234034 -0.10537203 0.19504347 -0.6289139
0.41723114 0.21001817 0.45449764 -0.2688959 -0.10435023 -0.8041698 0.6599492 -0.23643947
0.14203024 0.411727 0.41712505 0.4752013 0.44575703 0.022428973 -0.6782692 -0.29373506
-0.50608593 -0.19040422 -0.43601117 -0.11802465 0.6558976 -0.082938604 -0.69839984 0.43144476
-0.67687947 0.43485337 0.093406424 -0.022860313 -0.6199842 -0.12075044 -0.70316136 -0.39804536
-0.51020324 -0.4247172 0.5060666 -0.6621123 0.67325723 -0.121915534 0.3896341 0.024012549
0.54348356 -0.28625935 -0.31655794 0.5269171 -0.015688539 -0.14732668 -0.203199 -0.47011575

bias f4 [48]
00000000: 9b73 e8bd 5b94 0bbd eaaa f1be 24e3 343f
00000010: 546e 353f 028c fbbb 2063 6dbd f5c6 383e
00000020: 5a25 c43e a206 7bbc 0340 4d3e 1253 32bf
00000030: bcfb a1be 5210 7f3e 0525 ecbe 236d 1a3f
00000040: a996 893e 7d08 e3be 0031 223f 199c 2bbd
00000050: f343 093f f339 473e 96b3 85be a60c 213f
00000060: 2ae1 a03e dbae c13e 8222 1abf 5238 0a3f
00000070: 7e61 b7be 10d6 d9bd dc12 573e 2a21 243f
00000080: 7d04 99be d82c f6be c781 4abe ca7c 6ebe
00000090: c063 2abe f236 22bf 0299 063f 6d88 1d3f
000000a0: 5cd4 c1be 4747 043e 3e1e f3be a92b 21bf
000000b0: 744b 293e f37c ccbc b187 043f af13 a53e
-0.11350175 -0.03407703 -0.4720071 0.7065909 0.7087147 -0.0076766023 -0.05795586 0.18044646
0.38309747 -0.015321406 0.2004395 -0.69658005 -0.3163737 0.2490857 -0.46121994 0.6032278
0.26872757 -0.44342414 0.6335602 -0.041896913 0.5361931 0.194557 -0.26113576 0.62909925
0.31421787 0.37828717 -0.60208905 0.5399219 -0.35816568 -0.10636532 0.21003288 0.64113104
-0.29886237 -0.48081088 -0.19776069 -0.23289791 -0.16639614 -0.6336509 0.5257722 0.61536294
-0.3785733 0.12917815 -0.4748401 -0.62957245 0.1653269 -0.024961924 0.5176955 0.3224158

weight f4 [48, 48]
00000000: cc92 213d 6425 e33d ff12 123e 6443 a3bd
00000010: 7d04 f5bc 15b0 30be 0b58 67bd e9ef a3bb
00000020: 88e5 bcba 781e dcbd f121 f2bd a97c 87bd
00000030: 673d da3d 2721 04be be2c 903c e03b f7bd
00000040: ddf9 463d a034 1f3e b2a5 4a3d 0b3a b4bc
00000050: a6f7 07be d7cb 1c3b 8abd 9fbd ebe1 6c3d
00000060: bd59 0ebe 968e 113a 72c1 9dbd 5bf3 fbbd
00000070: da77 82bd a94e d0bc 707d 9cbd eda1 b3bd
00000080: 065a ffbd a2d9 11bd bb46 4b3d 5ba1 8fbd
00000090: 8605 c6bd c685 fbbd 79a2 ed3d c659 13be
000000a0: 32c9 073d cf88 05be 36ef 7bbc 0d93 bcbd
000000b0: 025d 9d3d 18df 643d 6236 dd3d 9a49 5b3d
000000c0: 4c4a 833d 432b 0ebe 3373 f8bd 8144 8ebc
000000d0: 25aa 413d 5321 4c3d fe62 c73b e47d f03d
000000e0: e58e f3bd 15d3 81bd 7371 59be 0f1e 203e
000000f0: bb16 4d3d b606 8abd 24bc 103d bcd6 f3bd
00000100: a447 1ebe 0bc3 cdbd 6d24 553d ee0f d33b
00000110: 959e aebd aa31 2abd 85de a1bc 2cca 413d
00000120: 3270 e6bd 8131 a53d ecee 793d 153f 29bd
00000130: 2cef 173e 8229 e5bb e1c2 93bd 6091 323c
00000140: 9758 663d 9e14 e2bd 28da 633d 6936 09be
00000150: 0c48 7a3d 9c79 1a3d 426a a53c 367b 1f3d
00000160: 9748 f7bd 862f 65bd bb25 863d 4d98 9c3d
00000170: 26ca 003e 5c95 16be 1c05 1bbe 2dda 96bd
00000180: 816a b3bd 41f9 17be 83c9 70bd 354d 5b3d
00000190: 2aad 253d 7f78 883d e8c5 03bb ae4a 3abd
000001a0: 8cd6 93bd 241c 1dbe 5a27 1a3d 9604 1e3e
000001b0: 4975 d6bd 4078 7d3d b6cd e9bb 64ef 1ebe
000001c0: 5a58 c03d 7e13 2d3d 0e4a 07be 7583 8f3d
000001d0: b759 b1bd 8f36 933c 101a 223e 69cb b63b
000001e0: 0570 b9bd fff3 ff3d f272 0c3e e83b 413d
000001f0: e030 063e 3c8c 573d b111 483d 6a20 01be
00000200: f1b4 7a3d 6c4d 113d 0371 a43d de4e f5bc
00000210: 2036 903d fdac b13d cd46 8e3d 99bd d9bc
00000220: 6188 713c f311 183e b5ef 9f3d 03a5 f03d
00000230: e398 353e 6f6f 473b 82dd 91bc 037f 443d
00000240: 3355 f33d ad9a bf3c a6d1 1b3e b8ec 923d
00000250: 88fa 143e 6af3 08bd 915a 6c3d f954 eabd
00000260: e85b d4bd ecf2 76bd 34a1 b8bd 1265 853d
00000270: 3a43 3f3d d411 ce3d aedf 17be 2c3a fa3d
00000280: e71e bebd d93d d53d 05be 1c3e 7b3a 69bc
00000290: cce5 ae3c faf4 cd3d f213 743d 8506 d1bd
000002a0: 9e81 ef3d f1f5 243e 4100 03be 2286 753d
000002b0: f7a3 1d3e e12b e6bd 9cc0 e13d 4463 76bc
000002c0: a34d 12be 38c4 fa3d 4fad 283d f2d8 fcbd
000002d0: 7483 9fbd 3b75 e93d d686 9d3d 67ac 1b3e
000002e0: c6c1 7abd 6d9b e2bd e45e 063c e34d 783d
000002f0: 2eb3 1a3d c4f2 d03d 3a05 a4bd 0cb8 c03c
00000300: 4aba fd3d 183d 47be 7903 1b3d 8a85 dfbd
00000310: b7e5 0ebd 4423 193e a536 1ebe 19d1 fd3c
00000320: 57ca 933d f499 29be 68fe 903d 009c 073e
00000330: d3ae 623d 6f5d 003e ccad 0b3e 3f41 33bd
00000340: 6ed3 1fbe b2fe f43d d032 bd3d 2498 bb3d
00000350: 1629 dd3d 1ed4 553d d69e 0dbe aef4 2a3d
00000360: 837d b73d 7ad2 16bd 9df0 213d 7817 b43d
00000370: bd3c dfbc db8a bebd bbb6 593d 9aff f03d
00000380: 5017 43bc 293e 88bc 677b bfbd c3a6 28be
00000390: d78c d5bd 2492 873b a83a b3bc a8ce e53d
000003a0: e92a f83d 4105 ec3d 821f 0e3d 0d0d c23d
000003b0: e721 133e e773 3cbe 39c8 8dbd a34e 2c3e
000003c0: aa16 dabd e454 88bb 5880 14bd 31fe 6c3d
000003d0: 98c7 d53d 7892 803c 7a56 043e 0111 1a3e
000003e0: db8f 4f3d 98ab ea3d 35ee 1c3e be9f ff3d
000003f0: 431a 4e3d ae99 cf3c c2e0 053c 9d78 fc3c
0.039446637 0.11091116 0.14265059 -0.07971838 -0.029909367 -0.1725467 -0.05648045 -0.0050029648
-0.0014411667 -0.10747999 -0.1182288 -0.06615574 0.10656243 -0.12903272 0.01759946 -0.12071967
0.048578132 0.15547419 0.049474426 -0.022000333 -0.13278064 0.002392521 -0.077998236 0.05783264
-0.1390142 0.0005552558 -0.077029124 -0.12302276 -0.06370516 -0.025428133 -0.07641113 -0.08771119
-0.124683425 -0.03560794 0.049628 -0.07013198 -0.09669022 -0.12281375 0.11603255 -0.14389715
0.03315086 -0.1304047 -0.015376857 -0.09207735 0.076837555 0.05587682 0.10801388 0.05353699
0.064106554 -0.1388369 -0.121313475 -0.01736665 0.047281403 0.049836468 0.006084799 0.11742762
-0.11892489 -0.06339089 -0.21234684 0.15636466 0.050070506 -0.06739561 0.035335675 -0.11906192
-0.15457016 -0.10046967 0.05203669 0.006441108 -0.08526341 -0.04155127 -0.019759426 0.047311947
-0.11251868 0.08066083 0.06101887 -0.041319925 0.1483733 -0.0069934735 -0.072149046 0.010898918
0.05623683 -0.11039089 0.055627972 -0.13399662 0.061103866 0.037713632 0.02019227 0.038935862
-0.12074392 -0.055953525 0.06550165 0.076462366 0.12577114 -0.14705414 -0.15138668 -0.073658325
-0.087605484 -0.14841177 -0.058785927 0.053540427 0.040448345 0.06663608 -0.0020106975 -0.045481376
-0.07218656 -0.15342766 0.037635185 0.15431437 -0.10471589 0.061882257 -0.0071351184 -0.15521008
0.09391852 0.042254917 -0.13211843 0.07007495 -0.0865969 0.017970352 0.15830255 0.0055784476
-0.09054569 0.124977104 0.13715723 0.04717627 0.13104582 0.052623972 0.048844997 -0.12610021
0.061207715 0.035474226 0.08029368 -0.029944833 0.070415735 0.08675573 0.06947098 -0.026579665
0.014741988 0.14850597 0.07809392 0.117502235 0.17734103 0.003043141 -0.017805818 0.04797269
0.11881485 0.023389185 0.15216693 0.07174057 0.14548695 -0.033435263 0.05770356 -0.114419885
-0.10369092 -0.060290262 -0.09015122 0.06513418 0.04669497 0.10061994 -0.14831421 0.12218127
-0.09283238 0.10412187 0.15306862 -0.014235134 0.02134981 0.10056491 0.059589334 -0.102063216
0.116946444 0.16109444 -0.12793066 0.059942372 0.15394579 -0.11238838 0.110230654 -0.015038315
-0.14287429 0.12244457 0.041180905 -0.123460665 -0.077887446 0.11399313 0.076917335 0.15202485
-0.061219953 -0.11064801 0.008201335 0.060621154 0.037768535 0.10202554 -0.080088094 0.02352526
0.123890474 -0.19456899 0.03784511 -0.109141424 -0.034887042 0.14954859 -0.15450533 0.030983495
0.07216328 -0.16562635 0.07079774 0.13243103 0.055342507 0.12535642 0.13640517 -0.043763395
-0.15607998 0.11962642 0.09238207 0.09159878 0.10798852 0.052204244 -0.13830122 0.04173725
0.08959486 -0.03682182 0.039536107 0.08793539 -0.027250642 -0.09303828 0.05315278 0.11767502
-0.011907414 -0.016631203 -0.09349709 -0.16469865 -0.10427254 0.0041372944 -0.021878555 0.11221057
0.121175595 0.115244396 0.034698017 0.094751455 0.14368401 -0.18403588 -0.06922955 0.16826873
-0.10648854 -0.0041605104 -0.03625521 0.057859603 0.1043846 0.015694842 0.12923613 0.15045549
0.0506743 0.1145851 0.15325244 0.1248164 0.050318014 0.025341835 0.008171262 0.030819232

bias f4 [48]
00000000: 12c8 f33d 7b2e be3b 8f45 bc3d 9982 0ebe
00000010: 46da e33c 8897 0d3d 6e6f 0e3e 43d0 dd3c
00000020: 9c69 fc3c 87db 02be 4321 193b 157a f1bd
00000030: b0c3 eebd 9291 10be d61a 59bc 45f1 afbd
00000040: 8b75 aa3c 82f7 08bd ff3e 86bd ead2 113a
00000050: 2a78 e93d 1c4b dfbb b357 70bc add5 acbc
00000060: 5781 edbd 7af2 b2bc 6c4a c83d f3ed 183e
00000070: c694 74bd d1d0 8f3d d394 a3bd 0b8c 0dbe
00000080: b9aa 203e 3d89 cbbc 9376 99bb f882 c5bd
00000090: a54c 9dbd ebbf 4cbd c0d1 af3d 7e12 07bd
000000a0: 6749 ae3d 2268 26bb f881 1abd d9d4 1d3d
000000b0: 1e2c b83c 8853 4abd 2dde 8fbd 9b57 0dbe
0.11903395 0.0058038807 0.09192955 -0.13917007 0.027814042 0.03456834 0.13909695 0.027076846
0.030812077 -0.12779056 0.0023365773 -0.117908634 -0.11658418 -0.1411803 -0.013251027 -0.085909404
0.020808002 -0.033439167 -0.06554984 0.00055627397 0.113998726 -0.0068143737 -0.014669347 -0.021097982
-0.11596935 -0.021844137 0.0977982 0.1493452 -0.059712194 0.070222504 -0.0798737 -0.13822953
0.15690126 -0.024845714 -0.0046833246 -0.09644121 -0.076806344 -0.049987715 0.085849285 -0.03297662
0.08510094 -0.0025391658 -0.037721604 0.038533065 0.022481974 -0.049396068 -0.070247985 -0.1380295

weight f4 [48, 48]
00000000: db26 1c3e 2fa4 953d 63f4 e23d 64b3 bc3d
00000010: 3521 f4bc 3283 f5bd 73d2 073d 5185 8dbb
00000020: 465b 8bbd efc7 0a3d 2e5d 08be b335 0ebe
00000030: 6e38 08be f596 b0bd 9f47 58be 8802 40bd
00000040: 453b 5b3d f9e0 583d 38b1 1bbe 4443 1fbd
00000050: 719e fd3d 84de 123d 175f fdbc 3974 02bd
00000060: 4116 9e3d 950b e0bd e075 1bbe 9562 8abc
00000070: 2254 5bbd 98d7 c43d 0375 14be ee91 0e3a
00000080: cc88 4e3d c6af f5bd 400d 1ebe d923 86bd
00000090: 516b b0bd c4af 203e d91d 5abb 3368 bfbd
000000a0: 8046 773d 9ca6 b6bd 92e8 0a3e e146 1b3d
000000b0: 4a30 02be 203d 043e 169b af3c b3ca 0f3e
000000c0: 6085 233c dbda bfbd 3701 613d 6aa5 e5bb
000000d0: 9cb0 413d c633 3abd 776a 11be 2300 c0bc
000000e0: f5e3 7b3d 41d3 fa3d c68d 93bd ad38 08be
000000f0: e1d5 b63d c480 113e 458e 473e dab0 dabc
00000100: 2601 1cbe 9066 e8bd 7eb5 54bd 7498 3d3d
00000110: d7cf 103c cbe7 aabd 0e0b 083e c414 9b3c
00000120: 822b d53d 45e8 10be 9246 b23d aadb ea3d
00000130: 762b 6e3d 2eaa d53d 4bb9 583e 7635 0cbe
00000140: d6c1 9e3c f8e8 f93d 1886 8cbd 0e42 163d
00000150: 2c0f e6bc bd33 183d 73ee 123e 8a3c 19be
00000160: a992 de3d 0886 3abd 24bc 07be aacd 15be
00000170: 4745 7b3d b3d1 163e 1e9e b53d e5b5 83bd
00000180: 7f7c f6bd b852 433d 8bb8 f43c fc13 afbd
00000190: 4bff adbd 7a9f 90bd 8634 283d e776 323e
000001a0: 7f7c 19be d074 483d cdcb bbbc 840d c3bd
000001b0: 1c71 0e3e e712 61bd 34e6 5f3e 41e6 433e
000001c0: 86b1 e73d ead3 593d 95ab e13c beed 35be
000001d0: 9ae8 3d3d ed9a 653e fddc 23bd a88e ab3d
000001e0: 0dd0 a0bd 3ac7 18be b2d0 753e fa2b 293d
000001f0: e89a 5fbc 386d 3fbd 2c87 aa3c b73f a6bd
00000200: 32be 3cbd 1a90 833d c9af 7a3e 078a 5abd
00000210: f020 c13d a61e 4fbd e761 2a3e c3a7 e53d
00000220: 603f ea3d 734e ad3c 7c6d 39bd d9c7 03be
00000230: 3157 8d3d daf6 18be 9b26 92bd 69b4 173e
00000240: b970 20be 5701 373d 57fa acbd 4295 d13d
00000250: 1344 c93c 96ac c7bd 0687 823d 3447 773d
00000260: ef48 4e3c 1fb0 8c3d 3c63 c0bd fd6e 9fbd
00000270: f5f2 053e cfc3 c43c eb14 bdbd 1426 19bd
00000280: 5435 51bd 0a25 79bc 4c54 ca3d 643d dabd
00000290: 531b ca3d eed5 d53d 480f 59bd 5a40 e33d
000002a0: ed39 643c 0b3f a0bd fe1a 7d3d ad06 cb3c
000002b0: 8e09 023e c333 81bd 25dd 97bd 3a06 bc3b
000002c0: 6d06 bd3d e353 6a3c 2595 d13d 8301 d1b8
000002d0: 5cf6 e9bd afe9 0a3e 499e d53b 50e6 b13d
000002e0: 6342 e0bd 388a 6ebd a93e ff3d 29a9 cabb
000002f0: 55c9 873d 4244 0f3e 9b6e f2bd 7e2c 233e
00000300: 039f 413d 5cfe 27bd 8551 a1bd 5709 dabd
00000310: afe2 81bd 2429 2cbd 99db b5bd 258c 0c3e
00000320: bca8 0ebe ab04 20bd 4b86 13be ea57 6d3d
00000330: 90fe 2abe 8fcd f8bd c2c5 1dbb 75f3 2c3d
00000340: 986d b4bd 6a65 acbd 3fc1 113e daba 81bd
00000350: 72e0 f2bc 53d7 9dbc 5f59 66bd 7577 ab3d
00000360: a0cf e1bb 3b11 443d 36ad ccbc eaf4 103d
00000370: 1ab4 01be ae4b f1bd d81f 3a3c 2f39 94bd
00000380: ac82 42bd fdfe c93d f6b7 63bd 43d5 12b9
00000390: b225 dfbc 16c4 a8bd 1a45 1abe dc90 a7bd
000003a0: 988f 693d 0d92 69bd e91b 483d 2f71 c43c
000003b0: 7d9e 563d 4aae b5bd 75c7 633d a89d f0bd
000003c0: 6906 9d3c 140a c3bc 64f9 14bd f774 873d
000003d0: 3b68 04be bf70 e4bd 0126 a03c bb69 933d
000003e0: 5807 d53d a1a0 5dbc 0421 09be 0bac a4bd
000003f0: 3bc7 5bbd c7de 793c 157e 8f3d 1d08 d53d
0.15249197 0.07306706 0.11081769 0.092139035 -0.02980099 -0.11987914 0.033159684 -0.004318871
-0.068045184 0.033882078 -0.13316795 -0.13887672 -0.13302776 -0.08622543 -0.21121071 -0.046877414
0.05352332 0.052948926 -0.15204322 -0.03888251 0.12383736 0.03585674 -0.030929131 -0.03184912
0.07719088 -0.10939709 -0.15181684 -0.01689271 -0.053547032 0.09611434 -0.14497761 0.00054386153
0.05042343 -0.11996417 -0.15434742 -0.06549806 -0.08614219 0.1569205 -0.003328195 -0.09346046
0.06036997 -0.08918497 0.13565281 0.037909392 -0.12713733 0.12913942 0.021436255 0.14042167
0.00998053 -0.09367915 0.0549328 -0.0070082443 0.04728757 -0.04545953 -0.1420077 -0.023437565
0.061496694 0.12247325 -0.072047755 -0.1330287 0.08927513 0.14209276 0.19487865 -0.026695658
-0.15234813 -0.11347687 -0.051930897 0.04628797 0.008838615 -0.08344992 0.13285467 0.0189308
0.10408689 -0.14151104 0.087048665 0.11467679 0.058146916 0.1043285 0.21164434 -0.13692269
0.019379538 0.122026384 -0.06861514 0.03668409 -0.028083406 0.037158716 0.14348774 -0.149645
0.10867817 -0.04553798 -0.13255364 -0.14629236 0.061345365 0.14728431 0.08868049 -0.06431178
-0.120354645 0.04768631 0.029873153 -0.085487336 -0.08495959 -0.07061668 0.041065715 0.1742817
-0.14988898 0.048939526 -0.022924328 -0.09524062 0.13910335 -0.054949667 0.2186516 0.19130804
0.11313157 0.053180613 0.027547637 -0.17766473 0.046364404 0.22422381 -0.040005673 0.08376819
-0.078521825 -0.14919749 0.24005392 0.041301705 -0.013647772 -0.04673502 0.020816408 -0.081176214
-0.046079822 0.064239696 0.24481119 -0.05335429 0.094301105 -0.050566338 0.1663891 0.11213639
0.11437869 0.021155572 -0.045270428 -0.12869205 0.06901396 -0.14937916 -0.0713627 0.14814915
-0.15668 0.044679012 -0.08446186 0.10233547 0.024568593 -0.09749715 0.0637341 0.06037064
0.012590631 0.0686953 -0.093939275 -0.07784841 0.13080962 0.02401915 -0.092325054 -0.03738983
-0.05107625 -0.015206585 0.098793596 -0.106562406 0.09868493 0.104411945 -0.05299309 0.110962585
0.013929826 -0.078245245 0.06179332 0.024783457 0.12698957 -0.06308701 -0.07415227 0.005738047
0.09229741 0.014302227 0.10233525 -9.966178e-05 -0.114239424 0.13565706 0.006519113 0.08686507
-0.10950162 -0.058237284 0.12463123 -0.0061847162 0.06630198 0.13990882 -0.118375026 0.15934941
0.047270786 -0.04101406 -0.07876877 -0.10646313 -0.063420646 -0.042031422 -0.088797756 0.13725336
-0.13931555 -0.03906695 -0.14406697 0.05794517 -0.1669867 -0.12148582 -0.0024074172 0.042224366
-0.08809966 -0.08417781 0.14233874 -0.06334467 -0.02964804 -0.019267714 -0.056237575 0.08372394
-0.006891206 0.047867995 -0.024984937 0.03538982 -0.1266636 -0.11782013 0.011360131 -0.072374694
-0.0474879 0.09863088 -0.05559536 -0.00014003091 -0.027239654 -0.082405254 -0.15065423 -0.081819266
0.057021707 -0.05702405 0.048854742 0.023979751 0.05239724 -0.088711336 0.05561014 -0.117488205
0.019168096 -0.023808517 -0.03637065 0.06614106 -0.12930386 -0.11154317 0.019549372 0.07197901
0.10401791 -0.013527066 -0.133915 -0.08040627 -0.053656798 0.015250868 0.0700647 0.10401938

bias f4 [48]
00000000: 75f2 473d 9baa 04be 961e f63d 3d37 f33d
00000010: bc4f 8dba 43c2 b83d 074b 1dbd 7fd5 08bc
00000020: f1db a4bd 812c ccbd c230 f0bd 26b8 0b3d
00000030: f8a5 803c ed55 833d 06d2 a83d 8bb7 3f3d
00000040: 8bff 18bd 0fd5 cd3d 01e8 b4bd ff9a 1abe
00000050: 715c 03be ccee b03c bed2 9d3d f1f5 2e3d
00000060: 9226 c83d 26d5 c6bd 0585 46bc a030 ee3d
00000070: 3d17 4e3d 9160 1b3e f388 dcbd 9e55 bdbd
00000080: 7bdc 083e 3134 12be a5d0 4c3c 4292 1c3e
00000090: b531 c33d 4e56 1f3e 0160 98bd 8943 7fbd
000000a0: a333 d4bd fb46 c4bd fdd4 a03b e6d3 bc3d
000000b0: 7eb7 44bd cf7b 553d d985 a53d 7199 323d
0.04881521 -0.12955706 0.120175526 0.1187577 -0.0010781209 0.090214275 -0.03840163 -0.008351683
-0.08049763 -0.09969426 -0.1172805 0.034111165 0.01570414 0.064128734 0.08243184 0.0468059
-0.03735308 0.10050403 -0.08833314 -0.15098189 -0.12828232 0.021598242 0.077062115 0.042715017
0.09772982 -0.097086236 -0.012116675 0.11630368 0.05031513 0.15173556 -0.107683085 -0.09244846
0.13365357 -0.14277722 0.012500917 0.15290168 0.09530965 0.15560266 -0.07440186 -0.062320266
-0.103614114 -0.09583851 0.0049082027 0.09220104 -0.048026554 0.052120026 0.0808217 0.043603364

weight f4 [48, 48]
00000000: ba90 5cbc 217a 813d 14f3 4e3d d09f 15be
00000010: 0b79 713d d686 043d cf16 15be 2eaf c8bd
00000020: 8727 c2bc 4628 d03c 3af5 f53c 4b18 1ebd
00000030: e239 1d3e 201e 9b39 3da5 103e b788 10be
00000040: 7287 d5bd 5d8f 1c3e 5b44 d03c 0d47 d5bd
00000050: de59 783d 1f74 d1bd 2b2e 813c 8f05 b03d
00000060: 85d6 c73d 7851 aa3d 0a7f 053e 3fd0 eb3c
00000070: a8f7 473c 249e ff3c e0ba 39be 79bf 05bd
00000080: 8154 f1bc 36e6 c13d f0fd 873d edf9 183c
00000090: d6cd bfbd cb7e 093e e84f c5bc aad5 4e3d
000000a0: 1f0a 923d 3a7f d93d 599b abbd 18d3 cc3d
000000b0: 7769 803c 0e5d 8abc 8368 0ebd 6082 9e3c
000000c0: 6b50 ee3d 502b b2bd 81c1 b7bd 88dc 123e
000000d0: 9fae 3d3d 9bbf 0f3e 4b70 58bd ff90 c53d
000000e0: e354 0c3e 26e7 cebd a3cf 353d 60dd a6bd
000000f0: 1eac 043e 52a1 d73d d1b9 583d be37 5f3c
00000100: 443b bebc 0d8d eb3d 2d71 a53d d521 41bd
00000110: 1625 89bd d454 81bd 3853 0fbd ce1c 883c
00000120: bf06 263d a42a 423d a346 db3d d473 253a
00000130: 2204 3abd c39e 2fbe 46a6 ccbc 0824 4e3c
00000140: c422 16be 3b22 20be eca2 533d c863 bcbd
00000150: 849d 04be 6e13 aa3d 02b8 033d 152c 71bd
00000160: 0d3c 953d 7bba 96bd 4422 36bd c8c1 393d
00000170: 0427 e13c 9988 66bd a3f7 213d 90a3 54bd
00000180: 2eb6 f43a f44f 043b 05a4 2ebd 397f 66bd
00000190: e2ad 9dbc cbaf dc3d d48f a2bd c9e7 dbbd
000001a0: e3ae 04be 1e3c cfbc 6763 c1bc dab7 103e
000001b0: acae 7e3d b977 873d c085 cfbd ba10 c83d
000001c0: 496e c53d 0cff 51bd b165 e6bd cb74 0b3d
000001d0: 2325 1bbe c6aa 91bd e1e8 aebd 7671 a1bd
000001e0: b77a adbd 74ec debd c6f6 13be a507 35bd
000001f0: 22a2 283a 5692 0dbd 469f d03b 8897 f7bc
00000200: 565d afbb b1f4 c6bc fe95 a93c 4d74 64bd
00000210: 85a8 233c 9d48 b8ba d6c2 a5bd 8785 4dbb
00000220: 16f9 c03d d36a 01be f31d 72bd f00a 33bd
00000230: 63ea 063d 76f0 ecbd 22f2 363d bd7f 3f3d
00000240: 10c2 46bc 6dae 7d3b a743 1abd 9459 c43d
00000250: 9c9a 3d3d bf4d d9bd 2d16 133d da0b ee3d
00000260: e582 363e 00e8 54bd caf5 1cbe b3df a13d
00000270: aec2 b3bb 9347 b53d 0c03 a8ba adf3 debb
00000280: 8142 843d 45aa 99bd dab0 fe3c ac59 20be
00000290: b15b f43d 5683 2a3e 8020 323d dc12 6ebd
000002a0: 21c3 0ebd 1346 b5bd acd9 0d3d 7779 2a3e
000002b0: f073 133e 9823 09be ea61 2bbd abc3 fd3b
000002c0: b85e 1fbd fd33 6fbc 0284 c5bd 9efb e63d
000002d0: b693 94bd 881b 22bd 60ed 64bd aa09 09be
000002e0: 67de 593b ed5e bc3d 7522 323d 1023 a3bd
000002f0: 25cf 3f3d bff8 5ebe fdf8 27bd 8184 ebbd
00000300: 2356 8ebc 76b4 80bc 24c2 01be c0fc 573c
00000310: c744 16be fd59 c0bd 23c7 783d 81f1 32bd
00000320: ea75 c53c 621f 82bd 58a9 713c 97af aa3d
00000330: bb2d dcbd e3ff 953d 4c16 a93c 03fb d13d
00000340: 8f05 b43d 0272 053d a288 ca3a 1ec1 33be
00000350: 84c7 7ebc 1440 7b3d 9164 e5bd 7374 bdbd
00000360: 07a0 61bc 3abe 6bbd eb14 603d 0c4f fbbd
00000370: 0276 a63d a16d ea3c 4456 8e3d e2b2 6c3c
00000380: 52e8 f73d f90f 9a3c b51a d3bd 0ba9 283c
00000390: b6ba c7bc b4dd 043e ac34 183d 96b5 4dbd
000003a0: bb8a 12bd d99f b0bd 66aa 2b38 cdac 943d
000003b0: 6395 e5bd b36d bc3d e469 64bd 021f 063d
000003c0: edce 08bd 365a 97bd fbdb f5bd 9bb3 a23d
000003d0: 846d d2bd c69d 893d 0cb1 e13d 5de8 dfbd
000003e0: 2e09 353d 0fef d13c e27d 4c3d dfbb 083e
000003f0: 330d bf3c 4e67 b93c b2cc 56bd 91f7 0c3e
-0.01346224 0.06322122 0.050524786 -0.14611745 0.058953326 0.032355152 -0.14559482 -0.09799038
-0.023700489 0.025409829 0.03002416 -0.038597386 0.15354112 0.0002958635 0.14125533 -0.14114653
-0.10426225 0.15289064 0.02542322 -0.104139425 0.06063258 -0.102272265 0.015769085 0.0859481
0.09757713 0.0831632 0.13036743 0.028785823 0.012205042 0.031203337 -0.18137693 -0.032653306
-0.02945924 0.094677374 0.066402316 0.009336931 -0.09365432 0.13427274 -0.024085954 0.050496735
0.07130837 0.1061997 -0.083792396 0.100012004 0.01567529 -0.016890075 -0.03476764 0.019349277
0.11636432 -0.086996675 -0.08972455 0.14341938 0.04630911 0.14037935 -0.052841466 0.096467964
0.13704257 -0.10102682 0.04438747 -0.08147693 0.12956282 0.10528816 0.052911583 0.01362413
-0.02322162 0.11501513 0.08078227 -0.047151405 -0.06696527 -0.06315008 -0.034991473 0.016615298
0.040533777 0.047403947 0.10706832 0.000631151 -0.045414098 -0.17150407 -0.02498163 0.012581833
-0.146617 -0.15638058 0.051669046 -0.09198719 -0.12950712 0.08304487 0.032157905 -0.05887993
0.072868444 -0.07359787 -0.044466272 0.04535082 0.027484424 -0.056282613 0.039542805 -0.051913798
0.0018670016 0.0020189257 -0.04263689 -0.056273673 -0.019247953 0.10775717 -0.07937589 -0.10737569
-0.12957339 -0.02529722 -0.023606969 0.14132634 0.0621783 0.06614632 -0.10132933 0.09768815
0.09640176 -0.051268622 -0.11249865 0.03404693 -0.15150885 -0.071126506 -0.08540512 -0.07882969
-0.084706716 -0.108849436 -0.14449605 -0.044196744 0.0006432851 -0.034563385 0.006366643 -0.030223623
-0.0053517027 -0.0242866 0.020701405 -0.055774976 0.009988909 -0.0014059726 -0.08093803 -0.0031360106
0.09422509 -0.12638406 -0.059110593 -0.043711603 0.032938372 -0.11569302 0.04466451 0.04675268
-0.012131229 0.0038708702 -0.037662175 0.09587398 0.046290025 -0.10610532 0.03590982 0.11623354
0.1782337 -0.051979065 -0.15328136 0.07903995 -0.005485854 0.08851542 -0.0012818291 -0.0068039508
0.06457997 -0.075031795 0.031090189 -0.15659207 0.11931551 0.16651663 0.043488026 -0.058123454
-0.03485406 -0.08851256 0.034631416 0.16647898 0.14399695 -0.13392484 -0.041841425 0.0077442727
-0.03890869 -0.014599797 -0.09644319 0.11278461 -0.07254736 -0.039577037 -0.05589044 -0.13382593
0.0033244134 0.09197793 0.043489892 -0.07965672 0.046828408 -0.21774577 -0.041008938 -0.114998825
-0.017375058 -0.01571105 -0.12671715 0.013182819 -0.14674674 -0.09392164 0.060736787 -0.043687347
0.024104077 -0.06353642 0.014749847 0.08334272 -0.1075091 0.07324197 0.020640515 0.10252955
0.08790123 0.03257943 0.0015452097 -0.17554137 -0.015550498 0.061340407 -0.11200822 -0.092507266
-0.013771064 -0.05755446 0.05470745 -0.12270936 0.08127977 0.028616728 0.069500476 0.014446946
0.121048585 0.018806444 -0.10307828 0.010294209 -0.024381023 0.12975198 0.037159607 -0.050222002
-0.035776835 -0.086242385 4.0928273e-05 0.07259522 -0.11210134 0.09200611 -0.055765048 0.032744415
-0.033400465 -0.07390253 -0.120048486 0.07944413 -0.10274795 0.06719546 0.11020097 -0.10932992
0.044198208 0.025626687 0.04992474 0.13352917 0.023321724 0.022632267 -0.052441306 0.13766314

bias f4 [48]
00000000: c902 853d 1722 fabd be6e 0bbe 045c d6bd
00000010: bfa4 e5bd 5db2 30bd 9ec0 003e 0924 6fbd
00000020: 9e0c f63c b320 4bbd a98a 08bc 22bd 893d
00000030: 2dde 0abd ffa7 82bd 6d74 3c3d ae12 b1bd
00000040: 3803 0dbe 377c d53d 736d 333c 0718 01be
00000050: 3eea 61bc 7792 83bd 9308 31bd b809 e8bd
00000060: 58ac d5bd 4fc5 debd ecf2 0ebe a5a4 70bd
00000070: 8f95 6fbc ca85 6fbd 9c68 e0bc 51c1 303d
00000080: 60a1 f7bb b77e 133d 2b07 ecbd 75a7 cd3d
00000090: 336d d43d 7f2a b6bc ef24 0f3e ff30 adbd
000000a0: 5d5f 8fbd a1bc e7bd 853f d0bd 4cc8 7f3d
000000b0: 5027 59bc 0895 8a3c 7ea9 0ebd 294e 42bd
0.06494672 -0.12213533 -0.13616464 -0.10466769 -0.112130634 -0.04313885 0.12573478 -0.058383975
0.030035313 -0.04959173 -0.00833384 0.06725527 -0.03390329 -0.06379699 0.04600947 -0.08646141
-0.13770759 0.10424083 0.010951388 -0.12606822 -0.013788758 -0.0642442 -0.043221068 -0.11329979
-0.104332626 -0.108774774 -0.13959855 -0.058750767 -0.01462306 -0.0584772 -0.027393632 0.04315311
-0.007557079 0.036009517 -0.11524805 0.100417055 0.103723906 -0.02223706 0.13978933 -0.08456611
-0.07000611 -0.11315275 -0.101683654 0.062446877 -0.013254002 0.016916767 -0.03482961 -0.04743782

weight f4 [4, 48]
00000000: 72f2 14be 10cc 293d b638 0abe 9ad9 b3bd
00000010: 347e 09bd adbd 2cbd adc8 9a3d 13ed b63d
00000020: 9558 fabd bfbb 243e 4c85 f5bd 5759 07bd
00000030: acd0 b83c ae3c b1bd cc82 3abd 5ec3 1a3e
00000040: 5d43 113c e219 fc3d 870f cf3d 0220 76bd
00000050: bda7 dfbd c717 ff3d 26c0 e43d 2725 dd3d
00000060: f960 b5bd 9c3c 1cbe 9ba9 b5bc 01c8 92bd
00000070: 9e4a e8bd 273a 203d 2648 873d 357e 1cbe
00000080: b2ab c83c 628d 9b3d f3a8 973c 38c4 ffbd
00000090: fee3 ecbc 1a00 cf3d 3c2f 523d d38e db3d
000000a0: 40bb 46bd 34bd 003e 7156 ecbd 4398 c9bd
000000b0: 69f4 b4bc 5ccd 96bd bb1a 1c3e d0f0 c63d
000000c0: d9c9 f03d 7673 883d f7ac 71bd cbca 1e3e
000000d0: 7403 093d d53e c5bd fe75 b7bc 00fb 3abc
000000e0: b857 3dbc 7f43 963d 3934 dcbd a92d a63d
000000f0: 2ac1 c23d 05d2 b63d 187e 9abd 5726 56bc
00000100: a158 c23d 44e9 8cbd 42e1 18bc 133a cebd
00000110: 3692 a7bb e918 913c 1076 b6bc c88c cdb9
00000120: 5950 003e de0b 993d 2cf6 ccbd 287b df3d
00000130: a3a6 cabd b848 14be b1ef a03c 0dba 0cbe
00000140: 1c8f babd cc99 00be 7413 1cbe 4de4 21bc
00000150: cc2f 193e 2d7e eabd 1b56 fbbd 0c88 bfbd
00000160: 2de9 06bc bd09 c5bc d223 0abe e8b8 123e
00000170: b528 e6bd f074 f43d 3161 11be 5ce4 703d
00000180: dd32 1e3e e82c 0e3e 743e 04be 5eef f63c
00000190: 1d45 19be 818a c2bd e911 29bd 467b 92bc
000001a0: 4e0a 33be 1179 ba3d e47c d2bd 8c83 143e
000001b0: a39d 143e b0cd 15be e504 afbd e1a2 3fbd
000001c0: eabc 45bd fbe6 153c b13a 893d 962d 4dbd
000001d0: 8e78 e4bd b151 4ebd 645b 413c e0d5 ee3d
000001e0: 5c29 893d c146 113e b762 e3bd 0bf6 05be
000001f0: 522d 2c3c 95d7 fd3b 32a6 cb3d bf64 503d
00000200: 8ad1 81bd 2ed5 fc3d 9e29 02be bd77 82bd
00000210: 70ad 923d 43d9 443d 672a f63d 0968 0cbe
00000220: 50dc 343e f3c1 97bd 8cd9 74bd 386a ab3d
00000230: 7403 a93d 8d71 0abe 3189 a2bc 672e 82be
00000240: 70d3 963d 18fe fe3d 64fc e13d 65b3 c63d
00000250: e250 913d 4caf 4d3d a192 0d3e d504 7b3a
00000260: 01e3 e93d 3aa7 833c b31b 9dbc b710 13bd
00000270: 0c1a 02be 1aa9 ecbd e10b a0bd 0a8f 57bd
00000280: 1e1e fd3c acfa 8dbd c63f a23d d686 023e
00000290: 3579 0cbe c439 f5bd fec6 9ebd f655 2a3d
000002a0: 1893 493e 18ca 7c3d cdeb 263c b3c4 90bd
000002b0: 731e 9b3b 3cb1 e63d 8505 93bd 4bcd 763d
000002c0: cc77 25be 790b b83c c001 28be b67b da3d
000002d0: deef aabd 4855 723b e46a 5ebd 5559 de3d
000002e0: cb00 3fbe 4ed5 193e 9d1c 50bd 5491 af3a
000002f0: b088 ffbd f7b7 a3bd 77bc c63c 5639 7cbc
-0.1454561 0.041454375 -0.13498196 -0.087817386 -0.033567622 -0.042173076 0.07557807 0.08931937
-0.12223927 0.16087244 -0.11988315 -0.033044185 0.02256044 -0.08654152 -0.045534894 0.15113589
0.008866158 0.12309624 0.101103835 -0.06008912 -0.109206654 0.12455707 0.11169462 0.10798102
-0.08856387 -0.15257496 -0.0221756 -0.07167054 -0.11342357 0.03911796 0.06605558 -0.15282519
0.024495933 0.07595326 0.018513178 -0.12488598 -0.028917309 0.10107441 0.051314577 0.10720601
-0.04851842 0.12572175 -0.11539925 -0.09843495 -0.0220892 -0.07363388 0.15244572 0.097139
0.117572494 0.066626474 -0.059002843 0.15507047 0.03345056 -0.09631125 -0.02239513 -0.011412382
-0.011556558 0.073370926 -0.10752148 0.08114178 0.09509499 0.08926777 -0.07543582 -0.013070664
0.09489561 -0.068804294 -0.009331049 -0.100696705 -0.0051138652 0.017712073 -0.022273093 -0.00039205537
0.1253065 0.074729666 -0.10007891 0.10912162 -0.09895065 -0.14480865 0.019645544 -0.13742848
-0.09109327 -0.12558669 -0.15241796 -0.009881091 0.1495964 -0.11449847 -0.12272283 -0.09352121
-0.008234304 -0.024052495 -0.13490227 0.14328349 -0.11238233 0.119363666 -0.14197232 0.05881153
0.1544909 0.13884318 -0.12914449 0.030143436 -0.14967771 -0.09499074 -0.041276846 -0.017881047
-0.174844 0.09105123 -0.10277727 0.14503306 0.14513259 -0.14629245 -0.085458554 -0.046786193
-0.048275866 0.009149308 0.067006476 -0.050092302 -0.111558065 -0.050370876 0.011801574 0.11661887
0.06697342 0.14187147 -0.11102813 -0.13082139 0.010508852 0.0077466466 0.099438086 0.05087733
-0.063387945 0.12345348 -0.12711188 -0.063704945 0.07161987 0.04805876 0.12019806 -0.13711561
0.17662168 -0.0741004 -0.05977778 0.08369869 0.08252612 -0.13519879 -0.019840809 -0.25426027
0.07364547 0.12450808 0.11034468 0.097021855 0.07095505 0.050216004 0.13825466 0.000957561
0.11420251 0.01607095 -0.019178247 -0.035904612 -0.12705249 -0.11555691 -0.07814766 -0.052626647
0.03089815 -0.069325775 0.0792232 0.12746748 -0.13718112 -0.119739085 -0.077527985 0.041585885
0.19685018 0.06171617 0.010188055 -0.070687674 0.0047338544 0.112642735 -0.07178787 0.060254376
-0.1615898 0.022466408 -0.16406918 0.10668127 -0.08346532 0.00369771 -0.054301158 0.108568825
-0.18652646 0.15022776 -0.050808538 0.0013394752 -0.12477243 -0.07994073 0.024259789 -0.015394529

bias f4 [4]
00000000: 972c 843d a0c2 b8bd 11b6 7abd a802 8c3d
0.06453817 -0.09021497 -0.06120879 0.06836444
