mPINNs-R1/mPINNs_result/result8/model.pth (torch, 35100 bytes, 10 tensors)

weight f4 [48, 2]
0.7072407 0.2515058 0.6477681 0.68427265 0.53728795 -0.51136667 0.46950558 -0.42073736
0.51218927 0.41700768 0.6480119 0.55957484 -0.09471482 0.26255512 0.1401028 -0.44370335
-0.63057005 -0.042688422 -0.009514662 -0.46857002 -0.18808104 0.7798778 0.6190256 0.5302775
0.5591114 -0.049251415 -0.07068941 0.16152811 -0.08789748 0.24151494 -0.7123992 -0.08945615
0.4283286 0.34582955 0.5892813 0.40817112 -0.36345375 -0.62559426 0.35273096 0.71882546
0.6705175 0.054441445 0.17331947 -0.54412436 -0.21642353 0.018841602 0.057020828 0.06305305
0.6678926 -0.68757725 0.07754974 -0.006770597 -0.57152104 0.19135189 0.54784846 0.2919301
0.55145305 -0.607818 -0.06667859 0.8912317 0.49176753 -0.11498413 0.20397742 -0.47351372
0.70598763 0.28871024 0.6961365 -0.25721818 -0.6558533 0.4962241 0.6019809 -0.2087415
-0.2735816 -0.72765714 0.27543703 0.10030681 0.47571713 -0.62092716 -0.39314893 0.17815441
0.40022403 0.34344813 0.12756665 0.6170551 0.28837365 -0.59294295 -0.51164466 -0.021868406
0.6273288 -0.3078215 -0.7069389 -0.63038915 -0.557912 -0.10224092 0.41209108 -0.061947796
00000000: ba0d 353f 5ec5 803e 21d4 253f 7e2c 2f3f
00000010: b48b 093f ede8 02bf 0963 f03e e36a d7be
00000020: d61e 033f 0882 d53e 1ce4 253f 4c40 0f3f
00000030: d8f9 c1bd a06d 863e 1c77 0f3e 162d e3be
00000040: 0a6d 21bf 0eda 2ebd 63e3 1bbc 69e8 efbe
00000050: 5198 40be 12a6 473f 7678 1e3f 44c0 073f
00000060: ed21 0f3f dabb 49bd 9cc5 90bd a067 253e
00000070: 9803 b4bd b14f 773e cb5f 36bf c934 b7bd
00000080: e34d db3e 9210 b13e 24db 163f cefb d03e
00000090: 9c16 babe f226 20bf 2799 b43e f204 383f
000000a0: 09a7 2b3f fefd 5e3d a97a 313e bc4b 0bbf
000000b0: 219e 5dbe b459 9a3c ac8e 693d f521 813d
000000c0: 02fb 2a3f 1005 30bf 66d2 9e3d e2db ddbb
000000d0: 344f 12bf c0f1 433e cc3f 0c3f dd77 953e
000000e0: 072c 0d3f f699 1bbf c98e 88bd c327 643f
000000f0: f4c8 fb3e cd7c ebbd 75df 503e 6470 f2be
00000100: 9bbb 343f d4d1 933e 0036 323f 1ab2 83be
00000110: 00e6 27bf 1611 fe3e 6c1b 1a3f 55c0 55be
00000120: e312 8cbe bd47 3abf 1506 8d3e a86d cd3d
00000130: 3291 f33e 15f5 1ebf d14a c9be 1c6e 363e
00000140: 2aea cc3e 6fd8 af3e d5a0 023e 53f7 1d3f
00000150: b6a5 933e 1ccb 17bf 25fb 02bf 5f25 b3bc
00000160: 9f98 203f c89a 9dbe f3f9 34bf 2f61 21bf
00000170: 52d3 0ebf b063 d1bd 9afd d23e f9bc 7dbd

bias f4 [48]
0.5599966 0.02900591 0.3069017 -0.1925579 -0.17280345 -0.30469993 0.7272073 -0.48996624
-0.58846617 -0.56755203 -0.09181383 -0.5085113 -0.32569376 0.11471833 -0.37985212 -0.18153292
-0.22549348 0.36534804 0.54404926 0.2756738 0.20946269 0.6236939 -0.03122878 0.4856165
-0.66805375 0.13354929 0.012978074 -0.28910223 -0.22632158 0.36658287 -0.4654896 0.078391135
-0.69957286 -0.37240168 -0.17295732 0.32132202 -0.1248002 0.49180415 -0.662321 0.17222723
-0.6724434 0.15474358 -0.58535224 0.49353006 0.6181598 -0.5687984 0.36328033 0.4495477
00000000: f05b 0f3f cd9d ed3c 3822 9d3e e62d 45be
00000010: 63f3 30be a101 9cbe 422a 3a3f dbdc fabe
00000020: b8a5 16bf 174b 11bf e408 bcbd cc2d 02bf
00000030: 55c1 a6be 72f1 ea3d fa7b c2be c4e3 39be
00000040: c3e7 66be e60e bb3e d046 0b3f 1e25 8d3e
00000050: 637d 563e 67aa 1f3f 80d3 ffbc baa2 f83e
00000060: 9205 2bbf 25c1 083e fda1 543c 3505 94be
00000070: d8c0 67be c0b0 bb3e a754 eebe 888b a03d
00000080: 3517 33bf 6fab bebe b91b 31be 5284 a43e
00000090: 3f97 ffbd c1cd fb3e de8d 29bf 565c 303e
000000a0: 4025 2cbf 1a75 1e3e a5d9 15bf f9af fc3e
000000b0: b83f 1e3f c69c 11bf e1ff b93e 1e2b e63e

weight f4 [48, 48]
-0.06712098 -0.037311014 -0.109045215 0.08116712 -0.11564221 0.027423395 0.12317402 -0.14638396
0.07434816 -0.10728271 0.08953649 -0.11400237 0.08339475 -0.12375519 -0.06299691 0.06332649
-0.10262126 -0.08058221 -0.011031324 -0.10490927 -0.03341363 0.049857773 0.03714273 -0.007269787
-0.15065664 0.09230222 0.08356287 -0.058270026 0.064126834 -0.11859909 -0.032580115 -0.13002752
-0.07629288 0.015047773 0.13002059 0.083226 -0.037217736 -0.018512938 -0.06166429 0.08908597
-0.077463694 -0.13680035 -0.0139615815 0.01964108 -0.051244546 -0.058763858 0.02578628 -0.05452411
0.057608068 0.05085079 0.06753386 -0.011822929 -0.05984335 -0.13386452 -0.1283375 0.10383068
-0.060484827 0.026585372 -0.18337275 -0.06068638 -0.010532108 -0.097970106 -0.123906635 -0.024318343
0.058334522 0.031267095 0.20502064 0.058999684 -0.015246757 0.026712194 0.05416554 0.069524854
0.007357297 0.040661946 -8.357187e-05 -0.18134183 -0.06140032 0.09407401 0.12467845 -0.04083729
-0.04618819 0.090038694 -0.18780795 0.12212014 -0.018316332 0.06070705 -0.10186943 0.024765383
-0.09147209 -0.04166887 -0.08167017 0.038233653 0.047552194 -0.073204055 -0.095222235 0.0714129
0.06243907 -0.04776253 0.10332033 0.12525678 0.15391985 -0.03749652 0.1197955 0.12114935
0.09670462 0.11799186 0.054742146 0.09643247 0.07365251 0.066086575 -0.11241714 -0.14583284
-0.073728405 -0.033070225 -0.139569 -0.10431012 -0.09109868 -0.1564684 -0.015475895 -0.11815671
-0.02928485 -0.05333387 0.06463588 0.17613974 -0.123192064 0.045489393 0.09467269 0.0805424
0.18795355 -0.03790616 -0.12604357 -0.070076674 0.1395928 0.10674439 -0.016105773 0.08300806
0.022111285 -0.00012510901 -0.062445287 -0.1090415 0.033175558 0.11235339 -0.17810324 0.030169435
0.04742815 -0.056095216 0.06702526 -0.102894805 0.0576601 -0.044626 -0.041748688 0.032046657
-0.11415825 -0.06180913 -0.0013741511 -0.059480354 -0.05253622 -0.010745333 -0.066391386 -0.124194056
-0.18785366 0.11353844 0.030834062 -0.07384474 -0.076450095 -0.0318271 0.052913174 0.031853884
0.095604986 0.08143765 0.017697414 -0.017706156 0.063702054 0.0188209 0.0050054933 0.008977871
-0.19188093 -0.022987606 -0.15197745 0.04033551 0.12031688 -0.07208534 0.1189461 -0.027265416
-0.177815 -0.052963268 0.098894976 0.081530124 0.04734041 -0.11600068 0.11754788 0.09814904
-0.019470496 -0.15946159 0.17466882 -0.04765514 -0.039837543 -0.05300122 0.028344449 -0.019714456
-0.029669883 -0.01591561 -0.05316546 -0.11519583 -0.14473268 0.036352515 -0.19801551 -0.011054762
0.025773767 -0.13315849 0.12304385 0.010004924 0.10758936 0.17209151 -0.09238365 0.08860185
0.08126144 -0.113228254 0.08882246 -0.14275008 -0.029584091 0.025005655 0.078452006 -0.059167016
0.055452567 -0.009056387 -0.1243698 0.13619377 0.05867183 -0.12987287 0.0925551 0.048796147
-0.13053703 -0.018390998 -0.029270504 -0.0891998 0.20125486 -0.048333067 0.18079393 0.057599917
0.017556008 0.127118 0.10290614 -0.05929937 -0.00016347744 -0.04891701 -0.14017312 0.061138675
-0.14744876 0.029401533 0.009879395 0.116504736 -0.09538142 -0.01031187 -0.020721676 -0.20040895
00000000: b976 89bd 6fd3 18bd 1953 dfbd f23a a63d
00000010: d3d5 ecbd 07a7 e03c a942 fc3d ade5 15be
00000020: d943 983d 0ab7 dbbd e85e b73d 137a e9bd
00000030: deca aa3d 5c73 fdbd 8604 81bd 52b1 813d
00000040: 182b d2bd 4908 a5bd babc 34bc acda d6bd
00000050: bbdc 08bd aa37 4c3d fa22 183d 6537 eebb
00000060: bc45 1abe f208 bd3d 0323 ab3d 8dac 6ebd
00000070: ee54 833d 14e4 f2bd ba72 05bd ef25 05be
00000080: 713f 9cbd ef8a 763c 1e24 053e 6572 aa3d
00000090: a071 18bd 72a8 97bc b293 7cbd b472 b63d
000000a0: 49a5 9ebd 6415 0cbe 1ebf 64bc 55e6 a03c
000000b0: cde5 51bd 5fb2 70bd c03d d33c ac54 5fbd
000000c0: 70f6 6b3d eb48 503d 314f 8a3d f5b4 41bc
000000d0: 4d1e 75bd c813 09be e86a 03be 2ea5 d43d
000000e0: f0be 77bd 91c9 d93c 11c6 3bbe 4892 78bd
000000f0: dd8e 2cbc 8da4 c8bd c3c2 fdbd 4337 c7bc
00000100: 2ef0 6e3d ed11 003d eef0 513e a7a9 713d
00000110: 89cd 79bc 88d3 da3c afdc 5d3d 0c63 8e3d
00000120: 7b15 f13b 248d 263d 4e43 afb8 acb1 39be
00000130: e77e 7bbd e0a9 c03d 6a57 ff3d 0145 27bd
00000140: d42f 3dbd 3566 b83d ba50 40be 201a fa3d
00000150: 220c 96bc f5a7 783d eba0 d0bd c6e0 ca3c
00000160: b855 bbbd faac 2abd b142 a7bd e49a 1c3d
00000170: 17c6 423d 02ec 95bd e003 c3bd ed40 923d
00000180: 1cc0 7f3d a5a2 43bd 9c99 d33d 5043 003e
00000190: 2a9d 1d3e f395 19bd 5857 f53d 271d f83d
000001a0: 120d c63d b7a5 f13d 4d39 603d 637e c53d
000001b0: 21d7 963d 6658 873d f53a e6bd 3455 15be
000001c0: ebfe 96bd a574 07bd 2deb 0ebe 8ba0 d5bd
000001d0: f291 babd 4139 20be 9c8e 7dbc 25fc f1bd
000001e0: c8e6 efbc 9e74 5abd d15f 843d fa5d 343e
000001f0: 1f4c fcbd 1653 3a3d c1e3 c13d 6af3 a43d
00000200: e576 403e 7d43 1bbd 9111 01be 5c84 8fbd
00000210: 6af1 0e3e ce9c da3d 41f0 83bc 2100 aa3d
00000220: ba22 b53c b22f 03b9 a1c6 7fbd 2651 dfbd
00000230: 18e3 073d 8919 e63d b260 36be e425 f73c
00000240: 0544 423d 19c4 65bd 8a44 893d 83ba d2bd
00000250: ff2c 6c3d c1c9 36bd ac00 2bbd 5b43 033d
00000260: cdcb e9bd 922b 7dbd dc1c b4ba aca1 73bd
00000270: 3830 57bd 310d 30bc 35f8 87bd 7459 febd
00000280: b65c 40be d786 e83d b797 fc3c e93b 97bd
00000290: de91 9cbd 225d 02bd 7cbb 583d 3879 023d
000002a0: 8ccc c33d c8c8 a63d 2bfa 903c 800c 91bc
000002b0: 3976 823d 4a2e 9a3c 1f05 a43b ec17 133c
000002c0: 6f7c 44be 8150 bcbc fa9f 1bbe d936 253d
000002d0: b268 f63d 7ba1 93bd 039a f33d b95b dfbc
000002e0: 2315 36be 03f0 58bd 7389 ca3d 44f9 a63d
000002f0: 05e8 413d c491 edbd f1bc f03d 5d02 c93d
00000300: 9780 9fbc e649 23be 62dc 323e 0932 43bd
00000310: b12c 23bd cf17 59bd 9e32 e83c 3680 a1bc
00000320: 410e f3bc 7461 82bc 06c4 59bd cbeb ebbd
00000330: ce34 14be 60e6 143d 94c4 4abe 081f 35bc
00000340: 8223 d33c b35a 08be 6afe fb3d b1eb 233c
00000350: cf57 dc3d c238 303e a433 bdbd e374 b53d
00000360: 666c a63d 37e4 e7bd 8de8 b53d 142d 12be
00000370: 565a f2bc a9d8 cc3c 72ab a03d 1d59 72bd
00000380: 3b22 633d 3d61 14bc 98b5 febd 6176 0b3e
00000390: df51 703d 65fd 04be 878d bd3d 78de 473d
000003a0: 80ab 05be b8a8 96bc b2c8 efbc 62ae b6bd
000003b0: c115 4e3e e5f8 45bd 0b22 393e e4ed 6b3d
000003c0: 9ed1 8f3c 392b 023e 74c0 d23d e5e3 72bd
000003d0: 246b 2bb9 345d 48bd 8b89 0fbe 8c6c 7a3d
000003e0: cffc 16be 7cdb f03c 30dd 213c 099a ee3d
000003f0: 5557 c3bd 1ef3 28bc 81c0 a9bc 0138 4dbe

bias f4 [48]
0.056521293 0.053717904 -0.10000295 0.06881446 0.07575845 0.008491754 -0.1711368 -0.010876889
0.0401881 -0.06318565 -0.16802132 -0.042486336 0.043715037 -0.13544671 -0.0496636 -0.0071599204
0.07966232 -0.11631908 -0.13642421 -0.104407646 -0.11598706 -0.13586178 0.10480002 0.10043872
-0.081572555 -0.01396159 0.025801921 0.11077938 -0.12224936 -0.029764889 0.04423336 -0.13661131
1.6339724e-05 -0.09558393 -0.13689055 0.0016503446 -0.069360845 0.055903398 0.015909232 0.09289466
0.072138876 -0.10183824 -0.04546709 -0.11720552 0.0883285 -0.023383778 -0.031040233 0.060704492
00000000: df82 673d 4e07 5c3d 59ce ccbd 98ee 8c3d
00000010: 3f27 9b3d ff20 0b3c 7c3e 2fbe fb34 32bc
00000020: 479c 243d 7a67 81bd c80d 2cbe 2706 2ebd
00000030: 8a0e 333d 8bb2 0abe 0f6c 4bbd c49d eabb
00000040: 0026 a33d b338 eebd cab2 0bbe add3 d5bd
00000050: a08a edbd 5a1f 0bbe 65a1 d63d d1b2 cd3d
00000060: 830f a7bd 27bf 64bc 8d5e d33c 4de0 e23d
00000070: df5d fabd 7fd5 f3bc 0a2e 353d d6e3 0bbe
00000080: 4a11 8937 82c1 c3bd 092d 0cbe 6050 d83a
00000090: 0f0d 8ebd f6fa 643d 1454 823c 8e3f be3d
000000a0: 8cbd 933d 9190 d0bd b33b 3abd 7309 f0bd
000000b0: 93e5 b43d 568f bfbc 1648 febc 46a5 783d

weight f4 [48, 48]
0.099734895 -0.04270016 0.0024622376 -0.09058602 0.10044934 -0.05171855 -0.084986374 -0.10456905
-0.059481435 -0.14236847 -0.11276757 -0.047541 0.09997084 0.070504874 0.14388388 -0.005641786
0.11896851 0.09360504 0.06589476 -0.07701027 0.0723808 0.043325074 0.074177854 0.06797058
0.061704725 -0.0586596 0.11120392 0.096752666 0.038370132 0.048009604 0.08373299 -0.0123948
0.049710415 -0.0967952 0.03410638 -0.02644073 -0.083383344 0.09110019 0.07591045 -0.025360512
0.00031397206 0.10995752 0.07138091 -0.06328293 0.08443758 0.040906638 -0.098540045 -0.102755316
-0.17478514 -0.0053295637 0.078170024 -0.051617373 0.054895446 -0.08813558 -0.10780017 0.03893115
0.16872631 -0.12414521 0.14136575 0.027728807 -0.0021567177 0.05498989 -0.022158546 -0.030265655
-0.09382325 0.045530267 -0.04849252 0.104403816 -0.008983027 -0.10819057 0.009707577 0.117127806
0.266126 -0.0810009 0.0124993175 -0.011394813 0.00916619 -0.14950226 0.13497296 0.09804589
-0.29622966 0.04712659 -0.07123002 0.06649307 0.0389377 0.11986591 0.10128637 0.17497127
-0.06931589 0.074627146 -0.1512875 0.055395756 -0.009810371 -0.11549165 -0.030202633 -0.14262365
0.08971354 0.09191825 -0.13528387 0.116422564 0.10889361 0.12311802 0.14067227 -0.059099786
0.15757872 -0.008748952 -0.00566173 -0.025599832 -0.035986558 -0.089782335 -0.026211752 -0.13191453
-0.038697712 0.02946037 -0.05325778 -0.021603612 8.967382e-05 -0.040052924 -0.15666038 0.05891842
0.08267184 -0.00419734 0.082447246 0.1064942 0.073850274 0.09184642 -0.13015617 -0.15494055
-0.029966388 -0.15294671 0.1025515 0.015354638 -0.09655957 -0.003282584 0.16439256 0.039091084
0.14512964 0.03263247 -0.11602365 0.0072752833 0.0021384154 0.13542318 -0.16188827 -0.1248479
0.09948469 -0.022177983 -0.06267632 0.047190744 0.085715085 0.13650934 0.036732458 0.052940655
0.039242014 -0.072905205 0.048802394 0.09635993 -0.010412552 0.12474363 -0.043191876 0.030587839
-0.07469449 0.14727572 0.1757335 0.018651547 0.13200071 0.039532006 -0.10457237 0.0029317276
-0.07972464 -0.052848507 -0.09543018 -0.124787815 0.038805813 0.05829642 0.095013626 0.0016025479
-0.033374734 0.020821735 0.027961738 -0.04099508 0.12580448 -0.037758697 0.040296964 0.05136922
-0.094057575 0.060845234 -0.082894355 0.078219526 -0.04168716 -0.12281236 0.04955291 0.09321458
-0.02570597 -0.063974164 -0.14916639 -0.12974581 -0.13588396 -0.02661721 0.03390875 -0.10318899
0.0033566821 -0.13970345 0.06956708 0.01575565 -0.13490856 0.190867 0.04735747 0.11366189
0.14748788 0.026984857 0.1617742 0.123236224 -0.008467908 0.07238707 0.13346167 0.05949263
-0.011074726 -0.02108072 0.10895398 0.016794642 -0.048841678 0.08269579 0.011858571 -0.08836553
0.0828729 -0.09292869 -0.06019034 -0.004956405 -0.02619165 0.04529117 -0.08884417 0.00838787
0.07451198 -0.07514777 -0.14112306 -0.16166297 0.0046733813 0.12127953 -0.06567396 -0.14892362
-0.1388261 0.11170384 0.020046989 0.12665379 0.111227065 -0.09048966 -0.060784914 -0.14967413
0.010592384 -0.0048972024 0.05948926 0.11540362 0.09416899 -0.09737047 -0.13479953 0.10074648
00000000: cf41 cc3d 5de6 2ebd 7e5d 213b 2a85 b9bd
00000010: 62b8 cd3d d5d6 53bd 560d aebd 4c28 d6bd
00000020: cea2 73bd 0ac9 11be aff2 e6bd 5aba 42bd
00000030: 83bd cc3d dc64 903d 4c56 133e bbde b8bb
00000040: c3a5 f33d 00b4 bf3d d5f3 863d 8fb7 9dbd
00000050: 633c 943d a275 313d 8fea 973d 2934 8b3d
00000060: 18be 7c3d 0c45 70bd e1be e33d 4326 c63d
00000070: 002a 1d3d b8a5 443d 347c ab3d 8f13 4bbc
00000080: 269d 4b3d 903c c6bd 22b3 0b3d 3b9a d8bc
00000090: e3c4 aabd bd92 ba3d f076 9b3d d9c0 cfbc
000000a0: 9e9c a439 6931 e13d 2830 923d 7b9a 81bd
000000b0: 9ced ac3d b88d 273d 5dcf c9bd 6171 d2bd
000000c0: e0fa 32be 9fa3 aebb 9b17 a03d bd6c 53bd
000000d0: 0cda 603d 6d80 b4bd 56c6 dcbd 4576 1f3d
000000e0: 97c6 2c3e d83f febd 2fc2 103e 8627 e33c
000000f0: b857 0dbb 143d 613d d785 b5bc aeef f7bc
00000100: 6726 c0bd f27d 3a3d 18a0 46bd abd1 d53d
00000110: 8c2d 13bc 0493 ddbd 870c 1f3c b4e0 ef3d
00000120: ab41 883e cde3 a5bd f0c9 4c3c 4fb1 3abc
00000130: ca2d 163c 1f17 19be 5a36 0a3e 49cc c83d
00000140: 6aab 97be d007 413d 0be1 91bd 852d 883d
00000150: 237d 1f3d 427c f53d 3a6f cf3d ab2b 333e
00000160: 7df5 8dbd 1ed6 983d 1ceb 1abe a9e6 623d
00000170: aebb 20bc e386 ecbd 836b f7bc ef0b 12be
00000180: bcbb b73d a33f bc3d db87 0abe f46e ee3d
00000190: 9d03 df3d 4d25 fc3d 640c 103e 9e12 72bd
000001a0: 515c 213e c457 0fbc 0986 b9bb bdb6 d1bc
000001b0: a466 13bd cddf b7bd 07ba d6bc 9a14 07be
000001c0: 7e81 1ebd e056 f13c d424 5abd 0ffa b0bc
000001d0: 440f bc38 890e 24bd 946b 20be 7154 713d
000001e0: db4f a93d d789 89bb 1ada a83d a219 da3d
000001f0: d03e 973d fa19 bc3d a947 05be bca8 1ebe
00000200: 127c f5bc 109e 1cbe 8506 d23d 0592 7b3c
00000210: 06c1 c5bd 9f20 57bb 8656 283e f91d 203d
00000220: dd9c 143e a0a9 053d cf9d edbd 8065 ee3b
00000230: a824 0c3b 60ac 0a3e 0ac6 25be 41b0 ffbd
00000240: a1be cb3d 9aae b5bc 715c 80bd 154b 413d
00000250: 648b af3d 1bc9 0b3e c674 163d 4dd8 583d
00000260: 3cbc 203d 534f 95bd 05e5 473d 5b58 c53d
00000270: 6999 2abc 9779 ff3d f7e9 30bd 5993 fa3c
00000280: 6df9 98bd 72cf 163e 7cf3 333e 21cb 983c
00000290: 322b 073e 50ec 213d 0a2a d6bd 3a22 403b
000002a0: ac46 a3bd ad77 58bd e670 c3bd c190 ffbd
000002b0: d8f2 1e3d 3ac8 6e3d 8196 c23d 960c d23a
000002c0: f2b3 08bd 5892 aa3c 0410 e53c 75ea 27bd
000002d0: e4d2 003e dda8 1abd 6e0e 253d 8868 523d
000002e0: 42a1 c0bd da38 793d 84c4 a9bd 8f31 a03d
000002f0: 28c0 2abd 0c85 fbbd fef7 4a3d 49e7 be3d
00000300: 5495 d2bc e304 83bd 13bf 18be 16dc 04be
00000310: 2a25 0bbe 560c dabc e7e3 0a3d c054 d3bd
00000320: c8fb 5b3b 6c0e 0fbe 2f79 8e3d fe11 813c
00000330: 7825 0abe a472 433e e8f9 413d 91c7 e83d
00000340: 1007 173e 590f dd3c 23a8 253e 4663 fc3d
00000350: fbbc 0abc ac3f 943d 2daa 083e 8bae 733d
00000360: c472 35bc 79b1 acbc 4423 df3d eb94 893c
00000370: 360e 48bd 695c a93d 744a 423c fdf8 b4bd
00000380: 44b9 a93d 6651 bebd 258a 76bd 5769 a2bb
00000390: df8f d6bc 3c83 393d eff3 b5bd 476d 093c
000003a0: bd99 983d 13e7 99bd 9082 10be fa8a 25be
000003b0: 2a23 993b 6761 f83d 1280 86bd 6f7f 18be
000003c0: 6e28 0ebe fcc4 e43d 9539 a43c 88b1 013e
000003d0: 04cb e33d a552 b9bd 9af9 78bd 2d44 19be
000003e0: ae8b 2d3c b678 a0bb 03ab 733d bc58 ec3d
000003f0: acdb c03d 2b6a c7bd e308 0abe 2c54 ce3d

bias f4 [48]
0.059063822 -0.104668915 0.09327439 0.12445757 0.0353756 0.0045626108 0.08377871 0.09056514
0.044968963 0.05003115 0.02166593 -0.110292405 0.042362098 0.09809686 0.0125022065 0.06304944
0.12741159 -0.10139881 -0.0945213 -0.13740261 -0.123879835 0.099195465 -0.048159175 -0.14715336
0.1048559 -0.056149088 0.13959074 -0.13513094 0.121767685 0.11800163 -0.15435247 -0.15763117
0.05680655 -0.072769724 0.01869232 -0.13046084 0.052904714 -0.051334467 -0.12628587 0.102032356
0.04300128 0.06932512 -0.043460686 0.07207119 0.12053281 -0.021252729 -0.057186753 -0.1338277
00000000: e8ec 713d a85c d6bd a506 bf3d 9ce3 fe3d
00000010: 01e6 103d f481 953b 2c94 ab3d 377a b93d
00000020: 6031 383d 77ed 4c3d c07c b13c fce0 e1bd
00000030: e183 2d3d 02e7 c83d 0ed6 4c3c 1120 813d
00000040: 2f78 023e 2eaa cfbd 6294 c1bd 45b3 0cbe
00000050: b6b4 fdbd fe26 cb3d 8e42 45bd 5faf 16be
00000060: b1be d63d 96fc 65bd e0f0 0e3e c45f 0abe
00000070: 5661 f93d d7aa f13d 930e 1ebe 116a 21be
00000080: fcad 683d 4b08 95bd a320 993c 8797 05be
00000090: 9db2 583d 1744 52bd 1551 01be 57f6 d03d
000000a0: 1c22 303d 54fa 8d3d d503 32bd 0f9a 933d
000000b0: e8d9 f63d 341a aebc a83c 6abd 210a 09be

weight f4 [48, 48]
-0.10120262 0.07739116 0.030126521 0.09081453 0.082423575 -0.0055005313 0.028000118 -0.117505245
0.030419145 -0.09560021 0.11091809 0.015421746 -0.061491247 0.13065144 -0.059451465 -0.024128783
-0.2382897 -0.087107554 -0.04580275 0.01980691 -0.041845914 -0.012637639 0.034677766 -0.019387038
-0.07464717 -0.02632507 0.14089142 -0.10087925 0.09332503 0.020450005 -0.04659796 -0.09824421
0.014920948 -0.04900897 0.13355638 -0.006165389 -0.1272295 -0.12669589 0.03779061 -0.09914152
-0.13293578 -0.031020407 0.03683036 -0.092447095 0.13214377 -0.07558291 0.049854957 -0.0013938965
-0.088058114 -0.021748748 0.05534023 0.090000615 -0.023750776 0.002201852 -0.112672225 -0.12760018
0.008059641 -0.04819827 0.01189745 0.038853306 0.021487927 -0.1119966 -0.089463644 -0.041784164
-0.08895349 -0.06463261 -0.113191396 0.06814897 -0.067248456 -0.08995215 0.0027998022 0.098037206
0.047276914 -0.0137677975 -0.095899284 0.14471851 0.026873056 0.114437394 -0.09622083 -0.10704901
0.020550324 0.042179197 0.057159584 0.062997386 -0.09659254 -0.09310684 0.0048282426 -0.15728693
0.13006663 -0.06630556 -0.12880634 0.08783537 0.1557043 0.15080883 0.10071806 -0.08305885
-0.0341419 -0.05937994 -0.042505406 0.07414475 -0.05741313 -0.03984481 -0.12080095 0.052815005
0.08251013 -0.03516505 -0.072328046 -0.15593374 0.021131925 -0.025414774 -0.10391633 -0.061571006
0.029671358 0.06768257 -0.020956181 -0.14496914 0.014528786 0.0044387314 0.029524805 -0.072459884
-0.10294501 -0.000112911934 0.0009196255 0.0792747 0.12485879 -0.1535316 -0.05575141 0.012371984
-0.023132723 0.023449775 -0.11683445 -0.097056784 -0.10787403 -0.08346893 -0.061428383 -0.045335345
0.074116185 0.082875036 0.064339496 0.10168173 -0.10686281 0.0076367985 -0.091426425 0.10151975
0.08920578 0.0006778715 -0.054859597 0.053623155 0.06132021 0.0063540153 0.0815146 -0.065600604
-0.06527501 0.047093615 -0.094776124 -0.14418231 0.120219156 0.07506849 0.026597373 -0.02635964
0.094604716 0.08242372 0.0921271 0.06199606 -0.0052635213 -0.087955914 -0.025723856 -0.057523742
-0.14435188 -0.13060576 0.020803433 0.03197191 0.003004631 0.105175726 0.068597525 0.09028968
0.14198802 -0.051304467 -0.021921057 0.0571207 0.10266506 0.11732761 -0.124447875 0.008969045
-0.16189794 -0.07400252 0.07958362 0.02823105 0.0052076187 -0.03529447 0.025961205 -0.07698697
0.06557239 0.02161431 -0.12319978 0.061176807 0.050480634 0.11502915 0.0149475625 0.03452876
0.086871 0.036623817 -0.007775688 -0.1421337 0.021472696 -0.1271297 -0.10727801 0.027417123
-0.04734528 0.05216319 0.06283168 -0.003368123 0.048513703 -0.104935326 -0.10862435 -0.019766191
-0.1384854 0.020366358 -0.019502182 -0.14081584 0.0839786 -0.036682967 0.020547094 -0.1166802
0.024434578 0.034482017 0.074206784 0.03996988 -0.10758546 -0.08174545 0.07926531 -0.010326469
-0.055923034 0.092435114 0.029181119 -0.13904637 0.06597099 -0.08966435 -0.1512088 0.10760247
-0.07481282 0.040729024 -0.0264047 -0.13121286 -0.042287577 -0.014951656 0.11040659 0.12680387
0.11535482 -0.08998718 -0.0033272295 -0.018443298 0.02892522 -0.13855255 0.06704681 -0.017534023
00000000: 5243 cfbd 427f 9e3d e5cb f63c f8fc b93d
00000010: b1cd a83d cd3d b4bb 8160 e53c 97a6 f0bd
00000020: 9231 f93c 0bca c3bd 0629 e33d 7eab 7c3c
00000030: 3fde 7bbd 7ec9 053e 6183 73bd baa9 c5bc
00000040: 3702 74be 7265 b2bd aa9b 3bbd 1a42 a23c
00000050: 9f66 2bbd 1a0e 4fbc 460a 0e3d 91d1 9ebc
00000060: 9ee0 98bd aca7 d7bc d745 103e c899 cebd
00000070: 3121 bf3d c586 a73c 81dd 3ebd 4334 c9bd
00000080: fe76 743c a1bd 48bd 01c3 083e 0807 cabb
00000090: 7348 02be 91bc 01be 54ca 1a3d b60a cbbd
000000a0: 5120 08be 821e febc 6edb 163d e754 bdbd
000000b0: b250 073e 36cb 9abd b634 4c3d 68b3 b6ba
000000c0: d057 b4bd 6e2a b2bc 70ac 623d 3e52 b83d
000000d0: fd90 c2bc f24c 103b b2c0 e6bd 9fa9 02be
000000e0: 960c 043c 8d6b 45bd 86ed 423c a524 1f3d
000000f0: 7307 b03c 795e e5bd b738 b7bd df25 2bbd
00000100: 3f2d b6bd 1a5e 84bd e4d0 e7bd b091 8b3d
00000110: 8fb9 89bd d538 b8bd e37c 373b bbc7 c83d
00000120: 70a5 413d 5492 61bc d866 c4bd 1731 143e
00000130: e224 dc3c 275e ea3d 6d0f c5bd 833c dbbd
00000140: 2759 a83c 18c4 2c3d 2b20 6a3d c604 813d
00000150: 4fd2 c5bd cdae bebd 3c36 9e3b d30f 21be
00000160: 3030 053e 36cb 87bd cfe5 03be 08e3 b33d
00000170: f370 1f3e a16d 1a3e 4545 ce3d c21a aabd
00000180: 60d8 0bbd 6138 73bd 261a 2ebd 34d9 973d
00000190: 082a 6bbd 5034 23bd 7d66 f7bd 8c54 583d
000001a0: 12fb a83d 3a09 10bd ba20 94bd 18ad 1fbe
000001b0: dc1c ad3c a532 d0bc 16d2 d4bd e131 7cbd
000001c0: 5911 f33c 299d 8a3d 4cac abbc ca72 14be
000001d0: 250a 6e3c c772 913b 01de f13c d965 94bd
000001e0: d5d4 d2bd 22cb ecb8 0613 713a c65a a23d
000001f0: f7b5 ff3d 6337 1dbe 975b 64bd ddb3 4a3c
00000200: d680 bdbc be19 c03c e646 efbd b5c5 c6bd
00000210: 0fed dcbd c2f1 aabd 549c 7bbd 8eb1 39bd
00000220: 3aca 973d 63ba a93d 6dc4 833d 833e d03d
00000230: e4da dabd 1c3e fa3b c73d bbbd 96e9 cf3d
00000240: 85b1 b63d 30b3 313a 75b4 60bd f4a3 5b3d
00000250: e72a 7b3d 5835 d03b 20f1 a63d 9c59 86bd
00000260: e8ae 85bd 3ce5 403d fc19 c2bd 87a4 13be
00000270: 7635 f63d 82bd 993d bce2 d93c 2cf0 d7bc
00000280: 1ec0 c13d c4cd a83d 22ad bc3d 95ef 7d3d
00000290: 9e79 acbb 3b22 b4bd d6ba d2bc 049e 6bbd
000002a0: fbd0 13be 84bd 05be f66b aa3c faf4 023d
000002b0: 58e9 443b 5f66 d73d dc7c 8c3d cce9 b83d
000002c0: 4f65 113e a224 52bd ca93 b3bc 65f7 693d
000002d0: 0f42 d23d 7549 f03d 87de febd e7f2 123c
000002e0: 93c8 25be a28e 97bd bdfc a23d ce44 e73c
000002f0: aca4 aa3b ef90 10bd 98ac d43c 58ab 9dbd
00000300: d14a 863d 7e10 b13c 2b50 fcbd 8894 7a3d
00000310: c8c4 4e3d 6794 eb3d 9fe6 743c 076e 0d3d
00000320: 6ce9 b13d db02 163d 33cb febb 7f8b 11be
00000330: 82e7 af3c 4a2e 02be 93b4 dbbd e099 e03c
00000340: 20ed 41bd 12a9 553d e5ad 803d babb 5cbb
00000350: 4eb6 463d 55e8 d6bd 7176 debd b5ec a1bc
00000360: 1ecf 0dbe 59d7 a63c 0ac3 9fbc 0732 10be
00000370: f9fc ab3d e140 16bd 6152 a83c 07f6 eebd
00000380: 062b c83c 043d 0d3d baf9 973d 75b7 233d
00000390: c455 dcbd 296a a7bd da55 a23d 5a30 29bc
000003a0: 8d0f 65bd 9f4e bd3d 3e0d ef3c 2c62 0ebe
000003b0: cc1b 873d f1a1 b7bd 7bd6 1abe af5e dc3d
000003c0: 7737 99bd 7ad3 263d ab4e d8bc aa5c 06be
000003d0: bd35 2dbd caf7 74bc da1c e23d e0d8 013e
000003e0: 263f ec3d 334b b8bd a60d 5abb 6616 97bc
000003f0: 95f4 ec3c b8e0 0dbe d74f 893d 83a3 8fbc

bias f4 [48]
0.08795473 0.104392834 -0.018175146 0.14365973 -0.008364414 0.0793844 0.09953762 0.13498417
0.06425674 -0.042544544 -0.006739642 -0.044447012 0.044189297 0.0405967 0.04297053 -0.08937055
0.084539086 0.02451285 -0.078942955 -0.096061625 0.10261434 -0.07513878 -0.0064719673 0.028038802
0.03585097 -0.045588817 0.015249819 -0.111919545 -0.06617317 -0.13389917 0.09274975 -0.092553906
-0.036055654 0.12089031 0.10792517 0.075374454 -0.11288582 -0.009406608 0.15547526 -0.036067307
-0.025831584 0.015209843 -0.09397065 0.10195913 0.07383308 0.10251769 0.11701619 -0.10565941
00000000: 9c21 b43d e9cb d53d 0be4 94bc 891b 133e
00000010: e50a 09bc 4a94 a23d 61da cb3d 4a39 0a3e
00000020: 0a99 833d 3043 2ebd 37d8 dcbb 120e 36bd
00000030: d6ff 343d ba48 263d de01 303d e807 b7bd
00000040: d422 ad3d 2ccf c83c d8ac a1bd f5bb c4bd
00000050: 7827 d23d 5ce2 99bd cc12 d4bb a1b1 e53c
00000060: 77d8 123d 57bb 3abd 60da 793c 1336 e5bd
00000070: cd85 87bd dd1c 09be 95f3 bd3d e78c bdbd
00000080: 18af 13bd 5795 f73d df07 dd3d ec5d 9a3d
00000090: ae30 e7bd 2c1e 1abc e834 1f3e 50bb 13bd
000000a0: c29c d3bc b532 793c af73 c0bd f3cf d03d
000000b0: cc35 973d cbf4 d13d 2fa6 ef3d f663 d8bd

weight f4 [4, 48]
0.07414534 -0.074024715 0.07764633 -0.013703588 0.13572843 -0.10112176 -0.10668008 -0.13024695
-0.055500895 0.08457116 -0.015997445 0.10070989 0.10640865 0.019973433 0.1119796 0.013269604
0.08413387 -0.05011647 -0.13252574 -0.04328604 -0.05455198 0.08698425 -0.1166849 0.09542287
0.10885058 -0.032541774 0.09237376 0.12170871 -0.08764103 0.13548112 -0.1040335 -0.0929731
-0.0353076 0.06785485 -0.003016978 0.14566843 0.12678011 -0.06647848 0.022945605 0.09388469
-0.09437967 -0.09614214 0.00155199 0.08276464 -0.023208726 0.065811165 0.04538818 -0.025448015
0.034643415 0.14541852 -0.08252845 -0.13265842 -0.054445423 -0.055787336 -0.05830361 0.07155115
-0.13035922 -0.0118591385 -0.059745986 -0.017700551 -0.09187505 -0.23597588 -0.11400169 0.010388416
-0.021933032 -0.1345147 0.046765525 -0.1124888 0.14894013 0.042670228 0.07967457 0.087229334
-0.035453133 -0.10989564 -0.013929097 0.038926385 -0.16062818 -0.093583174 0.11727275 -0.12624626
0.008725598 0.0021741483 -0.0020010343 0.09885016 -0.10011644 -0.14987306 -0.16547039 -0.11006028
-0.14136007 0.06604309 0.059627034 0.13087799 0.00333446 0.03308407 -0.044465728 -0.120932445
0.17188522 -0.0426888 0.0044855364 -0.009481776 0.089995064 -0.1506207 -0.14202456 -0.07586966
0.12490709 -0.14770319 -0.044389207 0.043661486 0.06896653 0.12621105 0.017769072 0.2469918
-0.088015534 0.043462455 -0.086699665 -0.0611356 0.092946425 0.06255042 0.17597492 0.12483934
0.02245997 -0.07192544 0.038806446 -0.07293905 0.014471877 0.09549201 -0.055687804 -0.1844968
0.1697465 -0.03967897 0.13686109 -0.10534429 -0.14075705 -0.003001354 -0.050138026 0.013419392
0.069502294 0.10600341 -0.0918101 -0.07200248 -0.0034970187 -0.022973344 0.13118318 -0.009628596
0.08989925 -0.10727205 0.10572278 -0.17376572 -0.086111926 0.10738291 -0.032022905 -0.09280933
0.020342002 -0.10681987 -0.08239573 -0.0011141568 0.0019624545 -0.03985995 0.0870246 0.032755148
-0.010917036 -0.14042598 -0.13139606 0.011834006 0.03841963 -0.005540432 -0.078425094 0.0076415422
0.0135048125 -0.016505826 -0.11366334 0.030928198 0.12364692 -0.035801914 -0.13018043 0.12213209
-0.060910325 -0.017917842 -0.07720143 -0.069850855 -0.0149666825 0.15889503 -0.17682846 -0.16034986
-0.008551482 -0.15339132 -0.122365855 0.1133163 -0.17940219 -0.053351443 0.11148852 -0.09374269
00000000: 83d9 973d 459a 97bd 0a05 9f3d 0485 60bc
00000010: 65fc 0a3e ed18 cfbd 167b dabd 755f 05be
00000020: e854 63bd a533 ad3d 130d 83bc fd40 ce3d
00000030: c7ec d93d 539f a33c 8f55 e53d c168 593c
00000040: 614e ac3d ed46 4dbd d4b4 07be b44c 31bd
00000050: e671 5fbd cc24 b23d 7ef8 eebd 116d c33d
00000060: 0eed de3d 864a 05bd 742e bd3d 6b42 f93d
00000070: 247d b3bd 90bb 0a3e 840f d5bd ae68 bebd
00000080: b49e 10bd 7cf7 8a3d 7eb8 45bb 1b2a 153e
00000090: a5d2 013e df25 88bd 6cf8 bb3c 9e46 c03d
000000a0: 214a c1bd 2ce6 c4bd 256c cb3a 8280 a93d
000000b0: 3a20 bebc 01c8 863d f5e8 393d 5b78 d0bc
000000c0: 41e6 0d3d 98e8 143e ad04 a9bd 9cd7 07be
000000d0: 2a02 5fbd 4381 64bd c4cf 6ebd 6989 923d
000000e0: e37c 05be d54c 42bc 35b8 74bd bf00 91bc
000000f0: fc28 bcbd a9a3 71be b879 e9bd 2d34 2a3c
00000100: e7ac b3bc 39be 09be 358d 3f3d 8760 e6bd
00000110: c383 183e fac6 2e3d 6c2c a33d 4ba5 b23d
00000120: 4e37 11bd f710 e1bd de36 64bc 4671 1f3d
00000130: b77b 24be 89a8 bfbd b22c f03d b346 01be
00000140: d0f5 0e3c 287c 0e3b c923 03bb f471 ca3d
00000150: d909 cdbd 5378 19be 1271 29be 4967 e1bd
00000160: b2c0 10be 9941 873d 7a3b 743d e104 063e
00000170: f586 5a3b 2983 073d b221 36bd 6eab f7bd
00000180: ae02 303e 73da 2ebd 68fb 923b 7359 1bbc
00000190: 554f b83d 503c 1abe e36e 11be 8d61 9bbd
000001a0: 4acf ff3d 813f 17be 75d1 35bd 63d6 323d
000001b0: 533e 8d3d 783d 013e 7290 913c 6beb 7c3e
000001c0: 7d41 b4bd b005 323d 988f b1bd 5369 7abd
000001d0: b25a be3d 6f1a 803d c532 343e c5ab ff3d
000001e0: f9fd b73c a54d 93bd 82f3 1e3d 1261 95bd
000001f0: 741b 6d3c 5191 c33d e518 64bd bbec 3cbe
00000200: 07d2 2d3e 6a86 22bd 5025 0c3e bfbe d7bd
00000210: 9e22 10be 5db2 44bb 885d 4dbd 02dd 5b3c
00000220: 3857 8e3d 5118 d93d ef06 bcbd 0976 93bd
00000230: 3d2e 65bb 9832 bcbc e254 063e 42c1 1dbc
00000240: 191d b83d 73b1 dbbd 2f85 d83d a4ef 31be
00000250: 735b b0bd 92eb db3d 732a 03bd d112 bebd
00000260: 45a4 a63c 60c4 dabd 18bf a8bd e608 92ba
00000270: 869c 003b 3044 23bd f439 b23d 432a 063d
00000280: 5edd 32bc d4cb 0fbe b08c 06be 6be3 413c
00000290: e75d 1d3d 838c b5bb 569d a0bd e765 fa3b
000002a0: 4a43 5d3c 3a37 87bc 53c8 e8bd 225d fd3c
000002b0: 993a fd3d 07a5 12bd 054e 05be 6420 fa3d
000002c0: 1b7d 79bd 70c8 92bc c91b 9ebd f70d 8fbd
000002d0: d136 75bc 61b5 223e 8512 35be c132 24be
000002e0: 841b 0cbc 9d12 1dbe f39a fabd 6012 e83d
000002f0: 35b5 37be 0b87 5abd 1854 e43d 2bfc bfbd

bias f4 [4]
-0.010024468 0.019805793 0.06159984 0.09125252
00000000: ab3d 24bc c23f a23c 1d50 7c3d 9ae2 ba3d
