mPINNs-R1/mPINNs_result/result3/model.pth (torch, 35100 bytes, 10 tensors)

weight f4 [48, 2]
00000000: 4222 f0be d8f7 4abf fca6 233f 4de4 273f
00000010: 37d8 603e 6c48 963e 1d19 a7be 1379 debe
00000020: b6b0 7b3e f80d 163f 678d e0be cfcc 9cbd
00000030: 15a8 083f a174 643e 40d8 51bd 6036 9bbd
00000040: f3d7 44be 4dfb c93e 2f8a c1be 2201 e13c
00000050: 70e6 e7be 4586 7c3e dc46 b3bd 3a5e 5e3d
00000060: 4bd0 ae3e f718 88be ee01 003f 12e3 fbbe
00000070: be60 24bf 9a5a dcbe edbc c3be d7cb b03e
00000080: 836c 97be 254b c0be c671 c3be f2f8 0e3f
00000090: a770 6fbe b4c5 3d3f 913b 293f c5f9 f8be
000000a0: 5ddb d43e 2679 73bc 1c77 a33e 63d8 e7bd
000000b0: 61de d9be c172 17bf 0679 24bf 7d27 92be
000000c0: bcb4 b8be 6955 5bbe c3fa 26bf be94 14bd
000000d0: 0dcf 803e 2c9b 3fbf 5960 133e 8c91 e93e
000000e0: 54bc 863e 8037 acbe b9fd a23e 4505 0bbf
000000f0: 23ae 8abd f6dc c8be c276 debe 9e6f 1f3e
00000100: 3042 853e c45c 513d b31e c03e 012a 02be
00000110: 06ef 37bf d565 653e d627 1bbf 4e1f 38be
00000120: d1fc 2a3f 40dc 2abf 268c 17bf 670c ec3d
00000130: 447f 163e 405b 8bbe 8358 d1be 5695 4bbf
00000140: 6a27 dc3e d54a 033f 0196 3bbf 405e 9f3e
00000150: 9bd1 8e3e 04f4 13bf a5a1 cfbe 0114 943e
00000160: 9ddc 41be a9dc 403e 6833 19bf b18c 2abe
00000170: 9891 1a3f 7af9 13be d1f4 973e 46cc 91be
-0.46901137 -0.7928443 0.6392667 0.65582734 0.2195748 0.29352129 -0.32636347 -0.43451747
0.24579129 0.58615065 -0.4385788 -0.07656252 0.5338147 0.22310115 -0.051231623 -0.075787306
-0.19223003 0.3944954 -0.37800738 0.02746636 -0.45292997 0.24660595 -0.0875375 0.05428908
0.3414329 -0.26581547 0.50002944 -0.49196678 -0.64210117 -0.43037874 -0.38230076 0.34530517
-0.29574975 -0.3755733 -0.3817274 0.5584861 -0.23382817 0.74129796 0.66106516 -0.4862806
0.4157361 -0.014860427 0.3192681 -0.11320569 -0.42552474 -0.59159476 -0.6424717 -0.28545752
-0.3607539 -0.214193 -0.6522638 -0.036274664 0.25157967 -0.7484615 0.14392222 0.45618856
0.26315558 -0.33636093 0.318342 -0.54304916 -0.06771495 -0.3923108 -0.4344998 0.15569922
0.2602706 0.05111386 0.37523422 -0.12711336 -0.71849096 0.22402127 -0.6060766 -0.17980692
0.6679202 -0.66742325 -0.59198225 0.11525803 0.14696985 -0.27218056 -0.40887842 -0.79524744
0.4299882 0.5128606 -0.7327576 0.31126595 0.2789429 -0.57794213 -0.40553012 0.28921512
-0.18931814 0.18834175 -0.59844065 -0.16655232 0.6037841 -0.14450637 0.29678968 -0.2847616

bias f4 [48]
00000000: 1fc2 ccbe 4b07 833e 6d7d dbbe da93 193e
00000010: 927d 10bf 2df0 433e 4383 663e db79 62bc
00000020: 6504 393e 8e12 46be ab57 063f 8b87 3b3e
00000030: e757 ec3e b1aa 193f a97a ab3e 711f 8ebe
00000040: fd9d 793e 8b9a 223f 643d 0d3f c745 003e
00000050: d497 623c 135f 063f 9eb7 a7be aabe 883e
00000060: 1bd7 f7be cb68 313f 4d7e 02bf e2ff ff3e
00000070: 3bb6 39be 2ab1 823e df8c 443e 7be3 71be
00000080: 06f6 3cbe 9711 1fbf 1010 283f 5c0a a0bd
00000090: 71e8 22be 9bd0 e8be 0f3f c23e 6a43 f7be
000000a0: bba3 c3be 1333 613d 35e5 053f 7b09 8b3e
000000b0: 5467 563d e431 00be 2c47 febc 9f48 f8bd
-0.39991853 0.25591502 -0.4286913 0.14997807 -0.56441605 0.19134589 0.2251101 -0.013822998
0.18068083 -0.19343016 0.5247752 0.18313424 0.46160814 0.6002608 0.3349202 -0.27758363
0.24376674 0.63517064 0.551718 0.12526618 0.013830144 0.5248882 -0.32757276 0.26707965
-0.484063 0.69300526 -0.5097397 0.4999991 -0.18135922 0.2552579 0.19194363 -0.23621933
-0.18453225 -0.62136215 0.6564951 -0.07814476 -0.15908982 -0.45471653 0.37938735 -0.4829362
-0.38210854 0.05498035 0.5230287 0.2715567 0.052344635 -0.12519032 -0.031039797 -0.121232264

weight f4 [48, 48]
00000000: e93f d43c b305 423d 29a9 0dbe 91d0 d03d
00000010: f5db bdbd d516 c93b 42b7 4cbc e10c 933d
00000020: b20d b73d c7a2 833c 7730 6ebd 8cd2 c1bd
00000030: c707 203e a9fb f63d 6273 0f3d 1cc4 083d
00000040: 0350 d43d 80f0 08be f07e b3bc 1d30 eebc
00000050: b1f6 44bd c1ac 003e 94d5 06be a22b 7abc
00000060: 09b6 8fbd d567 ef3d 9c08 cb3d 6c1b bb3d
00000070: 3a78 af3d 9e7f afbc c4cb e53d c6de 6c3d
00000080: cecb febc 504d 8d3d c34b d4bd efd5 9d3d
00000090: d3f4 efbd d330 90bd 993d a13c 40dd ed3a
000000a0: 4e2e 43be 01d3 e03d db76 b63c 0a18 f73d
000000b0: f904 1ebe 63b0 b33d 6d0d 27be bb6a 5dba
000000c0: ea9a eb3d 42ad 8b3c d23b 5ebc 55e1 17bc
000000d0: a029 ff3d 7660 a3bd db60 823c 6ef6 c9bd
000000e0: 5202 edbd 1fbe 90bd 824d 533d c298 1b3c
000000f0: fbea 173e e883 d23d 43af d2bb 4ba7 0cbe
00000100: 9dab 733c 143e 0fbe f523 45be 2677 c63d
00000110: 51cb d0ba 01d2 0f3e 8d0b 193e f98e eb3b
00000120: 828f fabd 894f f6bd 5ee3 be3d b99f f6bd
00000130: 8687 83bd 8752 91bd bbdf 343d fe7a d2bd
00000140: a61e 703c 7b8c b93b 9b83 8b3d 818c bfbd
00000150: 3db2 273e b04b 0bbe a067 00be ce2b f43d
00000160: 0c62 ecbd 57ea 883d 36bd 8b3d 9aee c3bd
00000170: af59 19be 5288 eb3d ef9b 06bd bd28 43bd
00000180: 031c b33d d6ba 8bbd 886c 953e d4b6 d6bc
00000190: ef49 463d 8a97 24be dda2 cfbd d37e ddbd
000001a0: bc2d 53bd 2e6d 8e3d 1955 0abe 1e09 03be
000001b0: 743b dabd 62d7 19be 6914 29be ba4e e33c
000001c0: 6ca2 45be 18ba cd3a f9d3 1dbe 2d42 813c
000001d0: 3bf8 973e dc24 27be 6fa1 ddbd f541 81be
000001e0: 3906 57bd cfb8 81be 11ad 223e ca2a c03d
000001f0: 7501 153c 8a98 a2ba d031 6cbd 623f 123d
00000200: c8ba 683e c0b3 1e3e a70f a9bd edcf d0bc
00000210: d313 fcbd 5ea6 aa3d 5c6b 87bd 75d7 8d3d
00000220: f13d 113e 0096 65be 3cc5 6ebe 388f d6bd
00000230: 35da 03be cb33 f0bd 669f b53d 04ad 0e3b
00000240: 7957 09be 8c85 d0bc afa3 e1bb 42ea d2bd
00000250: a1ea 8d3c 0b20 0c3d 8936 0f3d db28 723d
00000260: 903c a33d 0ead 983d f26c 05bd 06e6 753d
00000270: 5441 57bc 1cd9 e23d a87c 813d 5e5c 8f3d
00000280: b45e 2c3d ab74 1abe 4d8e 02be ec7d 80bc
00000290: 645f e03d 5733 9f3d 2922 16be fba9 033d
000002a0: c20f 89bd ee3e a2bd 6dfb 0d3d 3f97 8a3d
000002b0: 00be e83d 4508 a8bd 6a5d 30bd dcd6 57be
000002c0: a723 283e 8bea 1e3e 354b 0d3e c956 dfbd
000002d0: 7944 e2b9 eb5a 26be 7828 ee3d 4221 81bd
000002e0: 8a20 79bd 9587 0bbe 1874 013e 3522 af3d
000002f0: cc47 b2bd b67b 25be 5427 93bd 66fd c9bd
00000300: 69f4 b73c b477 b53d c64d d6bd 95af 0bbc
00000310: d85d f5bc d8f8 0cbe 41dd 8f3d 5ce1 4f3d
00000320: f1ca 923b 0dbd 743d 2c86 c43d 515f 05bd
00000330: 3a3c 65bd 80f5 c5bd a2c9 a5bd c8fd 3dbd
00000340: 538c cd3d 95fa 15be dfcf ee3d 3f2e 09be
00000350: abe1 24be 3d71 c03d 3862 673d 2bbe 103e
00000360: ca24 923d 23bb 793d a65c b9bd 7468 a93d
00000370: be58 4cbc c237 9abd 38d9 16be a8a9 9b3d
00000380: d80b 79bd 0649 2dbc c893 ee3d 1eae 8cbc
00000390: 4222 fe3c 19f1 003e 66ff 2fbe 5c9a cabc
000003a0: 877c c3bd ac62 05bd 9666 8cbd 9807 b4bc
000003b0: 5fae d93d 47d6 b7bd ba4a 1dbe 1e8c 173e
000003c0: aa09 843c 6cd4 41bd 420a 853d c621 96bd
000003d0: 0743 d73d a078 483d 0a2e abbd 3a57 34be
000003e0: dc10 673d ccc4 3fbe 04f8 163e 0bf2 fa3c
000003f0: 0f5a cebd 9982 263e 2a1a 823c 48d5 17be
0.025909381 0.047368716 -0.1383406 0.10196031 -0.09270469 0.006136755 -0.012494864 0.07180191
0.08938159 0.01606883 -0.05815169 -0.09463987 0.15627967 0.12059719 0.035022147 0.03339015
0.103668235 -0.13372993 -0.021911114 -0.029075677 -0.048086826 0.125659 -0.13167411 -0.015269192
-0.07017142 0.11689726 0.099137515 0.0913609 0.08567853 -0.021423157 0.11220506 0.05782964
-0.031103041 0.06899512 -0.10366013 0.0770682 -0.117166184 -0.070405625 0.019682692 0.0018147603
-0.19060633 0.10977746 0.022273472 0.12065132 -0.15431584 0.087738775 -0.16313715 -0.0008446385
0.11504157 0.01705039 -0.013564067 -0.009270032 0.12459111 -0.07977383 0.015915325 -0.09861456
-0.11572708 -0.07067513 0.05158759 0.0094968695 0.14835732 0.10279065 -0.006429584 -0.13735692
0.014872459 -0.13988525 -0.19251998 0.096906945 -0.0015929734 0.14044954 0.14945813 0.0071886745
-0.12234403 -0.12026889 0.093207106 -0.120421834 -0.064223334 -0.07095819 0.04415868 -0.10277365
0.014655745 0.0056624985 0.06812211 -0.09352971 0.16376586 -0.13603091 -0.1253953 0.119224176
-0.115421385 0.06685322 0.068231985 -0.09566994 -0.14975618 0.115006104 -0.032863554 -0.047646273
0.08745577 -0.068227455 0.29184365 -0.026210226 0.048410352 -0.16073433 -0.101384856 -0.108152054
-0.051557288 0.06954418 -0.13509025 -0.12796447 -0.10655871 -0.15023568 -0.16511692 0.0277475
-0.1930024 0.0015695719 -0.15412892 0.015778625 0.29681572 -0.16322654 -0.10821807 -0.25245634
-0.05249617 -0.2533631 0.15886332 0.09383161 0.009094586 -0.0012405079 -0.057664692 0.035704978
0.22727501 0.15498257 -0.082549386 -0.025489772 -0.12308469 0.08332513 -0.06612274 0.06925861
0.14183785 -0.22420502 -0.23317426 -0.104765356 -0.12876208 -0.11728629 0.088682935 0.0021770606
-0.13412274 -0.025454305 -0.0068859677 -0.102985874 0.017323794 0.034210246 0.03496412 0.059120994
0.07970536 0.074548826 -0.0325746 0.06003382 -0.013138134 0.110765666 0.063226044 0.070000395
0.042082503 -0.15083568 -0.12749596 -0.015685044 0.10955694 0.07773464 -0.14661469 0.032144528
-0.06692459 -0.07922159 0.034663606 0.06767129 0.113643646 -0.08204702 -0.043057837 -0.21078056
0.1641985 0.15519159 0.1379822 -0.10905225 -0.00043157095 -0.1624562 0.116288126 -0.063051715
-0.060822047 -0.13625939 0.12641943 0.08551446 -0.087051004 -0.16160473 -0.071852356 -0.09862785
0.022455411 0.08860722 -0.10464053 -0.008525749 -0.029951975 -0.13766801 0.07024623 0.05075203
0.004479759 0.059750605 0.09595904 -0.032561604 -0.05596564 -0.09665966 -0.08095099 -0.046384603
0.1003653 -0.1464637 0.11660742 -0.13396548 -0.1610171 0.093965985 0.056490153 0.14135043
0.07135923 0.060969483 -0.090508744 0.08271876 -0.01247233 -0.07530166 -0.147313 0.07600719
-0.06080231 -0.010576492 0.11649281 -0.01717287 0.031022195 0.12591971 -0.1718727 -0.024731807
-0.09545236 -0.032564804 -0.06855504 -0.021976277 0.10628962 -0.08976417 -0.15360537 0.14799544
0.01611789 -0.047321722 0.06496097 -0.073306605 0.10510831 0.048943162 -0.08358391 -0.176114
0.056412563 -0.18727416 0.14743048 0.030632993 -0.10075771 0.16260757 0.015881617 -0.14827454

bias f4 [48]
00000000: 05e9 d33d 9fb7 1c3d 124b d4bd f69c b2bc
00000010: 25b1 07be 95f5 d83d c56a 20be acd6 933d
00000020: e3c4 823d 8027 d93d e191 a8bd eb03 673d
00000030: 7369 a1bd 1572 bebd 3831 bf3d 5e96 9a3b
00000040: dd6f 8a3d 16d1 113c a6d5 51bd 8d2b f93d
00000050: ed6b f03d 8dc5 6b3c e5c6 8cbd f025 693d
00000060: daf5 c53c 4dfb a2bc f80e d9bd 5c3d 043d
00000070: d0e8 f83b 1466 5ebc 4e3a c53d 59d4 99bd
00000080: 5601 a5bd 32b2 6bbd 28cc cc3c 71d7 e73d
00000090: 8631 fabd a25a ab3d 27b5 85bd 85a5 cdbd
000000a0: 3b65 d33d d24c 2cbd 91e7 4fbd 140c 1e3d
000000b0: 1db2 2d3d c21b ae3b f302 783d a608 1ebd
0.10347179 0.038261052 -0.10365881 -0.02180336 -0.13251169 0.10593716 -0.1566573 0.0721868
0.063852094 0.10603237 -0.08230949 0.05640022 -0.07881441 -0.09299103 0.093355596 0.004717632
0.067596175 0.008899948 -0.05122914 0.1216651 0.11739335 0.0143903615 -0.068738736 0.056920946
0.024165083 -0.01989522 -0.10598558 0.03228508 0.007596113 -0.013574142 0.09630261 -0.07511205
-0.080568954 -0.057542987 0.024999693 0.11320389 -0.12216477 0.08366896 -0.06528693 -0.10041336
0.103220426 -0.04206545 -0.05075795 0.038585737 0.04240619 0.0053133676 0.060549688 -0.038582467

weight f4 [48, 48]
00000000: 4f6d c9bc 67d5 3bbc 3615 03be cc9e 0ebe
00000010: cbb4 efbd 5917 d5bb 83a2 c0bd 26fd bf3d
00000020: 8fdb 07bd 47ae c43c e58a 3e3c 0dc1 03be
00000030: 570c a93d 57ee 4ebd adb1 bcbd 7dba 0fbe
00000040: 7f62 92bd 1797 133e a8d0 f23d dba8 653d
00000050: 9b4f a23d 469d e8bd 5782 aa3d 44e6 0b3e
00000060: 8b72 c4bd b87b a7bd b9f2 4c3d 03d6 f6bd
00000070: caef 03be 4562 60bd 74d5 01be dea3 49bc
00000080: a5c6 c83d b6cc 9d3d 88f3 e8bc 60ed fe3d
00000090: 6f97 29be 64e3 d9bd 342b 4cbb 1f62 83bd
000000a0: 98b1 9cbd 26c7 ab3c 8cde 073d 7c1a 343e
000000b0: bcc8 18be 695e a03d ab53 4e3d f918 24bd
000000c0: 2422 033e 4e00 163c b712 90bd 7939 12bd
000000d0: f5ad f73c c115 603d 1c59 9fbc cf08 153d
000000e0: 10ac 1abe c5db 963d 39fd fe3d cc5c 02bc
000000f0: 150f aabd a53c 97bd 8e58 8e3a 9399 503c
00000100: 42b3 763d c1ba 56bc cf7a 863d bf38 0cbd
00000110: 640f 99bc c0bf 4ebd ee48 643d b7c7 e23d
00000120: 1c25 98bc 37c2 8dbd 65c2 ecbc 10e2 083e
00000130: 5113 c5bd 2de5 bebc 806e dbbd 121d 90bd
00000140: 2373 bcbb acdb 45bd 9cb3 f7bd a90a d13d
00000150: 4e6f 96bd 42e5 22bd 52c9 923d dad8 4c3d
00000160: e435 9ebd f48b 22be 26e6 c63d a593 ee3d
00000170: 0a3c e23d 2895 53bd 305d 113e d124 ff3d
00000180: ae18 15be 5f51 1a3e 991b a7bd 2096 ca3c
00000190: 29fb d83d 5ef7 86bd 2930 413e 074c 1ebc
000001a0: c2f2 ffbd 1b1f 8b3d b307 97bd cf97 2a3d
000001b0: 4630 0b3d 1754 603c a491 a83d bc26 d13c
000001c0: 8de8 1a3e 178c 30be df93 033e cfac d53d
000001d0: 143e 13be e6bf 13bc daa4 ccbd 0d29 92bd
000001e0: 5582 9abc 23f3 bfbd 3d7a 6ebe 1964 783d
000001f0: ea86 af3d 9399 043e 9d42 9dbd 6961 873d
00000200: ae4c 9abd 2ee2 3abe b460 d3bd 1f11 063e
00000210: a473 a1bd 94e1 09be 4728 1d3e 871c ad3d
00000220: de4e 223e d9f3 9f3d fb6d 6d3d cd70 943d
00000230: 5e85 4fbd 447a 6cbd 679b 8dbd db27 fdbd
00000240: 5f65 853d 258a 37be 07ad 93bb 2560 eb3d
00000250: 0cac 9dbd db20 1b3d ff06 7fbc 5493 8e3c
00000260: 7748 57bd 242c cebd 2427 1a3c 6c63 c2bd
00000270: 5feb 313e 6d4b 30bd 7c10 2e3d c1f5 8c3d
00000280: 71e8 c23d 6a11 d1bd d0e9 e3bd 1bd9 06be
00000290: e6ed d6bd fe56 e83c 37dc ca3d eb11 f53c
000002a0: 0a67 2c3c 27cc 4c3e 7247 a03d 1c11 e43c
000002b0: 7efd 313e 7f16 bb3d d8cb 213d a296 0a3e
000002c0: 4592 9e3b d899 12be d6f9 9e3d 0cb4 7c3d
000002d0: 43ee 303e c87c 04be 3748 803d b456 23be
000002e0: d319 303e c3a0 0dbb 85ee 2b3e 4b6e 873c
000002f0: 6422 dfbd a315 9bbd 03ca 8ebd b48d 82bb
00000300: 26b6 f73d 6840 8e3d b565 b03d 87ac d03d
00000310: dded 673d ece8 6e3c fa58 1cbe 17af 0f3e
00000320: 43f3 e03c 1f38 733d 2c02 a8bd 9ddc febd
00000330: 60e7 f3bc 4ed4 283d 2f43 4d3d b962 d93d
00000340: a2af c43d 16b8 093d b857 0d3e 2491 e2bd
00000350: fbf2 06bd f4d5 0a3d feaa 5f3e 1836 cf3b
00000360: 03fb eabc 3f6c 63bd b65e a2bb 04d2 f8bd
00000370: 6505 4ebc d804 98bd 4d55 b73d f0d0 0bbe
00000380: 73a7 14be c748 56bd 5f90 a13d 5945 803d
00000390: 4cdf 7bbd 04b7 393e 56b7 0dbe 1f1a 1a3d
000003a0: 9572 723d 1b19 2cbc 2cb0 2dbc b62c 90bd
000003b0: 2879 9bbd 133c ddbd 7033 7ebc c535 3abe
000003c0: 2de0 d2bd 5a79 15be 751a f2bd ca79 d23b
000003d0: 1227 b73a 3b14 0dbe 610b 9fbd 13bf 8b3d
000003e0: 4f98 0dbe 15a3 9c3d f118 c03c f54e 013e
000003f0: 061f 913c 34e5 983a ffbc debd 9fed a1bd
-0.024588255 -0.011464453 -0.1280106 -0.13927764 -0.117044054 -0.0065030274 -0.09405997 0.09374456
-0.03316837 0.024008883 0.011629795 -0.12866612 0.08254307 -0.050520267 -0.092135765 -0.14035983
-0.07147693 0.14413105 0.11856204 0.056069236 0.0792534 -0.113581225 0.083256416 0.13662058
-0.0959216 -0.08177894 0.050036166 -0.12052538 -0.12884441 -0.054781217 -0.12679082 -0.012307135
0.098035134 0.07705061 -0.028436437 0.124476194 -0.16561674 -0.106390744 -0.003115368 -0.064151995
-0.07651061 0.020968985 0.03317122 0.17588228 -0.14920324 0.07830507 0.05037276 -0.04006288
0.12805992 0.009155346 -0.070348196 -0.03569934 0.030234316 0.054708246 -0.01945167 0.036385354
-0.15104699 0.073661365 0.12450642 -0.007956695 -0.08303658 -0.07384614 0.0010860132 0.012731927
0.060229547 -0.013106049 0.06566393 -0.034233805 -0.018684097 -0.050475836 0.055733614 0.11073249
-0.018572383 -0.06921809 -0.028901288 0.13367486 -0.09622825 -0.023302639 -0.107144356 -0.07036795
-0.00575103 -0.0483052 -0.12094805 0.102071114 -0.073454484 -0.03976942 0.07167305 0.050011493
-0.077251226 -0.158737 0.09711866 0.11649255 0.11046608 -0.05165592 0.14195704 0.12458194
-0.14560196 0.15070103 -0.08159561 0.024729788 0.1059478 -0.0659015 0.18866028 -0.009661681
-0.12497474 0.06793042 -0.073745154 0.041648682 0.033981584 0.013691924 0.08230904 0.025531165
0.15127774 -0.1724094 0.12849377 0.10433351 -0.1437915 -0.00901792 -0.099923804 -0.07136736
-0.018860975 -0.093725465 -0.23288818 0.060642336 0.08570655 0.12949209 -0.07678721 0.066103764
-0.07534157 -0.18250343 -0.10321179 0.13092469 -0.07883385 -0.13464957 0.15347396 0.08452707
0.15850398 0.07810182 0.057966214 0.072480775 -0.0506643 -0.05773379 -0.06914406 -0.123611175
0.065134756 -0.17923792 -0.0045067105 0.114929475 -0.07698831 0.03787313 -0.015565633 0.017404236
-0.052559342 -0.10067013 0.009408746 -0.094916195 0.17374943 -0.04304068 0.04249619 0.06882811
0.09516991 -0.102083996 -0.111285806 -0.13168757 -0.10494594 0.028361794 0.09905284 0.02991577
0.010522613 0.19999753 0.07826127 0.02784019 0.17381856 0.0913515 0.03950104 0.13534024
0.004839214 -0.14316499 0.07762496 0.061695144 0.1727839 -0.12938225 0.06263774 -0.15951043
0.17197351 -0.0021610714 0.16790207 0.016532084 -0.10895231 -0.07572486 -0.069721244 -0.0039841775
0.12095289 0.06945878 0.08613149 0.10189157 0.05662333 0.0145819 -0.15268317 0.14031635
0.027459746 0.059379693 -0.08203539 -0.124444224 -0.029773414 0.041218095 0.0501129 0.10614533
0.09603812 0.033622824 0.13802993 -0.110628396 -0.032946568 0.033895448 0.21842572 0.006323587
-0.028684145 -0.055523153 -0.004955138 -0.12149432 -0.012574528 -0.07422799 0.08951817 -0.13653922
-0.14517002 -0.0523155 0.07888865 0.06263227 -0.06149225 0.18136221 -0.13839468 0.037622567
0.059191305 -0.0105040325 -0.010601085 -0.07039778 -0.07591468 -0.10802474 -0.015515193 -0.18184574
-0.102966644 -0.14597073 -0.118214525 0.00642321 0.0013973436 -0.13777249 -0.07765842 0.06823554
-0.13827632 0.07648293 0.023449393 0.12627776 0.017714988 0.0011664988 -0.10875892 -0.07906651

bias f4 [48]
00000000: 14a1 e93d 9af2 ae3d 6b28 193e c36c af3c
00000010: 0967 c93d 0acf cbbc 29c1 cdbd a6d4 a23d
00000020: 88e7 253d d8d2 28be 06a1 123e aa07 97bd
00000030: 0f30 efbc 98b7 023e 10c1 3bbd 8c0d edbd
00000040: b22e afbd ba51 06be 6343 dabc 045e a53d
00000050: 9d2e c6bc ac59 cdbd 8749 d53c 38f3 d73d
00000060: f856 9bbd a66e 50bd 52c3 993c 958e 043e
00000070: 5265 133e ed6e e43d 6b4d 52bb 98b0 9bbd
00000080: 5074 be3c 7cad 82bd d6df 49bd dcf3 07b9
00000090: babd 013d 45e3 ba3c dff0 a93d 0eba e13d
000000a0: 9943 29bd 9f95 a13d ecbe aebd 1ada 233e
000000b0: 3472 af3d 1edc 713d 55d1 abbd a660 ce3c
0.11407676 0.08542366 0.14956824 0.021414166 0.098341055 -0.024878997 -0.10046608 0.07950716
0.04050401 -0.1648668 0.14319238 -0.07374509 -0.02919772 0.12765348 -0.045838416 -0.115748495
-0.08553828 -0.13117114 -0.02664346 0.08074573 -0.024192149 -0.10026869 0.026036037 0.10544437
-0.07584947 -0.050886773 0.018769894 0.12945016 0.1439412 0.1115397 -0.0032089602 -0.07602042
0.023248821 -0.06380746 -0.049285732 -0.00012965448 0.031675078 0.022813449 0.08297896 0.11021815
-0.04132423 0.07889866 -0.08532509 0.16001168 0.085667044 0.05904781 -0.08389536 0.02519257

weight f4 [48, 48]
00000000: 884c a23d 0525 8dbd 1fd6 ce3d 48ad c73d
00000010: 86b6 983a b5ff f13d 7290 113c c836 a8bd
00000020: be17 f7bd 919f ebbd c5a5 04be 7820 c13d
00000030: 5e2e 31bd 79c1 d4bb c679 d73d f424 05be
00000040: 2cc8 183e a94f aa3d f0a0 a1bc f43c 0fbe
00000050: e057 1cbd 3adb 88bd b84a e4ba 093c 013e
00000060: 4bcb 263d 402a 87bd 63f8 80bd d3dc 043e
00000070: 6dfb cebd ef6d 17be 2dab 0ebe 7d07 dfbd
00000080: 0274 d63d 54a9 00be 0e43 c8bc bfc6 84bd
00000090: d016 713b 1aa7 0abd 8c54 fa3d 5e01 cbbd
000000a0: ad57 aabd d487 99bd 6235 91bd 7108 1fbe
000000b0: a564 d7bd 94df 8e3d 8b7d 17be 9d58 943d
000000c0: 4aeb 9a3b 7a63 9ebd e899 733d 3111 0f3e
000000d0: eecf 39bd e18d 01be 5663 063d e9de 04be
000000e0: 823b 783d c5d6 f23d 6474 023e d7f7 e33b
000000f0: a335 2abd 529e c33c 9fe0 20bb fb41 3f3e
00000100: 1046 acbd 5b39 1fbd bc8d 17be c1ce 18bc
00000110: 8152 9dbd d8e4 1e3e 575c 8abd e6ad 0bbd
00000120: ad57 013d 9004 60bb f5c6 03be ec21 05be
00000130: b6eb 9bbd 4484 093e ac66 d6bd 0db6 0cbd
00000140: dad6 2c3c 2ac1 cc3c 7829 e0bd 39b5 17be
00000150: 044f 8dbd baf6 59bc a3a1 f9bd 1d9a b3bd
00000160: 0eac 86bd dc97 92bd 76ec 26be 89e0 dfbc
00000170: b6c9 603d 35c7 e4bc 4a43 ab3d 30cc b2bd
00000180: 3c1c 063e a3f0 37bd 9ad4 763b 2984 91bd
00000190: 4ff6 a93c 2968 023e b415 943d 19f1 513d
000001a0: ac63 19be 835f b7bd 9272 2a3d 7d62 a8bd
000001b0: ae6f 333e fb52 37bd ddb1 233c 8cae 9fbd
000001c0: e63f 10be ca53 d03c 376d 53bd 3e53 aa3d
000001d0: e92b 283e e848 3b3d 9520 923d 66dc 90bc
000001e0: 2217 9ebd 9b76 03be 6c3b 0fbd 2f49 6f3d
000001f0: 01d1 07be f049 183d a341 713d 4f0f 12be
00000200: 1692 ffbc 5fde a13d 76e5 e3bd 5a8b c83d
00000210: a429 723d 7409 93bd 9034 e23d 1bac 93bd
00000220: ea22 e0bc 9b08 0cbe 18b7 c1bd a583 1e3e
00000230: 83fa 003d b567 ec3d 7e0f fbbd 8079 973d
00000240: 9bfb 08be ec97 fc3d 96d3 c43d ab0c a8bd
00000250: 5ff7 14be e4ea c93d 7b5e 033e fcf5 52bd
00000260: 05e5 82bc 088b 09be 7d83 bf3d 1ece c4bc
00000270: aa2d 633d 7421 15be 7e9b d13c b2d7 eabd
00000280: 48f7 24be fd9c 2a3e d989 fd3d 7bba 85bd
00000290: d90a 813d b71e 4e3c 756d d5bc 23b3 ebbd
000002a0: fb8c e63c a811 e1bd 2285 e4ba 5c25 f6bd
000002b0: 2fab 043d 0bca b63d ff1e 863d e8d1 033e
000002c0: 2425 c13d a1b0 e6bd 985d 97bc 55f0 59bd
000002d0: 122a 713d 69e8 65bd 90f2 a1bd 0a78 03bb
000002e0: 65db cabc 6e67 bbbd a542 1ebd 98dd 203e
000002f0: 796a 2abe 497c 883d cd53 0f3e 85f8 debd
00000300: 63ef 5a3d 8531 1abc a6f2 febd 94d4 c8bd
00000310: d39c 853d 1ae5 333d b6e6 b13d ef7e 193d
00000320: 95c3 c53c 5ad8 cc3d 2f97 a4bd 7df0 00bc
00000330: 8524 18bc b578 abbd 7672 873d 56c9 3c3d
00000340: 05ed 22be 2145 2bbd a1c7 7e3d 05dc c53c
00000350: f7b7 6ebd 64f8 02be 5821 ed3d 6a47 d5bd
00000360: f405 6e3d 9a98 f8bd 11d3 55bd 7585 f33c
00000370: 00b0 283b a59d 5fbd 73b7 d73c 79cc c13d
00000380: e8f7 cc3d cd74 513d 5e2d 393d 5dd8 01bd
00000390: 23e3 8fbc 75f9 9abd 527c 8b3b 9950 c53d
000003a0: 1b9b a83b 50eb a2bd 210a c23d bf9b 18be
000003b0: a5c5 f8bc 47f5 9fbd ac90 073d 156d de3d
000003c0: bc67 a03d 18d3 0dbd 2989 06be f6ac afbd
000003d0: 2dcc d73c 2b2b 763d 7831 213e ac13 10be
000003e0: 5c0c ddbd 134c 2ebe 3191 323e 233b 91bd
000003f0: 7c2d c23d e442 01be b84d ee3c 9bb1 963d
0.079247534 -0.068918265 0.10099434 0.09749848 0.0011651076 0.1181635 0.008884536 -0.08213574
-0.12065075 -0.11505044 -0.12953861 0.09430021 -0.04325711 -0.0064927903 0.10521273 -0.13002378
0.1492011 0.08315975 -0.019730061 -0.13988096 -0.03816974 -0.06682439 -0.0017417287 0.12620558
0.04072122 -0.065998554 -0.06297376 0.12974863 -0.101065494 -0.1478803 -0.13932486 -0.108901
0.104713455 -0.12564594 -0.024446037 -0.0648322 0.003678728 -0.033850767 0.12223157 -0.0991237
-0.08317504 -0.0749661 -0.0709026 -0.15530564 -0.10517243 0.06976238 -0.14793985 0.07243464
0.0047277557 -0.077338174 0.05947295 0.13971402 -0.045364313 -0.12651779 0.032809578 -0.12975658
0.060603626 0.1185737 0.12739712 0.006957035 -0.04155506 0.023879204 -0.0024547947 0.18677513
-0.08411801 -0.038873058 -0.14800161 -0.009326638 -0.07681752 0.15516984 -0.06755894 -0.03410139
0.031577755 -0.0034182407 -0.12868865 -0.13001221 -0.07613318 0.13429362 -0.10468802 -0.034353305
0.0105492715 0.024994452 -0.109454095 -0.14815225 -0.06899837 -0.013303453 -0.12189033 -0.08769629
-0.065757856 -0.07157871 -0.1630114 -0.027328746 0.054879867 -0.02792702 0.08362444 -0.08730352
0.13096708 -0.044907223 0.0037663341 -0.07105286 0.020747332 0.12735046 0.07230702 0.05125532
-0.14979428 -0.08953764 0.04161317 -0.0822191 0.17523071 -0.04475687 0.009991136 -0.07796964
-0.14086875 0.025430579 -0.051617827 0.083166584 0.16423 0.045723826 0.07135121 -0.01768322
-0.07719256 -0.12838213 -0.03496878 0.058419403 -0.13263322 0.037179887 0.058900487 -0.14263652
-0.031197589 0.07903742 -0.111277506 0.09792204 0.059121743 -0.071795374 0.11045182 -0.07210561
-0.027360398 -0.13675158 -0.094587505 0.15479906 0.031488907 0.11543218 -0.12258814 0.07396221
-0.1337723 0.12333664 0.09610669 -0.08205541 -0.1454749 0.09859255 0.1282901 -0.05150412
-0.015978346 -0.13431942 0.09351251 -0.024024066 0.05546347 -0.14563543 0.02558684 -0.11466922
-0.16109955 0.16661449 0.12379808 -0.06529709 0.06300897 0.012580565 -0.02605317 -0.11508777
0.028143397 -0.10989696 -0.0017434696 -0.120188445 0.032389816 0.089252554 0.06548881 0.12873042
0.09430912 -0.11264158 -0.018477246 -0.053207714 0.058878012 -0.056129847 -0.07907593 -0.0020060563
-0.024762819 -0.09150587 -0.038637776 0.15709531 -0.16642179 0.066643305 0.13996811 -0.10887245
0.053450953 -0.00941122 -0.12448625 -0.09806171 0.065240525 0.04391966 0.08686583 0.03747457
0.024141112 0.10002203 -0.080366485 -0.007869837 -0.009286051 -0.083726324 0.066136286 0.046090446
-0.15910728 -0.041813973 0.0622021 0.024152765 -0.05828091 -0.12790066 0.115786254 -0.10414012
0.058111146 -0.121384814 -0.05220324 0.029726723 0.002573967 -0.0545937 0.026332593 0.09462828
0.10008222 0.05113678 0.04520928 -0.03170048 -0.017564362 -0.075671114 0.0042567635 0.096345134
0.005145443 -0.079550385 0.09474588 -0.14903162 -0.030367682 -0.07810455 0.033096954 0.108606495
0.07832286 -0.034625143 -0.1313826 -0.085779116 0.026342476 0.060099762 0.15741527 -0.14070004
-0.10793373 -0.17021208 0.17438199 -0.070913576 0.09481332 -0.12623173 0.029089794 0.07358094

bias f4 [48]
00000000: 2e79 83bd 4d03 853d 72fb f23d c637 88bd
00000010: cd4a 50bd 6e80 a6bc 7c4b da3d 3320 b33c
00000020: 449d c0bd 2804 e2bc 7975 a13d 11ab 903a
00000030: 0216 153e 0e96 c3bd 1fff 11bd 7d6a f4bd
00000040: fec7 c8bd a90d 103e 61d3 183e abfd 5b3d
00000050: e8d1 153e d358 7bbd 9595 e93d 1dbc abbd
00000060: 67fc 90bd d44e 95bd 6ccd 4abd 9e5d c13c
00000070: 6fce eb3d 70ab d8bd b1d2 d7bd 6a12 f83d
00000080: 0f6e 9cbc f653 efbd 769e b6bd 723f 5dbc
00000090: f4dd a1bd 75db 843c cb6e 2dbe 9c3c c43d
000000a0: 439d 86bd 2d7a 063d 6613 8abd a728 043d
000000b0: 0dee 763c 22ed b1bd b2e3 09be 7441 d93a
-0.064195976 0.0649477 0.11864366 -0.06651263 -0.050852586 -0.020324912 0.10658929 0.02186594
-0.09404996 -0.027589872 0.07883734 0.001103731 0.14559177 -0.09550105 -0.035643693 -0.119343735
-0.098037705 0.14067711 0.14924385 0.053708714 0.14630854 -0.061364006 0.11405484 -0.08385489
-0.07079392 -0.07290426 -0.04951231 0.02360421 0.115139835 -0.10579574 -0.10538233 0.12112887
-0.019095449 -0.11685936 -0.08916943 -0.013503896 -0.07903662 0.016217927 -0.16936795 0.09581873
-0.06572964 0.03283136 -0.06741981 0.03226533 0.015071404 -0.086878076 -0.13465765 0.0016575293

weight f4 [4, 48]
00000000: 32ad 293e ec17 5bbd 211e 593d f97c e3bd
00000010: 01c3 153d f0fd 77bd 8b26 e3bd 72a3 203d
00000020: 54ca 96bd 56c0 6c3d 9af7 e1bd e432 dcbd
00000030: 29f4 bb3d f216 b03d fb6a f83d 2b59 9abd
00000040: 59e5 053e d6f2 bd3d 25a6 3a3c 0565 8cbd
00000050: 07cd 58bd c05c dc3d 7da3 94bc 351e 303d
00000060: a4cc f13d 3779 10be 47d7 e83c e46d bdbd
00000070: 2d79 c73d 25df b3bd 6342 10b9 e27a 0cbd
00000080: dc3c 1a3e b89c 3abc c02d ec3d caa8 5bbd
00000090: b55f a23d 4a5f 033e 8bcd a03c bf18 0ebe
000000a0: cc70 7c3d cd12 b13d 25ff 10bd b725 5d3b
000000b0: a3ab e73d 36b1 cabd da55 143d 1ae9 ddbc
000000c0: 539a 813c 63ee 0c3d 2712 54bd a329 15be
000000d0: 2a0d 163c 1d21 59bd 6727 78bc 2345 debd
000000e0: d00b 023e b852 b03a 73b1 f63d e3e9 d7bd
000000f0: 50ba eb3c ed24 f63d 4822 54ba 9705 7fbd
00000100: 9a6a 8bbd f9db aa3b 8f5f f7bc cf34 123c
00000110: f72c 01be cb45 dbbd ec7a 41be e66d e43a
00000120: d031 0b3e 4f63 e3bc 3fef 68bd 08d9 b1bd
00000130: fce5 133e c1de 373e c547 fcbd 0e19 fabd
00000140: 2191 99bd 2207 e03d b08c 423d bb98 063e
00000150: defa d2bd 3906 1b3e e35b 253c 26ef b4bd
00000160: 7102 f63c 8ef7 24bd 6a4b d7bd bf4c 88bd
00000170: 00d1 b13d 66c0 11be 998b 063e 5160 403e
00000180: 55fc 04bb c587 cd3c f0ac 0c3e dd62 9d3d
00000190: 6aa3 13bd cf72 50bd f68a 433d fd2b f1bd
000001a0: afa0 b23d 0087 4ebe 0a84 07be 0577 f23d
000001b0: 2682 fd3d a72c 913d 11be f9bd ae83 96bd
000001c0: 8c06 ce3d ce81 1e3e 5f04 2f3e ce91 223e
000001d0: f6fb 0c3e 3110 b63d e5a8 36bd 4371 1e3e
000001e0: b3da 203e 2f57 80bd 146d 603c 2c36 72bd
000001f0: 4728 9d3d f7f6 023e c2db 2e3d eb45 d5bd
00000200: b5d8 1abe dc41 293d 75dd afbd 6397 fd3c
00000210: 12f9 c73d ace3 a03d 377c c4bd 621e 01be
00000220: c868 e2bd 17d9 153d 08e3 1f3e 5048 1cbe
00000230: 3db0 0f3b 62bf 253e 891b dc3d 6876 403d
00000240: 90e4 5c3c 8812 9abd 7fa8 0d3d 692b 94bd
00000250: 6ef7 dcbd ad1e c2bc 3110 823d 2eff b9bd
00000260: 8b04 123c f719 6d3e f9bd bcbd 15a3 66bb
00000270: 2316 63bd 52f6 d2bd b509 f8bd 7c9d d53d
00000280: db1c 09be 9958 dfbd 1f4c a53d f393 f23d
00000290: 3cbe e73d 55e9 eabd 93a3 3dbe 4e1c f43d
000002a0: 2057 b13d e8fb cf3d f3bf 0e3d c82a 73bd
000002b0: d992 633c 040f 1bbd c7fd d83d 72c3 3f3e
000002c0: 31c8 ddbc 3aeb 5cbd acb2 b9bd d4f4 983d
000002d0: 9eb7 97bd d2be e9bd 8fbd e8bd 2a05 e33b
000002e0: 61e4 ed3d 55ee 0c3e 2049 153e d890 b83d
000002f0: e880 383d 9809 053d 78dd 1fbe 864f 48bd
0.16569975 -0.05348961 0.05300725 -0.11107821 0.036562923 -0.060544908 -0.11091336 0.039218374
-0.0736281 0.057800613 -0.110335544 -0.10751894 0.09177429 0.085981265 0.1212978 -0.07536539
0.1307577 0.09274833 0.011392151 -0.068552054 -0.052929904 0.10759878 -0.018144364 0.042997558
0.1180661 -0.1410874 0.028422965 -0.092494756 0.09739909 -0.08782796 -0.00013757641 -0.034296878
0.15062279 -0.011389904 0.115321636 -0.053627767 0.07928411 0.12829319 0.01962926 -0.13876627
0.06163101 0.08646164 -0.035399575 0.0033744404 0.11312034 -0.098970816 0.036214687 -0.02708869
0.015820658 0.03440703 -0.051775124 -0.14566664 0.009158412 -0.053010095 -0.015146113 -0.108530305
0.12699819 0.0013452386 0.120455645 -0.10542657 0.028775364 0.12018762 -0.00080922665 -0.06226119
-0.06807442 0.005214211 -0.030196933 0.008923723 -0.12614809 -0.10706671 -0.18894547 0.0017427772
0.1359322 -0.027757315 -0.056868788 -0.086839736 0.14443201 0.17956068 -0.123183765 -0.1221181
-0.07498384 0.109388605 0.04749745 0.131442 -0.10301755 0.15139093 0.010092708 -0.088346764
0.030030461 -0.04027515 -0.10512431 -0.06655263 0.08682442 -0.1423355 0.1313919 0.18786742
-0.0020292003 0.025089154 0.13737845 0.07684872 -0.036044516 -0.05089074 0.047739945 -0.11775968
0.08722054 -0.20168686 -0.13233963 0.118391074 0.123783395 0.07088595 -0.121944554 -0.07349335
0.100598425 0.15479204 0.17091511 0.15875933 0.1376799 0.08889807 -0.044594664 0.15472893
0.15708427 -0.06266629 0.013697881 -0.059133694 0.07673698 0.12789522 0.042690046 -0.104137264
-0.1512173 0.041322574 -0.085871615 0.030955976 0.09764303 0.07855925 -0.095940046 -0.12609246
-0.11055142 0.036583986 0.1561395 -0.1526196 0.0021925115 0.16186288 0.107474394 0.04698792
0.013482228 -0.07523066 0.03458452 -0.07234842 -0.10789381 -0.023696268 0.063507445 -0.09081875
0.008912216 0.23154436 -0.09215922 -0.003519242 -0.055441033 -0.10300888 -0.121112265 0.104304284
-0.13389914 -0.109055705 0.080711596 0.11844625 0.11315581 -0.11470286 -0.1851943 0.11919461
0.08659196 0.10155469 0.034851026 -0.05936697 0.013889992 -0.037856117 0.10595279 0.187269
-0.027072998 -0.053935267 -0.09067282 0.07468572 -0.07408069 -0.11413349 -0.113642804 0.006928106
0.116158254 0.13762791 0.14578676 0.09012002 0.04504481 0.032479852 -0.15611827 -0.048903964

bias f4 [4]
00000000: 3f71 80bc fa44 c53c 6fc1 df39 59b0 edbd
-0.015679 0.024080742 0.00042677994 -0.11605901
