mPINNs-R1/mPINNs_result/result2/model.pth (torch, 35100 bytes, 10 tensors)

weight f4 [48, 2]
000000 d2 9d eb 3c cf c1 df be 71 f3 2a bf 1c 85 69 3e
       0.028761778 -0.43702552 -0.6677771 0.22804683
000010 aa aa 23 bf 05 1c 17 3e 42 7e 0d 3f 33 4f 6e be
       -0.6393229 0.14756782 0.5527078 -0.232724
000020 b4 91 b2 be ed 87 ae 3e 0b e5 49 bf 94 d3 69 bd
       -0.34876788 0.34088078 -0.78865117 -0.057086542
000030 4c 71 c1 be f8 10 22 be 45 51 95 be d6 81 44 3b
       -0.3778175 -0.15826786 -0.29163566 0.0029984615
000040 12 21 a4 be d8 47 cc 3c 5b 04 c0 3d 80 13 c6 3e
       -0.3205648 0.024936602 0.09375831 0.38686752
000050 3c ef 32 3f 97 6b 2e bf 0f 9d 1d 3f 3e e8 52 3e
       0.6989629 -0.6813292 0.6156778 0.20596406
000060 7f a7 46 be 16 20 a3 3d d8 ce 34 bf 8f 3c 2b 3d
       -0.19399832 0.07965104 -0.7062812 0.0418058
000070 51 38 c7 3e 13 b6 2d bf a0 42 a0 bd 62 bf ce bd
       0.38910154 -0.6785595 -0.07825208 -0.10095097
000080 f9 81 48 be 2f 53 f1 3e e8 2d 33 bf be 26 07 bf
       -0.1958083 0.47133777 -0.6999192 -0.5279349
000090 12 59 2c bf 6d a9 05 3e b7 38 2e be b0 d9 1f bf
       -0.6732341 0.13052912 -0.17013822 -0.6244154
0000a0 80 da 15 bf 2b 54 be 3e 75 1a 71 be 2e 04 2c bf
       -0.5853653 0.3717359 -0.23545249 -0.6719388
0000b0 0d 1b dc 3e 21 d5 20 3e 62 38 83 be bd 3e 12 3f
       0.42989388 0.15706302 -0.25628954 0.5712698
0000c0 c4 48 fa 3e 41 af 0a bf 14 a0 07 bf 16 04 d1 3b
       0.4888364 -0.54173666 -0.52978635 0.006378661
0000d0 cc ea 0d 3f e5 d9 2f 3f c8 e9 74 be 98 4c a7 be
       0.55436397 0.68691856 -0.23917305 -0.32675624
0000e0 67 6d dc be 44 37 f6 3e 01 ce 3a 3f 16 0e 81 be
       -0.43052217 0.4808904 0.72970587 -0.2520606
0000f0 6b 23 de be 43 9c 19 3e e5 13 39 3f 37 a8 27 3f
       -0.43386397 0.15001015 0.7229598 0.6549105
000100 23 37 2e 3d 89 bf 3c 3f 7b a5 c6 be 95 85 b5 be
       0.04253305 0.7372976 -0.38798127 -0.35453478
000110 08 76 36 3e c2 16 57 bf 0a 89 e0 bd 8d f7 03 3f
       0.17818463 -0.840191 -0.10963638 0.5154961
000120 9a a1 8a 3d 90 a9 a1 3d d0 1f 39 bf f4 f4 11 3f
       0.06769104 0.078936696 -0.7231417 0.57014394
000130 8f d5 e2 be bd f9 40 be cb dc 21 3e 11 ff 23 be
       -0.44303557 -0.18845268 0.15806882 -0.16015269
000140 f6 da 9d 3e 12 94 70 bd 11 6d 33 bf 78 c4 b4 bd
       0.30831116 -0.05873496 -0.700883 -0.08826536
000150 80 15 e3 be df 5f 25 3f 76 aa a5 bd cc a5 d5 3e
       -0.4435234 0.6459941 -0.080891535 0.41728055
000160 f7 b5 dc be 3f 83 3e bd ca 61 cf 3e c1 4f 39 be
       -0.43107578 -0.046511885 0.40504295 -0.1809683
000170 97 bb 15 bf a1 5f 7e 3e cc d9 84 be 62 24 be be
       -0.58489364 0.24841167 -0.25947416 -0.37137133

bias f4 [48]
000000 4f 4b 34 bf f1 20 04 3f ca 6c 13 be bc 76 a4 3e
       -0.7042741 0.51612765 -0.14396968 0.32121837
000010 db 97 e5 3e 0c 59 7d be d7 d9 4e be 6f ca e2 be
       0.4484242 -0.24741 -0.20200287 -0.4429507
000020 f8 79 18 be e7 7c 17 bf 14 b4 69 be b3 3b 13 bf
       -0.14890277 -0.5917496 -0.228226 -0.5751297
000030 91 80 b5 3e a1 61 aa 3e 72 4b 18 3f 60 5a 11 bf
       0.3544965 0.3327761 0.5949012 -0.56778526
000040 d1 f3 00 3e 3b 15 3c 3f 83 fb 18 be 12 84 00 be
       0.12593009 0.73469895 -0.14939694 -0.12550381
000050 6a 55 5b be 31 3b 00 3f c0 8a c4 3d 07 86 c5 3d
       -0.21419302 0.5009032 0.09596777 0.09644704
000060 00 b0 af be 82 db ee be 64 64 77 bc 44 b5 33 3f
       -0.34313965 -0.46651846 -0.015099619 0.70198464
000070 98 cc eb bc 3d 45 1f bf 0a 37 26 bf c8 3d 34 3f
       -0.028784081 -0.62215024 -0.6492773 0.7040677
000080 35 66 0e 3e 5f 4d a1 be 3c a3 ee be 1d b3 c9 be
       0.13906176 -0.31504342 -0.46608913 -0.39394465
000090 29 82 77 3e 5c 9a 90 3e 4f 3f 1a bf 6d fe 9a be
       0.24170746 0.28242767 -0.6025285 -0.30272236
0000a0 bd 89 b8 be b1 76 cb be 60 4b 2d 3f b0 ce 32 3f
       -0.36042586 -0.39738992 0.6769314 0.6984663
0000b0 6f 32 80 3e 34 7f 50 3d 3d c1 5e 3e 95 51 eb 3e
       0.25038478 0.05090256 0.21753402 0.4596068

weight f4 [48, 48]
000000 10 b1 99 3d de 04 7b bd 3d df 62 be a4 d3 3a 3e
       0.07504475 -0.06128394 -0.22155471 0.18244797
000010 28 36 31 3d 75 fa 3e be e3 5a 59 3d 3d f1 59 bd
       0.043264538 -0.1865023 0.053065192 -0.05320858
000020 e7 fb ff bc 91 62 00 be 1b 08 ff 3d 5a 13 db 3d
       -0.031248046 -0.125376 0.12452718 0.106970504
000030 0f 15 87 bd 49 13 45 bd f5 c6 83 3d 2a ea 0f be
       -0.065958135 -0.048114095 0.064344324 -0.1405417
000040 0f d1 2e bd 71 24 8f 3d b5 33 66 be ae 4c 31 3c
       -0.042679843 0.069893725 -0.22480662 0.0108215045
000050 01 2a 45 3d 09 5d 59 3d 25 f3 6d 3d ee ee 50 bd
       0.04813576 0.05306724 0.05809321 -0.05100911
000060 09 af 14 be 59 e0 96 3d bd ad 84 bc 17 cb 3f bd
       -0.14519896 0.0736701 -0.016196126 -0.04682454
000070 b4 ad a3 bc 83 93 f7 bb 53 98 8b bc fb 58 93 3d
       -0.019980289 -0.0075554266 -0.017040407 0.07194706
000080 4c 26 32 3e 62 50 60 bd 08 3d e8 bc b7 22 d0 3c
       0.17397422 -0.05476416 -0.028349414 0.025407178
000090 3b c1 6f 3d d5 ad 4e 3b 31 b7 c8 bc 92 d2 71 3d
       0.05853389 0.0031536717 -0.024501415 0.059038706
0000a0 f3 9b 04 3d 7f 74 77 bd 88 06 af 3d 6d 50 b8 3d
       0.032375287 -0.060413834 0.085461676 0.08999715
0000b0 ce 9e db 3c 7d 1b 76 3d 71 25 b9 bc e9 16 a9 3d
       0.026809122 0.06008481 -0.022600861 0.08256323
0000c0 73 c2 9b 3d 73 ae e4 bd b5 85 a0 bd 19 8f 12 3e
       0.076054476 -0.11166086 -0.078380026 0.143124
0000d0 b3 79 fb 3d 89 d1 e7 bd 96 ba ce 3d 45 c8 69 3d
       0.12279072 -0.113192625 0.10094182 0.057075758
0000e0 c8 f2 ea bb 4b 9f df 3d f3 06 0a 3e c1 d9 8a bd
       -0.007170055 0.109190546 0.13479213 -0.067798145
0000f0 f3 56 11 bd d6 03 99 bd fb 0b 2c be d5 7d 95 3d
       -0.03548331 -0.07471435 -0.16801445 0.07299391
000100 c7 47 9d bc 87 6a 57 be b1 cc 07 be 10 e4 44 bd
       -0.019199265 -0.2103673 -0.13261677 -0.04806906
000110 66 d8 84 bd b2 97 40 be de d3 60 b9 c2 20 ed bd
       -0.06486587 -0.18807867 -0.00021441231 -0.11578514
000120 07 12 46 3b e7 91 52 3d c6 f0 6a 3d 76 75 99 3d
       0.0030223147 0.051408675 0.057358526 0.07493107
000130 43 b4 a0 3d 85 bb ce bc 53 d8 59 bd 6b 2d 4e bd
       0.07846882 -0.0252359 -0.05318482 -0.050336283
000140 1b 88 1b 3d e4 86 e7 bd be 48 0c 3d df 12 f0 3d
       0.037971597 -0.11305025 0.03424906 0.117223494
000150 24 7e 1a 3e 99 57 02 be 75 04 ea bc 72 dc c3 bd
       0.15087181 -0.12728728 -0.028566578 -0.09563531
000160 06 8f df bd 57 49 f6 bb 6a 58 07 be ff 41 de 3b
       -0.109159514 -0.007516067 -0.13217321 0.0067827697
000170 9b 6f 32 be 28 4f b9 bd e7 2a fa bd 1f c3 c3 bd
       -0.17425387 -0.09048301 -0.12215214 -0.09558701
000180 e3 08 9d 3d da 24 4c bd 15 5d aa bd 23 30 a7 bd
       0.07667711 -0.049839832 -0.08318535 -0.08163478
000190 bf 3e a8 bd 7c 18 c2 bc f0 5f 98 3d f2 d9 1c 3d
       -0.08215093 -0.023693316 0.074401736 0.038293786
0001a0 6d 34 bb 3d 53 d6 c8 3d 20 f9 cf 3d cf 5a 9f 3c
       0.09140859 0.09806504 0.10154939 0.01945248
0001b0 48 40 bc 3d 67 2f 03 be ab 32 42 be 98 e8 e6 3d
       0.09191948 -0.12811051 -0.18964641 0.112748325
0001c0 da 7e d8 3d b0 2a 9d bd b4 ae 5b bd 94 0f b9 bd
       0.1057107 -0.076741576 -0.053633407 -0.090361744
0001d0 9e 4a 15 3c 2d a5 e5 bd f5 cc c1 bd f2 ba df bd
       0.009112028 -0.112131454 -0.094629206 -0.10924329
0001e0 85 31 06 be ac 9c 5e bd bd cd 91 3d d5 0f da bd
       -0.13104828 -0.054348633 0.071193196 -0.10647551
0001f0 6e 66 bb bd b7 6c c3 bd 4b b7 fd 3d 26 f2 6f bd
       -0.09150396 -0.0954222 0.12388476 -0.05858054
000200 5e f7 32 ba 56 c6 2d bd e5 e9 a4 bd d5 c3 45 3e
       -0.0006827022 -0.042425476 -0.08052424 0.19312985
000210 6f 9b 74 3d a8 a0 1b be 02 30 07 be ea fc 0e be
       0.059718546 -0.15198004 -0.13201907 -0.13963667
000220 c2 fc d1 3d 98 d8 db 3d b1 8d 27 3d 59 a3 9e 3d
       0.10253288 0.10734671 0.04090661 0.07746
000230 14 c0 9e 3d 46 24 0e 3d a4 ed 00 be 38 c7 f7 bd
       0.0775148 0.03470256 -0.12590653 -0.12098545
000240 ef ea 17 be 67 46 d4 3b 67 13 9b 3d 97 90 86 3c
       -0.14835714 0.006478119 0.0757206 0.016426368
000250 9a 3e 42 bd f3 f2 ff bd 6a f7 94 3b a1 e3 9c bd
       -0.047422983 -0.12497511 0.0045460956 -0.07660604
000260 af da 59 bc 4c 3c 8a 3a 8a 53 f4 3a f3 75 0c 3e
       -0.013296767 0.0010546534 0.0018640619 0.13716869
000270 87 07 2a 3c 51 43 03 bd fc 24 c8 3c 57 e8 0d be
       0.010377771 -0.03204662 0.024431698 -0.13858162
000280 76 d8 f0 3d e3 98 d9 bd a5 7e ac bb 57 9d 1a be
       0.11760037 -0.10624864 -0.0052641206 -0.15099083
000290 2c 76 9f 3d d2 ad 7f bc 65 01 71 3e 81 d5 9e 3d
       0.07786211 -0.015605407 0.23535688 0.077555664
0002a0 97 c6 44 3d a8 e1 cc bd 3d a4 63 3e b9 39 9b bd
       0.048040953 -0.10003978 0.2223062 -0.07579369
0002b0 4f 9d 30 3d 90 91 46 bd c3 23 37 be 87 c4 53 3e
       0.04311877 -0.048478663 -0.17884736 0.20680438
0002c0 30 d7 99 3d 4b 7f 9e 3b 90 20 38 be d6 98 31 bc
       0.07511747 0.004836952 -0.17981172 -0.010839662
0002d0 c7 65 1c 3e 30 08 8d bd 19 08 e3 bd 2c b3 5a 3d
       0.152732 -0.06886327 -0.11085529 0.053393528
0002e0 8e a6 13 bd 34 39 ae bc 55 93 10 bd c3 99 06 3e
       -0.03604751 -0.021267511 -0.035296757 0.13144593
0002f0 e1 a6 1e be b6 b7 68 bd 93 3e cc bd d9 d0 09 be
       -0.15493347 -0.056815825 -0.099728726 -0.13458575
000300 e3 c1 9a 3c 21 ea b9 3d ff 1d b0 3d c7 86 7e 3d
       0.01889128 0.0907786 0.08599471 0.062140252
000310 cd 4d 58 3a ef d0 c6 bd ba 96 1f be fe f0 3c 3d
       0.00082513393 -0.0970782 -0.15584841 0.046128266
000320 ee 1e 82 3b 38 05 90 3d 35 64 05 be 46 ed 13 be
       0.0039709723 0.070322454 -0.13026507 -0.14445981
000330 df de 76 bd a2 5f cc bd 54 25 05 be bb e7 07 3d
       -0.06027114 -0.09979178 -0.13002521 0.03317998
000340 7e be be 3d 60 e8 d0 3c c3 cb 79 bc c0 26 e3 bd
       0.09313677 0.02550143 -0.0152463345 -0.11091375
000350 e2 c0 ba bc 6a 12 33 3d ce 3a 2a 3e 4b fa c7 3d
       -0.022797052 0.043718733 0.16623995 0.097645365
000360 f1 e1 0c be 13 6b 46 3c 6e 19 71 3e 7a aa 1a bd
       -0.13758065 0.012110489 0.23544857 -0.037760235
000370 23 76 de bc 19 a6 5a 3d 08 6b df 3d ad 51 2f 3e
       -0.027155941 0.05338106 0.109090865 0.17121
000380 cb 86 3f 3e bd f8 86 bd 98 54 4e bd d1 96 1f 3e
       0.18703763 -0.06590412 -0.050373644 0.15584876
000390 9f 82 10 bd 98 65 05 3e 58 0a a3 bd a6 3d e4 bd
       -0.03528082 0.13027036 -0.07960957 -0.11144571
0003a0 d8 26 bb bd 0d 2b f7 bb 03 97 b0 bd a2 be 1e 3e
       -0.09138268 -0.007542974 -0.08622553 0.15502408
0003b0 01 51 b7 3d 73 86 10 bc f1 be e2 bc 6c e2 54 3d
       0.08950997 -0.008821118 -0.027678939 0.051973745
0003c0 db 1b 8c 3d cd 6f ca bd 97 52 39 3d 6d d0 07 be
       0.068412505 -0.098846056 0.04524478 -0.13263102
0003d0 fb 50 d8 3d 53 83 a4 bd df 57 8c bd df 3b b9 bd
       0.10562321 -0.080328606 -0.068526976 -0.09044623
0003e0 a6 55 3f bc 18 c3 4a bd a7 35 87 3d 57 19 27 3e
       -0.011678135 -0.049502462 0.0660203 0.1631826
0003f0 3f c0 88 3c a9 82 63 3d a6 56 cb bc 76 34 b4 3c
       0.016693233 0.05554453 -0.02482159 0.021997672

bias f4 [48]
000000 6f 08 0e 3d 8a 0e b3 bc 56 36 c3 3d 3c ea e7 bd
       0.03467601 -0.021857519 0.09531848 -0.113239735
000010 b4 d1 e5 bd e3 d1 a8 3d e0 a7 07 be 05 d7 c4 3d
       -0.11221638 0.08243158 -0.13247633 0.09611324
000020 db 6a c1 3d 60 1e c5 3d 36 0a ae bd 3e c8 b8 3d
       0.09444209 0.09624934 -0.08498041 0.09022568
000030 89 b6 d9 bc 98 f7 92 3d ce 59 3d 3d aa e3 a3 bd
       -0.026576297 0.07176131 0.046228223 -0.08002408
000040 ac 82 5e bc c2 d4 93 3c c2 51 22 3d 72 43 a9 bd
       -0.013580959 0.018045787 0.03962875 -0.08264817
000050 48 4b 72 bd 92 9c f4 3d 1c ad 3a 3d 44 50 06 be
       -0.059153825 0.11943926 0.045575246 -0.13116556
000060 c5 6f 12 be b1 3d 26 bd a7 c1 08 be cc df b6 bd
       -0.14300449 -0.040586177 -0.13355123 -0.089294046
000070 05 77 a1 3d 01 6e bc 3d d0 e7 02 be db 45 b8 3c
       0.07884029 0.09200669 -0.12783742 0.022494247
000080 3b 55 b6 3d f1 64 cc 3d 90 3a b4 bd ab 34 a0 3d
       0.08902975 0.099801905 -0.088002324 0.078225456
000090 e2 ab 0a bd 96 7a 66 3d 3b ad df bd 9c 5b d1 bd
       -0.033855326 0.05626925 -0.10921713 -0.10222551
0000a0 ac 08 ab bd f8 de 1f bd 0c 62 90 3d 95 6c ea bd
       -0.083512634 -0.039031 0.07049951 -0.11446492
0000b0 66 fe c0 bb aa e0 39 3c 4a e9 bb bd 40 49 37 3d
       -0.0058897017 0.011345068 -0.09175356 0.04474759

weight f4 [48, 48]
000000 e1 ee 39 be 38 ad ce 3d eb c4 70 3c cb 86 1c 3e
       -0.18157531 0.100916326 0.014695386 0.15285794
000010 f9 d4 80 3d 37 5f bf 3d 79 5b a6 bd d5 34 6e 3c
       0.06290621 0.09344333 -0.08122916 0.014538963
000020 26 53 ed bc 54 24 27 be 4e f6 e9 bc 54 ef a3 bd
       -0.028970312 -0.16322452 -0.02855983 -0.080046326
000030 83 f4 8e bd 1a 7b bc bc 65 5f b0 bd 4d e2 fc bd
       -0.06980231 -0.023007918 -0.08611945 -0.12347851
000040 a7 84 61 bd 19 ca c0 bc af 2f 8f bc 41 99 10 3e
       -0.055058148 -0.023533868 -0.017478792 0.14120962
000050 70 17 47 3d 2e 76 27 bd 09 3e ae 3c 9b 7a 41 3d
       0.048606336 -0.04088419 0.021269815 0.047236066
000060 cf d9 b6 bd ac f3 a7 bd ed 30 bd bd 4b 67 f3 bc
       -0.089282624 -0.082007736 -0.092378475 -0.02971234
000070 b5 25 36 3b 92 32 82 bd 80 60 8e 3d 00 7a 03 be
       0.0027793471 -0.06357302 0.06952 -0.12839508
000080 f0 ca fc bd 0d f6 84 3d 29 c0 dd bd 15 09 10 bc
       -0.12343395 0.06492243 -0.10827667 -0.008791228
000090 e1 36 06 3e 54 4d 02 be c5 b3 91 bc c4 3e 07 3e
       0.13106872 -0.12724811 -0.017785916 0.13207537
0000a0 92 e6 36 bd 30 16 09 3d 9b dc d2 3c 25 d6 7b bd
       -0.044653483 0.033468425 0.025739959 -0.06148352
0000b0 bd 21 0a 3d 8b 05 a3 3c 10 21 c1 bd d0 cb 1a bd
       0.03372358 0.019900104 -0.09430134 -0.037792027
0000c0 0f 92 36 be 5b 1f 00 be e3 50 0e bd c0 90 a4 bb
       -0.17829154 -0.12511961 -0.03474511 -0.0050221384
0000d0 9d a0 3d be 35 3b eb bd f2 57 c1 bd d7 89 42 3d
       -0.185183 -0.11485902 -0.09440602 0.047494736
0000e0 d1 7c f2 bd 91 e7 f0 bc f5 e6 ce 3d c2 a9 19 bd
       -0.11840213 -0.029407294 0.10102645 -0.03751541
0000f0 cf d6 71 3c 3e ce 6f bd 4e b0 37 be dd f9 d6 3c
       0.014760687 -0.058546297 -0.17938349 0.026242191
000100 52 82 43 3c 43 6e 3e be a3 83 e5 3d 13 c9 20 3e
       0.011932926 -0.18596749 0.11206748 0.15701704
000110 2b fd 8c bd 4b c0 07 be a4 f5 e1 bd 5a 84 82 3e
       -0.068842255 -0.13256948 -0.1103318 0.254916
000120 44 12 d1 bb 79 62 47 3d 46 f2 ee bd a1 5b bc 3d
       -0.0063803513 0.048677895 -0.11667304 0.09197164
000130 89 1d 64 3d e1 32 4e 3c ba c5 bb 3d 00 b6 14 be
       0.05569223 0.012585373 0.09168573 -0.14522552
000140 cb be 5e bd dd 66 3a bd 92 b8 0a be c8 31 8c 3d
       -0.054381173 -0.045508254 -0.1354697 0.068454325
000150 13 f7 19 be 32 d4 c2 3d 35 b7 09 be 12 7f d0 bd
       -0.15035658 0.09513129 -0.13448794 -0.10180487
000160 e1 0e ce 3c c2 53 64 3c 5a 3f d5 3d dd ad 9f 3d
       0.02515358 0.013935985 0.10412474 0.07796834
000170 32 8c 13 3d 89 b9 91 3c 5a e8 cc bd 41 28 9c bd
       0.036022373 0.017788665 -0.10005255 -0.07624865
000180 d4 af 16 3d 60 55 21 bd 59 91 99 bd 40 a7 00 3e
       0.036788777 -0.03938806 -0.07498426 0.12563801
000190 ee 8a ca 3d 51 62 b1 bc be 34 1b 3e 31 a0 cd 3d
       0.0988978 -0.021653326 0.15156838 0.1004032
0001a0 82 2e a3 3d 8a c9 53 3d 00 de c5 bd 2e 7e 07 bc
       0.07967855 0.051705875 -0.09661484 -0.00826983
0001b0 48 85 e6 3d f5 60 01 3e 4d 96 11 3e ae fb be 3d
       0.1125589 0.12634642 0.14217491 0.09325348
0001c0 d1 e5 d7 3d dd a7 80 3d ff ee fd bd 8e 87 3e bc
       0.10541881 0.062820174 -0.123991005 -0.011628998
0001d0 dd c8 5b 3d 9a c0 c2 bd 59 6e 04 3e f3 0b 8a 3d
       0.053658355 -0.09509392 0.1293272 0.067405604
0001e0 50 31 07 3e c3 3a 87 bc d1 9c c0 3d 61 4b 9a 3c
       0.13202405 -0.016507512 0.0940491 0.018834772
0001f0 d3 c2 74 3d d7 af b5 bd cc eb 9a 3d 01 66 b8 3d
       0.05975611 -0.088714294 0.07564506 0.09003831
000200 f2 7c b5 3d 3d 70 b9 3d 6d a2 ac bd 72 bc d8 bd
       0.08861722 0.09054611 -0.08429418 -0.10582818
000210 95 4c 99 3c 7f 6f 15 3c 72 33 21 3e e3 06 e0 3d
       0.018713275 0.009120821 0.15742281 0.109388135
000220 1b 20 8c bd bb 18 0b bd 14 61 5a 3d f0 b4 e3 bd
       -0.06842061 -0.03395913 0.053315237 -0.111184955
000230 cc 4b 1f 3e c4 cd 7a 3d b3 dc 24 3e e9 f7 c6 bd
       0.15556258 0.06123139 0.16099815 -0.09715254
000240 23 3f 76 bd e4 6d 6d bd a8 75 11 3e 05 e3 2b be
       -0.060118806 -0.057966128 0.14205039 -0.1678582
000250 a9 7c 4e bd 0b 50 22 be 2d 40 b3 3d b6 22 57 3c
       -0.050411854 -0.15850846 0.08752475 0.013130834
000260 e0 53 01 3e c0 7f 51 3d 11 51 2f 3d 80 ec 46 3a
       0.12629652 0.051147223 0.04280192 0.0007588342
000270 56 c4 ce bd cc 7a 89 bd dc 0b a9 bd 79 e2 e4 3d
       -0.10096042 -0.06712875 -0.08254215 0.11176009
000280 15 98 08 be f3 48 00 3d c5 74 bf 3d 9a f2 db bd
       -0.13339265 0.03131957 0.09348444 -0.10739632
000290 ff 2b b6 3b 8e 52 1a bc c4 a3 94 3d 63 e4 e2 3d
       0.005559444 -0.009419097 0.07257798 0.110787176
0002a0 44 1d e9 bc 2f 49 e0 bc 63 80 73 bc 69 aa 12 3e
       -0.028456338 -0.027378647 -0.014862153 0.14322819
0002b0 c9 a7 04 3e cc 1d ef 3d af b3 b2 bd f5 b1 c5 3b
       0.1295463 0.11675605 -0.08725678 0.006033177
0002c0 66 f4 09 be c9 e0 60 bd ab 90 b0 3c 7c a0 71 3d
       -0.13472137 -0.05490187 0.021553358 0.05899094
0002d0 d9 b9 1f be f1 e2 89 3d f2 b3 07 be 02 92 02 3d
       -0.15598239 0.06732739 -0.13252237 0.031877525
0002e0 2f d4 05 3b 47 40 c4 3d 8e 62 0d 3e 27 4c a4 bd
       0.002042066 0.095825724 0.13807127 -0.080223374
0002f0 97 cf 7e 3d 79 08 89 bc 22 6b 34 3d 2e 07 85 bc
       0.06220969 -0.016727673 0.044047482 -0.016238775
000300 f8 02 13 be 1a 6e 2b 3e 08 5a ec bc d6 d7 bd be
       -0.14356601 0.16741219 -0.028851524 -0.37078732
000310 22 34 a8 be 67 35 ef 3d d1 5b db 3c e3 aa 95 bd
       -0.32852274 0.116801076 0.02677718 -0.07307985
000320 a6 00 9a 3b 6e db ac 3e fd 05 9d bd 55 4f 45 3d
       0.0046997843 0.33761162 -0.07667158 0.04817136
000330 d4 02 55 bd 95 8c 57 bd 37 6f 59 3e 83 4c 92 3d
       -0.05200465 -0.052624304 0.21233831 0.071435
000340 b4 d9 37 be cd c4 04 bc 7a d9 58 3e cb 90 b6 3d
       -0.17954141 -0.008103562 0.2117671 0.08914336
000350 74 82 a2 3d 0f 6b 49 3c 8d 4a c0 bd 44 ff 33 3e
       0.07935038 0.012293591 -0.093892194 0.17577845
000360 30 33 cd be f2 43 b9 3d 47 05 2c 3c 93 aa 46 3e
       -0.40078115 0.09046163 0.010499305 0.19401006
000370 16 3f 05 3e cc 30 8d 3c 87 fc b5 bd d3 d4 88 bd
       0.13012347 0.017235182 -0.088860564 -0.06681218
000380 36 13 b6 bd 94 41 7b bd 90 e1 e7 3a bf ee 20 be
       -0.08890383 -0.061341837 0.0017691124 -0.15716074
000390 6d 13 df bd f0 ec 9c 3d 5e 60 e9 3d 4d 74 48 3d
       -0.10892377 0.0766238 0.11395334 0.048939038
0003a0 2d 74 2f be a0 57 f0 bd 7a 4e 9c bd af e6 e5 3c
       -0.17134161 -0.11735463 -0.07632156 0.0280641
0003b0 38 97 96 3d c3 d3 b3 3e 2e 2e ca 3d c3 2f 3b 3e
       0.073530614 0.351225 0.09872089 0.18279938
0003c0 37 64 5b 3c 30 b6 d4 3a 17 5b 31 3e 2c 32 0b bd
       0.013390592 0.0016228613 0.17319904 -0.033983395
0003d0 aa 13 8c bd 5a 73 2b bd 64 c7 a9 3d 28 d7 92 bd
       -0.06839688 -0.041858055 0.08289984 -0.07169944
0003e0 95 d7 da bd 5e 1a 3e bd bb d0 9f 3d 80 0d 32 3c
       -0.1068565 -0.046411864 0.07803484 0.010867476
0003f0 63 0a 1b bd 59 03 0c be 74 01 c3 bc 7e c5 b9 3d
       -0.037851702 -0.13673152 -0.023804404 0.09070872

bias f4 [48]
000000 c2 66 3b bd a5 9f 45 3d 68 40 37 bd 8b 0c ff bd
       -0.045752294 0.048247952 -0.044739157 -0.12453564
000010 f5 91 e5 bd ee 1d fd bc b6 2a d2 3c d0 35 70 3d
       -0.1120948 -0.03089806 0.025655132 0.05864507
000020 ca a8 1f 3e 15 68 10 be 6d ed d0 bd e0 a1 c8 3b
       0.15591732 -0.14102204 -0.102015354 0.0061228126
000030 ce b5 a6 bd 01 7b 0d 3e ee 9d 8b bd dc 88 15 be
       -0.08140145 0.13816454 -0.06817232 -0.14602989
000040 71 df bd bc da 6c b0 3d 6b 69 07 be c9 1c 32 3d
       -0.023177834 0.08614512 -0.13223808 0.043484483
000050 93 d9 c9 bd 29 ed 88 3d 8b af d2 bd 20 80 66 bd
       -0.09855952 0.0668586 -0.102873884 -0.056274533
000060 95 cf 34 3d d2 62 19 3e b5 91 0f be 75 b1 05 be
       0.04414328 0.14979103 -0.14020427 -0.13055976
000070 d3 bc c5 bd 21 d1 d7 3d 45 94 7c bc 7f bb c5 bd
       -0.09655156 0.10537935 -0.01541621 -0.09654903
000080 34 77 c0 3d 2a 86 ca bc 39 48 da 3d 49 a7 0c bc
       0.09397736 -0.024722178 0.10658307 -0.008584806
000090 19 da 96 bd fd 94 ff 3d 7f b4 a0 bd f0 6b cf bd
       -0.073658176 0.12479589 -0.07846927 -0.10128009
0000a0 3e c3 9c bd e5 fc b6 bd ec 9b 02 3d 74 48 ce 3d
       -0.07654427 -0.089349546 0.03188698 0.10072413
0000b0 7b 43 c1 3d 66 74 c0 bd 4f f3 03 bd aa 04 e5 bc
       0.09436699 -0.09397201 -0.03221446 -0.027956326

weight f4 [48, 48]
000000 7a ff ff bd 2e b3 41 3d b1 88 ce 3c 1c 33 01 3d
       -0.124999 0.04729002 0.025211664 0.031542882
000010 1b c2 b0 bd a5 24 20 bd 9b f2 0a 3e d0 29 59 3d
       -0.08630773 -0.039097447 0.13569109 0.05301839
000020 23 24 ba bd 92 7d ac bc b3 1e f8 3d de 7f d0 3d
       -0.09088924 -0.02105597 0.121152304 0.10180639
000030 94 68 02 be ae c4 a2 3c 29 0c a7 3d a0 de b3 bd
       -0.12735206 0.019869175 0.08156616 -0.08782697
000040 78 69 f9 bc f7 25 27 be dc c0 e4 bd 4f d8 90 ba
       -0.0304458 -0.16323076 -0.111695975 -0.0011050793
000050 4c 29 8d bd f6 09 8a 3d 24 0b 2a bd 3e 19 85 3c
       -0.068926424 0.06740181 -0.04151453 0.016247388
000060 25 41 20 3e ce 47 ee 3b 97 ac 1d 3d c4 06 c9 bd
       0.1564985 0.0072717434 0.038494673 -0.098157436
000070 fb 5a 8f 3d 35 68 e9 bc 96 29 f5 bd ba b9 14 be
       0.06999775 -0.028492073 -0.119708225 -0.14523974
000080 87 8a a3 bc 6e 78 09 be 34 d3 0b be ef e0 c1 3d
       -0.019963516 -0.13424847 -0.13654786 0.09466731
000090 8b ac f3 bd 55 d7 ba bd e1 16 8b 3c 72 74 12 3e
       -0.11898144 -0.091231026 0.016978683 0.14302233
0000a0 97 3e ed bc d2 62 0d 3e ba cf 9c 3d 1f bb 92 3d
       -0.02896051 0.13807228 0.07656808 0.07164597
0000b0 10 41 74 3d 0d bb 27 bd fa d5 a7 bd e5 61 0e 3e
       0.05963236 -0.04094987 -0.0819511 0.13904531
0000c0 b3 54 7f bc 9b 36 01 3e d5 8b 21 be 69 5b 97 3d
       -0.015584159 0.12618487 -0.15775998 0.07390482
0000d0 7f ee cb 3d 4a 93 77 bc e9 34 1b be ab 25 3e bd
       0.09957599 -0.0151108 -0.15156902 -0.04642264
0000e0 e4 a1 ac 3d dc 62 ff bd bf c4 e2 bd 1e 56 e7 3c
       0.08429316 -0.12470028 -0.110726826 0.028239306
0000f0 dd 87 85 bc 88 74 c1 3c 2d e0 5b bd c2 22 57 3d
       -0.016300136 0.023615137 -0.053680588 0.052523382
000100 77 43 ba 3d db b4 88 3b 45 6e 5c 3d 13 d3 4a bd
       0.09094899 0.0041719503 0.0538161 -0.049517702
000110 ec cc fb bc d9 b0 dc bd 61 8c b6 b9 11 33 ae bd
       -0.030737363 -0.107759185 -0.00034818336 -0.08505834
000120 ed 66 f7 3d d7 e2 21 3c 64 4d bb bc b1 87 bf 3d
       0.120801784 0.009880743 -0.022864051 0.09352053
000130 40 6d e9 3b be 58 0c 3e d5 3c 0e be a8 c3 eb 3d
       0.0071236193 0.13705727 -0.13890393 0.11511928
000140 12 6b 16 3e 4b 7e f5 bd 63 72 0f bd cc 59 4b bc
       0.14689282 -0.11986979 -0.035021197 -0.012411546
000150 42 f3 23 3d d5 ac 75 bd f8 f2 ee 3c 0e d2 cb bd
       0.04002691 -0.05997928 0.02916859 -0.09952174
000160 4f 82 16 3e 67 2f 09 be 39 5f e2 bc 95 07 76 bd
       0.14698146 -0.13396989 -0.027633296 -0.060065825
000170 df bc 9e bd f8 c4 92 3c c8 32 d2 3d 96 f7 ed bd
       -0.07750868 0.017916188 0.10263592 -0.11619489
000180 8e d0 a4 3d f0 4d 9b bd 2c 67 e5 3d b0 f7 e9 bd
       0.08047591 -0.07583225 0.11201319 -0.11424196
000190 ca e8 dd bd 6c 73 7a 3c f9 bc 53 bd 2b f1 c4 3d
       -0.108354166 0.015286308 -0.05169389 0.09616312
0001a0 24 a9 49 3d a4 6c 8a bd 7d a2 88 3d ce c5 93 bd
       0.04923357 -0.06759003 0.06671617 -0.072154626
0001b0 5a 3b a0 3c 81 21 95 3d f3 68 86 3d 21 d4 08 3d
       0.019559551 0.07281781 0.06562986 0.033405427
0001c0 39 60 b8 bd b6 8f 8b 3d 5c 56 a0 bc 27 d8 2d 3c
       -0.09002728 0.0681452 -0.01957243 0.010610617
0001d0 92 09 87 3b 4e 2f 00 3d 17 91 8d 3d 6b 17 eb bd
       0.004121014 0.031295113 0.06912439 -0.11479076
0001e0 eb ae 56 bd 45 19 2f be 96 6c 53 bd c9 8b 20 bd
       -0.05241291 -0.17099483 -0.051617227 -0.03919581
0001f0 9d 1e 06 bb a8 a9 43 be 19 b0 31 3d a6 b8 0f be
       -0.0020465024 -0.19107687 0.04338083 -0.14035282
000200 bf 4b 89 3d 14 f4 3c bd 5a f0 31 bd 89 58 03 3e
       0.067039005 -0.04613121 -0.043442108 0.12826742
000210 36 96 47 bd 95 a0 7d bd 3a 85 11 be 4b a0 07 be
       -0.048727237 -0.06192072 -0.14210978 -0.1324474
000220 f0 94 25 3d d9 86 e2 3d c3 1a b3 3d ef 71 b8 bd
       0.04042524 0.110608764 0.08745339 -0.09006106
000230 b3 f6 3b 3e 1b cc 12 be 20 63 12 be be 31 39 3e
       0.18355827 -0.14335673 -0.14295626 0.18085381
000240 8f df 86 3d 08 84 20 bd 05 e4 c4 3c 02 e7 38 bb
       0.06585609 -0.039188415 0.02403451 -0.0028213863
000250 af c5 f4 bd 81 ce 5b bd 16 92 0d be 3d 74 9e bd
       -0.11951768 -0.053663734 -0.13825259 -0.077370144
000260 3e 9e fb 3c 40 db d6 bd 7f 26 0f 3e e5 fb cd bd
       0.030715104 -0.10491037 0.13979529 -0.10057811
000270 8a 76 97 3d e7 c9 17 3e de 6e ad 3d 08 24 81 3d
       0.073956564 0.14823113 0.08468412 0.063057005
000280 7e 3e 8b 3d dd 51 1c 3d 45 32 3c bd 17 1a 22 3e
       0.06799029 0.03816401 -0.04594638 0.15830265
000290 60 2b e6 3d 87 3c 00 3e 77 9e 03 3e 99 8f cf 3d
       0.11238742 0.1252309 0.12853418 0.10134811
0002a0 4d 23 2a be 1a 4d 0c be e8 55 19 bd 6e f0 32 3d
       -0.16615029 -0.13701287 -0.037435442 0.043686323
0002b0 7a 79 0b be 44 31 26 bd 24 8a 05 3c f0 2a a1 bd
       -0.13620558 -0.040574327 0.008150611 -0.07869518
0002c0 5a 93 0e ba 09 e2 e6 bc 62 cc 5d bd 7e c8 ce bd
       -0.0005438827 -0.028183954 -0.054149993 -0.100968346
0002d0 8f 10 bf bd bc 72 8a bd b3 2b 08 be 9c 9d d6 bd
       -0.0932933 -0.06760165 -0.1329792 -0.1047928
0002e0 0c c4 50 3d 13 03 05 be e6 8e ed 3d cf 21 b3 3d
       0.050968215 -0.12989454 0.11599521 0.08746683
0002f0 b8 d0 61 3d 2c 14 b2 3d 65 b2 94 3d 1d 2c 08 bd
       0.05513069 0.08695254 0.072605886 -0.033245195
000300 9f ec 60 be a8 a4 d3 bb a0 87 9b 3c 0d cf 40 3e
       -0.21965264 -0.0064588375 0.01898557 0.18828984
000310 cb 24 53 3d b7 e3 d8 bd bc 06 a5 bd ae 5a ad 3d
       0.05154876 -0.10590308 -0.08057925 0.084645614
000320 7a 68 20 be 79 4e 5a bc 6f 16 e2 3d 21 da 91 3b
       -0.15664855 -0.013324373 0.11039435 0.004451052
000330 29 e5 52 bd cd 0e 96 3d 48 62 78 bc e9 2e ab 3d
       -0.051488075 0.07327042 -0.015160151 0.08358557
000340 e7 32 89 bd 49 b4 97 3d 5d 26 06 3e c9 61 01 be
       -0.06699162 0.074074335 0.13100572 -0.12634958
000350 19 d2 c8 bc 1c b1 20 be ef d5 0d 3e 56 0d 2f bd
       -0.024514245 -0.15692562 0.1385114 -0.042737328
000360 6c 4c 9a bd 23 d9 19 3e f6 09 ab 3a 87 de c0 3d
       -0.075341076 0.15024237 0.0013049233 0.09417444
000370 09 c5 02 be 21 37 fe 3d 97 8a 0d bc c2 d7 28 3d
       -0.12770475 0.12412859 -0.008638999 0.041221388
000380 5d ba 3e 3d 24 db 15 3e 65 93 a9 bc c4 79 3b 3d
       0.04656445 0.14634377 -0.020700166 0.04577042
000390 27 16 8c bd b6 64 f1 3d 7c c5 b9 3c 89 6a 87 bc
       -0.06840163 0.11786787 0.022677176 -0.016530292
0003a0 29 03 b7 bd 46 d6 26 3c 43 cc 15 be 2a 93 22 3e
       -0.089361496 0.010182923 -0.14628701 0.15876451
0003b0 00 ae f5 bd 5d bf 0b 3e a9 a1 03 3e a0 d1 89 bd
       -0.119960785 0.13647218 0.12854637 -0.06729436
0003c0 ed 6a 2f be 3a 34 08 3e 4e 91 5c 3d 03 d6 94 3d
       -0.17130633 0.13301173 0.05384951 0.07267382
0003d0 9f 18 01 3e 85 74 84 bc 2b e7 d4 3c b7 2a a9 bc
       0.12607048 -0.016168842 0.025989136 -0.02065025
0003e0 2a 35 90 3c f4 18 d9 3d 99 90 a4 bd 8d cd e8 3d
       0.017603476 0.106004626 -0.08035392 0.11367331
0003f0 de 44 2d 3d 62 1e 86 bc ec 04 e9 bd 8a c1 8d 3d
       0.042302005 -0.01637191 -0.11377892 0.0692168

bias f4 [48]
000000 13 21 5d bd d5 ec 5d bd 36 0d 71 bd d8 71 c2 bc
       -0.05398662 -0.05418094 -0.05885049 -0.023735926
000010 c7 de 12 3d f8 db 45 3d 7b b1 63 3c 25 00 7e bb
       0.03585699 0.04830548 0.013897295 -0.003875741
000020 30 92 df bd 55 2f d1 3d 51 e5 f0 3d 54 39 22 bd
       -0.10916555 0.10214106 0.11762489 -0.039605454
000030 86 8d 00 be 32 db 05 3d c0 c3 e6 3d 8d 9b 2d bd
       -0.12553987 0.032679744 0.11267805 -0.042384673
000040 50 6e b6 3d aa 5f 91 3d 9e 83 5a 3d 4a 2b 1e be
       0.08907759 0.070983246 0.053348176 -0.15446201
000050 66 4e b7 bc d9 e0 63 bd 8c 0e 0e be 12 bd bc 3d
       -0.02237625 -0.055634353 -0.13872737 0.0921575
000060 e5 6c 40 3c 02 b6 3d bc 37 5f a9 3d ba d1 66 bd
       0.0117447125 -0.011579039 0.08270114 -0.056352355
000070 bc 90 21 be 13 b1 38 bd 5b bd 18 bd 5f ab 03 3e
       -0.15777868 -0.045090746 -0.03728996 0.12858342
000080 29 53 3a 3b 7f 0b eb bd 6a d7 01 be 59 7c 1f bd
       0.0028430915 -0.11476802 -0.1267983 -0.038936947
000090 a3 53 e0 bd 13 df ad bd 5d c0 06 3c b4 c1 cd bd
       -0.109534524 -0.08489814 0.008224574 -0.100467116
0000a0 91 2c e6 bd 1c 46 08 3e ee 19 51 bc 0c 49 09 bc
       -0.11238969 0.13307995 -0.01276253 -0.008379232
0000b0 ca f3 f7 3d 69 02 c7 bd a5 f9 12 bc 79 1d e1 bd
       0.12107046 -0.097172566 -0.008970653 -0.109919496

weight f4 [4, 48]
000000 d8 2c c5 bd 15 e1 e2 3d 90 2e dd bd 69 f0 aa 3d
       -0.09627694 0.11078087 -0.10799897 0.08346636
000010 40 ee 01 3e d4 6a 95 bc 5e 83 ab bd ac cc 52 3d
       0.12688541 -0.018239416 -0.08374666 0.05146472
000020 f0 c4 30 3c 47 26 2d bd 03 59 f9 3c 35 7e c1 3d
       0.010789141 -0.042272832 0.030437952 0.094479
000030 81 c9 cd 3c a5 cb c4 3d 51 da 88 3d 56 12 b2 3d
       0.025120499 0.096091546 0.066822655 0.086949036
000040 fd 7a f8 3d 41 63 dd 3d 93 e4 b2 bc 19 ac a1 bd
       0.12132833 0.10809947 -0.021837508 -0.07894153
000050 63 a6 0e be 4c f4 e9 3d 0d c6 10 3d 54 f7 67 bd
       -0.13930659 0.11423549 0.035345126 -0.056632355
000060 41 53 4e 3c ae c4 0b 3e b2 fa f1 bd 26 76 bb bd
       0.012593091 0.13649246 -0.118153945 -0.091533944
000070 c1 d3 50 3d 59 f3 c4 3b 5f ea d3 bd 3c 89 db 3d
       0.050983194 0.0060104546 -0.10347437 0.10719535
000080 a7 c4 c1 bd a6 51 4e 3b 70 3c 07 3e 36 1c 82 3d
       -0.094613366 0.0031481772 0.13206649 0.06353037
000090 cd 88 c3 3d 2c 25 e9 3d ef aa 04 be be e6 f2 bd
       0.09547577 0.11384043 -0.12955831 -0.11860417
0000a0 f9 6b 86 bd cd ca fc bd 0c 88 d3 bd 98 41 c1 3d
       -0.06563563 -0.12343369 -0.10328683 0.09436339
0000b0 1b 66 d9 3c 6a f3 fc bc 17 00 c6 3d da 28 c9 bd
       0.026537945 -0.030877788 0.09667986 -0.09822245
0000c0 f4 05 ce 3b 67 68 d8 bc 26 84 19 3e 73 3a 19 3e
       0.0062873308 -0.02641697 0.14991817 0.14963703
0000d0 9b 95 00 be a0 5c 2a be 86 85 c3 bd 21 d0 de bd
       -0.1255707 -0.16636896 -0.09546952 -0.10879541
0000e0 17 51 3f bd 7a 50 b0 3b 50 4c 01 bb bc 96 19 bd
       -0.046708193 0.0053806873 -0.0019729324 -0.037497267
0000f0 8f 07 a9 bd c5 e3 20 3e 96 eb 41 3d b6 62 af bc
       -0.08253395 0.15711887 0.047343813 -0.021409374
000100 32 4e 05 3e 70 49 bc bd 0a 31 bd 3d a3 63 08 3e
       0.1301811 -0.091936946 0.09237869 0.13319258
000110 4a e1 2e 3e 91 57 2d 3e 2e 6e 13 bc a1 23 25 3e
       0.17078128 0.16927935 -0.008998437 0.16126873
000120 61 98 16 3e 48 59 2a bd 5a b4 35 be 8c 5b 59 3d
       0.14706565 -0.04158905 -0.1774458 0.05306582
000130 c0 af 78 3d 2f fa 09 be 23 86 1e 3e 08 6e 55 bd
       0.060714483 -0.13474344 0.15480857 -0.052106887
000140 17 2d f5 3d 82 1e 82 3c 63 e0 b2 3c 66 f5 22 bd
       0.11971491 0.015883688 0.021835512 -0.03978481
000150 01 94 18 bc a4 a5 ff 3d 0c c9 50 bd 31 bc d2 bd
       -0.009312631 0.12482765 -0.050972983 -0.10289801
000160 45 bb 0d 3e df 2b 33 bd 35 ea b6 bd c0 f1 24 bd
       0.13840969 -0.04374301 -0.0893139 -0.040269613
000170 7f 7c 38 bb c3 8d 08 bd 1c 31 db 3d 81 84 ed 3c
       -0.0028150377 -0.03333832 0.10702726 0.028993847
000180 04 9c 26 be 50 4b af 3d 18 f8 84 3c 9d f1 cc 3d
       -0.16270453 0.085592866 0.016231582 0.100070216
000190 39 7e 85 bd 03 36 26 3c 71 fa b1 bd 3a b5 0b bd
       -0.06518216 0.010144713 -0.08690346 -0.034108378
0001a0 5c 2e f3 3d d0 5e 98 3d 0d 7f 8a 3c a6 7b d5 3c
       0.11874077 0.07439959 0.016906286 0.026059937
0001b0 89 8f f3 3c e0 b1 9d 3d 88 5a 65 bd b5 e3 fe bc
       0.029731529 0.076999426 -0.05599454 -0.031114439
0001c0 72 8b 02 3e 54 17 2b be c2 1e 38 3e dd f2 a4 3c
       0.12748507 -0.16708118 0.17980483 0.020135337
0001d0 61 bf 96 3d 47 ec f4 bd 52 c6 06 be b8 c7 2a be
       0.073607214 -0.11959129 -0.1316159 -0.16677749
0001e0 a1 4d 44 3e 7c 83 fe 3d 0c 79 94 3c f1 8e 46 bd
       0.19170238 0.124274224 0.018124126 -0.048476163
0001f0 a9 4e a1 bd c6 7d 32 3e 6b b2 72 3d e1 63 e9 bd
       -0.07876331 0.17430791 0.059252184 -0.113960035
000200 54 51 38 3c bc 72 4f be 49 81 23 3b 9f 3f 97 3c
       0.011249859 -0.20258611 0.0024948886 0.018462954
000210 fb 2d fc bb fa 82 29 3e 7c 2d 29 3d 1f b4 65 3d
       -0.007695911 0.1655387 0.041303143 0.05607998
000220 4b 6b 2c be 5b 75 13 be 0f 9a 41 3d db 10 be bd
       -0.16837804 -0.14400236 0.047266062 -0.09280559
000230 61 a0 0f bd 0a f1 8b bd d3 bd 00 3d 23 86 a5 bd
       -0.03506506 -0.06833084 0.03143103 -0.08082225
000240 da ef 23 3d d3 6b 3a bd 37 8c bc bd b2 1e 11 3e
       0.040023662 -0.045512985 -0.09206431 0.14171866
000250 e2 06 91 bd 2e 8e e2 3d ff e7 a3 3c ba 51 9e bd
       -0.07081391 0.11062275 0.020008085 -0.07730432
000260 ef f7 34 bb e8 0d f9 3d a9 d5 90 3c a1 41 e7 bd
       -0.00276136 0.121608555 0.017680006 -0.112918146
000270 45 7f 8a 3e a6 d0 81 bd 34 41 da 3d 55 86 98 3c
       0.27050224 -0.06338625 0.10656968 0.018618742
000280 80 af e7 bc 61 e5 fa bb 6e 8c 99 bd 89 77 12 be
       -0.028281927 -0.0076567386 -0.07497488 -0.14303412
000290 fe e2 5f bd 6c ff d8 3d 88 0c 29 3e 6f fa 9a bc
       -0.054659836 0.10595593 0.16508687 -0.018918244
0002a0 c4 66 ce 3b 75 bd 50 bd e4 52 54 bd e8 0b 07 be
       0.0062988717 -0.05096193 -0.051836863 -0.13188136
0002b0 86 3d 84 3d 84 b4 0c bb 09 b5 0e bd af 39 65 3c
       0.06457047 -0.00214699 -0.034840617 0.013990804
0002c0 0b 2c 50 3d 5f 4e 94 3d 6d c3 8b bd f4 b2 b8 3d
       0.050823253 0.072415106 -0.06824384 0.090185076
0002d0 9b 4b 1d be 5b 50 50 3d 2b 8c d2 bc 19 6f dd 3d
       -0.15360872 0.050857883 -0.025701603 0.10812206
0002e0 03 4d b2 bd 01 ba d7 3c d7 19 88 3b 4b df 0e be
       -0.08706095 0.02633381 0.004153471 -0.13952367
0002f0 4e 72 ea bb a1 67 b1 3d 46 0b ac bd 49 df bf 3d
       -0.0071547395 0.08662344 -0.08400588 0.0936876

bias f4 [4]
000000 5d f9 cd bd 94 32 8f 3d 48 36 e8 bb 4f 7a 1f 3d
       -0.10057328 0.06992069 -0.007086549 0.038935002
