mPINNs-R1/mPINNs_result/result7/model.pth (torch, 35100 bytes, 10 tensors)

weight f4 [48, 2]
0	0x3e17bc70	0.14817977
1	0x3f3676ff	0.71275324
2	0xbf27992b	-0.6546809
3	0xbe97e659	-0.2966793
4	0x3e233cdf	0.15941189
5	0x3ec96470	0.3933444
6	0x3edb62dc	0.4284886
7	0x3d882f1a	0.06649609
8	0x3e9ac8dd	0.30231372
9	0x3c44d458	0.012013517
10	0xbea485e1	-0.32133391
11	0x3f324621	0.6963826
12	0xbe9c17b0	-0.30486822
13	0x3e719173	0.2359064
14	0x3edce542	0.4314366
15	0xbe814a8b	-0.25252184
16	0x3f37163f	0.7151832
17	0xbe061504	-0.13093954
18	0x3e82b732	0.25530392
19	0x3f12d535	0.5735658
20	0x3db210bf	0.086946
21	0x3ee5a8a1	0.44855216
22	0xbf0d7c50	-0.5526781
23	0x3f162fc2	0.5866662
24	0xbf2ceda1	-0.6755009
25	0x3e9e9e9c	0.30980384
26	0xbf0f27a5	-0.5591987
27	0x3efdc043	0.49560747
28	0xbf438a92	-0.76383317
29	0x3e00fc8a	0.12596336
30	0x3f287c3b	0.6581456
31	0xbbefdf1f	-0.0073202993
32	0xbecd3bcf	-0.40084693
33	0xbdf42c6b	-0.119225346
34	0x3d3dc7a6	0.046332978
35	0x3f199e90	0.6000757
36	0xbe9c418d	-0.3051876
37	0x3dece9e0	0.115680456
38	0x3e6480fc	0.22314829
39	0xbf04c796	-0.51867044
40	0xbf1b9f8e	-0.60790336
41	0xbd6329e8	-0.055459887
42	0x3f310579	0.69148976
43	0xbf284e60	-0.6574459
44	0xbf2a99dc	-0.6664102
45	0xbec54dc2	-0.38535887
46	0x3eb2f639	0.34953478
47	0xbec000d6	-0.37500638
48	0x3f360adc	0.7111032
49	0x3ebce955	0.36896768
50	0x3f226d6f	0.6344823
51	0x3f404ebe	0.7512015
52	0x3ea01c0a	0.31271392
53	0xbe26dad2	-0.16294411
54	0x3c566978	0.013086669
55	0xbe309163	-0.1724296
56	0x3e91a4b9	0.28445986
57	0xbeaca148	-0.33716798
58	0x3f30cb0e	0.69059837
59	0x3f031df0	0.51217556
60	0x3f0653d9	0.5247169
61	0xbe150828	-0.14553893
62	0x3dddc22b	0.1082805
63	0x3e7db3f2	0.24775675
64	0xbedc769b	-0.4305924
65	0x3e572784	0.21011168
66	0x3eb7237d	0.35769263
67	0xbe0d2e64	-0.13787228
68	0xbe5abe27	-0.213616
69	0xbcca4fd6	-0.024696272
70	0x3f1e5295	0.6184476
71	0xbe6bf17e	-0.2304134
72	0xbf2d1d10	-0.6762247
73	0xbef90b74	-0.4864155
74	0xbea8ced8	-0.3297031
75	0x3e9f546b	0.31119093
76	0xbedcd5bd	-0.4313182
77	0x3f36302b	0.7116725
78	0x3e0caca2	0.13737729
79	0x3f27c0c1	0.65528494
80	0x3ef8167f	0.48454663
81	0xbec33fe4	-0.38134682
82	0x3eb167dc	0.3464955
83	0xbe33b886	-0.17550859
84	0x3eeb1c3a	0.45919973
85	0xbc909343	-0.017648345
86	0xbf1916c1	-0.59800345
87	0x3e8cef3e	0.27526277
88	0x3db94ccc	0.09047851
89	0xbe332576	-0.17494759
90	0x3f1fe695	0.62461215
91	0xba968785	-0.001148448
92	0xbee17e5d	-0.4404172
93	0x3ebee7c0	0.37286186
94	0xbef11931	-0.47089532
95	0x3f1c6a91	0.6110011

bias f4 [48]
0	0xbdb3fd8a	-0.08788593
1	0x3d66ed5c	0.056378707
2	0x3eedbb81	0.46432117
3	0xbe915ab5	-0.28389516
4	0x3f2d45d0	0.6768465
5	0xbf206478	-0.62653303
6	0xbf31296e	-0.6920384
7	0xbdba3b50	-0.09093344
8	0x3e8c3bad	0.2738928
9	0xbde2f14b	-0.11081179
10	0xbeb7fdc1	-0.35935786
11	0xbf0af16a	-0.5427462
12	0x3e5644ef	0.20924734
13	0xbf1b6c55	-0.60712177
14	0x3f1329e3	0.5748579
15	0x3f026988	0.5094228
16	0xbe30fcea	-0.17283979
17	0xbe80d096	-0.25159138
18	0xbe5c0956	-0.21487936
19	0x3d6fd696	0.058554254
20	0x3f067424	0.52520967
21	0xbce928e1	-0.028461875
22	0x3f39862a	0.72470343
23	0xbe72f4c0	-0.23726177
24	0x3f2db0a6	0.6784767
25	0x3f29c5e3	0.66317576
26	0xbf0088bb	-0.50208634
27	0x3ec66032	0.38745266
28	0xbd7081c8	-0.05871752
29	0xbf0951c8	-0.53640413
30	0xbea8deab	-0.32982382
31	0xbee52a04	-0.44758618
32	0xbf1da6fa	-0.6158291
33	0x3f0cb298	0.5496001
34	0x3e86c5a9	0.26322678
35	0x3f0507a5	0.5196479
36	0x3f0f31d1	0.5593539
37	0xbe8e9512	-0.27848107
38	0x3d09b480	0.033619404
39	0x3de4047a	0.11133666
40	0xbec0ce81	-0.3765755
41	0xbe8dcf20	-0.27697086
42	0x3f0da919	0.5533615
43	0x3af2785a	0.0018499002
44	0x3ec09207	0.3761141
45	0x3f1aae15	0.6042188
46	0x3e3b0c71	0.18266465
47	0xbeb7a60e	-0.35868877

weight f4 [48, 48]
0	0xbd1ed73b	-0.03877948
1	0x3e3e928f	0.18610595
2	0x3d124c43	0.03571726
3	0x3e0a44eb	0.13502853
4	0xbdda8099	-0.10669059
5	0xbdc37f66	-0.09545784
6	0x3d7ec490	0.062199175
7	0x39811e1b	0.00024627228
8	0xbe28a296	-0.16468272
9	0xbd4a140d	-0.04933553
10	0x3dad0857	0.08448856
11	0xbd6a32e2	-0.057177432
12	0x3e029e76	0.1275576
13	0x3cdc572e	0.02689704
14	0xbd93687e	-0.07197665
15	0xbe3576c2	-0.17721084
16	0x3df25da7	0.11834269
17	0xbdcb8f82	-0.09939481
18	0xbd2e8400	-0.042606354
19	0xbdb37980	-0.08763409
20	0xbd8169a1	-0.06318975
21	0x3d0be7c2	0.03415657
22	0x3d375df0	0.04476732
23	0x3cb77deb	0.02239891
24	0x3d85e342	0.065374866
25	0xbe1ccfae	-0.15313599
26	0x3d2c8b94	0.0421253
27	0xbdf5c6e7	-0.12000828
28	0xbd5a8f64	-0.053359404
29	0xbbb68148	-0.0055696107
30	0xbd93630b	-0.07196625
31	0xbdcf959a	-0.10135956
32	0xbcb9c5af	-0.02267727
33	0x3d292da9	0.04130331
34	0x3bb5446c	0.005531838
35	0x3c12838c	0.008942496
36	0x3e116cfd	0.14201732
37	0x3c507455	0.012723048
38	0xbe1087fc	-0.14114374
39	0x3d3cebe8	0.046123415
40	0xbdda0a77	-0.10646527
41	0x3d88ac5a	0.066734985
42	0xbde09218	-0.10965365
43	0x3de7e870	0.11323631
44	0xbd3d87fd	-0.046272267
45	0xbc1f9227	-0.009739435
46	0xbde8c841	-0.113663204
47	0xbd8a0af8	-0.067403734
48	0xbe0c217b	-0.13684647
49	0xbca2b60f	-0.019862203
50	0x3de3fb27	0.11131888
51	0x3db74698	0.089490116
52	0xbd9ed827	-0.077560715
53	0xbdee51f1	-0.11636723
54	0x3e09cf5f	0.13458012
55	0x3d84f824	0.064926416
56	0x3dac0076	0.083985254
57	0xbdc9c788	-0.09852511
58	0xbe207513	-0.1566966
59	0xbdd9e01c	-0.106384486
60	0xbd145f32	-0.036223598
61	0xbdcae7d2	-0.099074975
62	0x3d03df47	0.032195356
63	0x3df689a6	0.12037973
64	0x3e148eee	0.14507648
65	0xbdefdb6f	-0.117117755
66	0xbadd6675	-0.0016891496
67	0xbdd1f7d8	-0.102523506
68	0x3d8ff3e9	0.07028944
69	0x3daf951f	0.085733645
70	0xbdacc259	-0.084355064
71	0x3e19ebf2	0.15031412
72	0x3e02265f	0.1270995
73	0x3d11ffed	0.03564446
74	0x3c2f5139	0.010700517
75	0xbd32613a	-0.043549754
76	0xbd846d36	-0.06466143
77	0xbcd24b37	-0.02567063
78	0x3c9f3893	0.019436156
79	0x3caca627	0.021075321
80	0xbddbe6f4	-0.1073741
81	0x3d914119	0.070924945
82	0xbd8d970d	-0.06913576
83	0x3da79860	0.0818336
84	0x3dfb83b5	0.122809805
85	0xbdcacbc4	-0.099021465
86	0x3a34906a	0.00068879745
87	0xbc031237	-0.007999948
88	0x3de99145	0.11404661
89	0x3c742c76	0.014903178
90	0x3c3b0151	0.011413888
91	0x3c5f8621	0.013642819
92	0x3c895f87	0.016769184
93	0x3c56af0a	0.013103256
94	0x3d962ea8	0.07333118
95	0x3d1493fd	0.036273945
96	0xbe1bbb27	-0.15208112
97	0xbd5d3b09	-0.05401138
98	0xbda5df6c	-0.08099255
99	0x3ceb5b0d	0.02872994
100	0xbdcbc9d9	-0.09950609
101	0xbdbec17e	-0.093142495
102	0xbd9c592e	-0.07634197
103	0x3d0f0add	0.03492247
104	0x3ce34044	0.027740605
105	0x3d2a41ef	0.041566785
106	0x3de3a3a6	0.11115198
107	0xbe2c504f	-0.1682751
108	0x3db5975b	0.088667594
109	0xbdb02ae8	-0.08601934
110	0xbcf77fd6	-0.030212324
111	0xbd097f00	-0.033568382
112	0xbda83e8c	-0.08215055
113	0x3cdc7499	0.026911067
114	0xbdb76b55	-0.08956019
115	0xbd1798d3	-0.03701098
116	0xbdaa92c3	-0.08328774
117	0xbdac65e9	-0.08417875
118	0xbd6dfc35	-0.05810185
119	0x3d0abd88	0.033872157
120	0x3dd33cbe	0.1031432
121	0x3db03a8b	0.08604916
122	0x3e0374ca	0.1283752
123	0xbd7d0b0b	-0.06177811
124	0xbd6c345a	-0.057667114
125	0xbd29b6ab	-0.04143397
126	0x3ca35c8c	0.01994159
127	0xbe0a83c5	-0.13526829
128	0xbb0a3e84	-0.002109439
129	0x3d602221	0.054720048
130	0x3db8eb41	0.09029246
131	0x3e045fe2	0.12927201
132	0xbda5d898	-0.080979526
133	0x3d3cc943	0.046090376
134	0xbd869f22	-0.06573321
135	0xbe10c397	-0.14137112
136	0x3d4858d3	0.048912834
137	0xbdeca4b5	-0.11554853
138	0x3c89c99f	0.016819773
139	0xbd045410	-0.03230673
140	0x3d3dad11	0.046307627
141	0x3dc8350a	0.097757414
142	0xbd850c78	-0.06496519
143	0x3d417255	0.047228176
144	0x3d39a2c4	0.04532124
145	0xbe62711b	-0.22113459
146	0x3da9dc68	0.08293992
147	0xbd5b69bd	-0.053567637
148	0x3d4eae44	0.05045916
149	0x3d39bfd6	0.045348965
150	0xbe0a1255	-0.13483556
151	0x3d974a77	0.0738725
152	0x3e06485a	0.13113537
153	0x3c6e0485	0.014527445
154	0xbe1d837f	-0.15382193
155	0xbde7f28d	-0.1132556
156	0xbe120179	-0.14258374
157	0xbd9af250	-0.07565749
158	0x3ce8e079	0.02842735
159	0x3c8e7011	0.017387422
160	0x3ca6ce78	0.020362124
161	0xbe061da2	-0.13097242
162	0xbe001a4a	-0.12510028
163	0x3dc7390e	0.09727679
164	0xbd6a7cd6	-0.05724796
165	0xbd736fa6	-0.059432648
166	0x3d516c34	0.05112858
167	0xbd2a6cd3	-0.04160769
168	0x3cf7da37	0.03025542
169	0xbcd4e535	-0.0259882
170	0xbc207eb8	-0.009795837
171	0x3d38f098	0.045151323
172	0x3ddca703	0.107740425
173	0x3d06e5ff	0.032934185
174	0x3dcc9fc4	0.099914104
175	0xbe0ae68d	-0.1356451
176	0xbde9b279	-0.11410994
177	0xbd9e3e93	-0.07726779
178	0xbce7eee0	-0.028312147
179	0x3d51b386	0.051196598
180	0x3e0e8df4	0.13921338
181	0xbc053e27	-0.008132494
182	0x3de557a6	0.11198358
183	0x3dab61ca	0.08368261
184	0xbdb21cde	-0.08696912
185	0x3dc4d850	0.09611571
186	0x3dc42e3a	0.095791295
187	0x3c34f45a	0.011044586
188	0xba4632b2	-0.0007560655
189	0x3e302822	0.1720281
190	0xbd651ba9	-0.055934582
191	0x3d66cb75	0.056346375
192	0xbca17715	-0.019710103
193	0x3e395581	0.18099023
194	0xbdf2afa2	-0.118499056
195	0xbda4b3be	-0.080420956
196	0xbdacc387	-0.084357314
197	0xbde8d2c9	-0.11368329
198	0xbe0b2d62	-0.13591531
199	0xbe14a161	-0.14514686
200	0x3d0cd435	0.034382064
201	0x3c9ca63f	0.019122241
202	0xbdf47ff9	-0.11938471
203	0x3da95385	0.08267883
204	0xbd5bb796	-0.053641878
205	0xbd2062b5	-0.039156634
206	0xbca9f9cd	-0.020748997
207	0x3c078417	0.008271239
208	0xbd610e3b	-0.05494521
209	0xbe0499fa	-0.12949362
210	0xbdd97bbf	-0.10619306
211	0xbd2a1141	-0.04152036
212	0xbca1e4f2	-0.01976249
213	0x3dc65dd5	0.09685866
214	0x3e481578	0.1953944
215	0xbdffcfc2	-0.124907985
216	0x3da46e4c	0.0802885
217	0x3ca07da4	0.01959116
218	0xbca4de94	-0.020125665
219	0xbd4c7920	-0.0499202
220	0xbdb8a9b8	-0.09016746
221	0xbdb9f3c5	-0.090796985
222	0xbe3de94a	-0.18546024
223	0x3db4de7c	0.08831498
224	0xbd7b8ec5	-0.061415453
225	0xbd0d2be6	-0.034465693
226	0x3dc6a063	0.0969856
227	0xbd802b67	-0.06258278
228	0x3e2bc175	0.16773017
229	0x3dadf455	0.08493868
230	0xbc76d9e3	-0.015066597
231	0x3d99887f	0.07496738
232	0xbd1587e1	-0.036506537
233	0x3d9afb2c	0.075674385
234	0xbdec66b0	-0.115430236
235	0x3e31e3fe	0.17372128
236	0x3ce2f641	0.027705314
237	0x3dc479a0	0.09593511
238	0xbd140f5b	-0.036147457
239	0x3b65b768	0.0035051946
240	0xbe44d0cd	-0.19220276
241	0xbded6706	-0.11591916
242	0xbdbd3f0c	-0.09240541
243	0xbe091e94	-0.13390571
244	0x3d108ba2	0.035289414
245	0xbd461f25	-0.048369545
246	0x3d9b84d9	0.07593698
247	0xbda5b278	-0.08090681
248	0x3d07ac0c	0.03312306
249	0xbdaeef28	-0.08541709
250	0xbd5abd82	-0.053403385
251	0xbd29e30e	-0.0414763
252	0x3d257133	0.04039116
253	0xbd7c3765	-0.061576266
254	0x3d5224f6	0.05130478
255	0xbe179c56	-0.14805731

bias f4 [48]
0	0x3ce39f25	0.027785847
1	0xbdad5f15	-0.08465401
2	0xbd2d497c	-0.04230641
3	0x3dd85095	0.10562245
4	0x3e13347c	0.1437549
5	0x3d864db7	0.06557792
6	0xbdffa35f	-0.124823324
7	0x3c0ebdbe	0.00871223
8	0xbe2b9329	-0.16755356
9	0xbbdf9605	-0.0068233036
10	0xbd1f2721	-0.038855676
11	0x3d8306cb	0.0639778
12	0xbda945e1	-0.082652815
13	0xbc879d93	-0.01655463
14	0x3d0224a3	0.03177322
15	0x3e020ae9	0.12699474
16	0xbca71a62	-0.020398322
17	0xbdda218f	-0.10650932
18	0x3d00f9ce	0.031488232
19	0xbc96f294	-0.018426217
20	0xbd4c04bd	-0.049809206
21	0x3de7c538	0.11316913
22	0x3df20fa6	0.11819391
23	0xbd3a5fd9	-0.045501564
24	0xbd354d29	-0.04426304
25	0xbb9c4b10	-0.0047696903
26	0x3ddcac9f	0.10775112
27	0xbdab7179	-0.083712526
28	0xbd861ceb	-0.065484844
29	0x3dc29c16	0.09502427
30	0xbc4ef6f3	-0.0126321195
31	0x3c99684a	0.018726487
32	0xbb14fbc0	-0.0022733063
33	0x3e17229c	0.14759296
34	0x3d042eae	0.03227108
35	0x3bfaeb71	0.0076574613
36	0x3dfa512f	0.12222516
37	0xbdebf471	-0.11521233
38	0xbcd64f8e	-0.026160982
39	0xbc693954	-0.0142348595
40	0x3d4fced1	0.050734345
41	0xbe076f46	-0.13226041
42	0xbe24d3d6	-0.16096434
43	0xbe11b541	-0.14229299
44	0xbd0f4a51	-0.034982983
45	0x3dc1b9e1	0.09459282
46	0x3d70b984	0.05877067
47	0xbd9b38e9	-0.07579214

weight f4 [48, 48]
0	0x3d6600b8	0.05615303
1	0x3db5a59e	0.088694796
2	0x3d7dbb7f	0.06194639
3	0xbdc0b291	-0.09409059
4	0x3e1321c5	0.14368351
5	0xbd818db2	-0.06325854
6	0xbdc76928	-0.09736854
7	0x3db479cb	0.08812293
8	0xbde15000	-0.11001587
9	0x3d1d18cf	0.038353737
10	0x3dd25567	0.102701955
11	0xbd6fc3f6	-0.058536492
12	0x3d0f03de	0.034915797
13	0xbe0045ae	-0.1252658
14	0xbdbb2cf7	-0.09139436
15	0x3a90d99d	0.0011051182
16	0xbddd226e	-0.107975826
17	0xbdeb0ac6	-0.11476664
18	0xbe0ed8d1	-0.13949896
19	0x3e41e563	0.1893516
20	0xbdb3bc3b	-0.087761365
21	0x3dfc94df	0.123330824
22	0x3e1dd175	0.15411933
23	0xbc67fa03	-0.0141587285
24	0x3d945add	0.07243893
25	0xbd564f7c	-0.052321896
26	0x3d6db914	0.058037832
27	0xbe385434	-0.18000871
28	0xbcba5beb	-0.022748908
29	0xbe0750b7	-0.13214384
30	0x3db77402	0.089576736
31	0x3dea7a23	0.11449077
32	0x3d52109e	0.05128538
33	0x3d615fe1	0.055023078
34	0x3e08a39b	0.1334366
35	0x3c9a07a3	0.01880247
36	0xbdab278a	-0.08357151
37	0x3dfe9a83	0.124318145
38	0xbd4ad1d3	-0.04951651
39	0x3dcd8f68	0.10037118
40	0x3d8232d0	0.06357348
41	0xbdfa4587	-0.122202925
42	0xbe09c861	-0.13455345
43	0x3d990c13	0.07473006
44	0xbd8d1d4d	-0.06890354
45	0x3d5825ba	0.052770354
46	0x3d88e25d	0.066838
47	0xbd8efb31	-0.06981505
48	0x3e0937a3	0.1340013
49	0xbd6c9e38	-0.057768077
50	0x3dc3ceb3	0.09560909
51	0xbd996169	-0.07489283
52	0xbdad489b	-0.08461114
53	0xbdc15032	-0.09439124
54	0x3d696781	0.056983475
55	0x3d84aef6	0.06478684
56	0xbd259aee	-0.040430956
57	0xbcbc5516	-0.02298979
58	0x3dcd142f	0.10013615
59	0xbe19ab13	-0.15006666
60	0x3cd26b01	0.025685789
61	0xbd34e26e	-0.044161253
62	0xbd1b67a9	-0.037940655
63	0xbe0fc1c3	-0.14038758
64	0xbd56f509	-0.052479777
65	0x3dc946b8	0.09827942
66	0xbd9d53fc	-0.076820344
67	0x3de1836c	0.11011395
68	0xbd431e09	-0.047636066
69	0xbd9c3228	-0.07626754
70	0xbd4b16c2	-0.04958225
71	0x3e2d5e0c	0.16930407
72	0x3dac47ee	0.08412157
73	0xbe02ad9d	-0.1276154
74	0xbbe90e44	-0.0071122963
75	0xbbbe159b	-0.0058009154
76	0xbdc05e30	-0.09392965
77	0xbb431ec7	-0.0029772983
78	0x3dcce393	0.10004344
79	0xbd440820	-0.04785931
80	0xbdc38965	-0.0954769
81	0xbdf9317d	-0.12167642
82	0x3d92977c	0.071577996
83	0x3d13d971	0.03609604
84	0x3b0eb440	0.0021774918
85	0xbd207763	-0.039176356
86	0x3c23de84	0.010001782
87	0x3d931ae9	0.07182867
88	0x3c87791b	0.01653724
89	0xbdb014d7	-0.08597725
90	0x3bf5ef43	0.007505329
91	0x3ddf3625	0.10898999
92	0x3ae03432	0.0017105399
93	0x3d663923	0.056206834
94	0x3de45b6a	0.11150248
95	0x3df3e48a	0.11908825
96	0x3d301d93	0.042996954
97	0xbdf94679	-0.12171645
98	0x3d90d5dc	0.070720404
99	0x3dec837c	0.11548516
100	0x3dec56cc	0.11539993
101	0xbcea0dbe	-0.028571006
102	0x3e2d2cad	0.16911574
103	0xbdcb9b97	-0.09941786
104	0xbdf8fa97	-0.12157171
105	0xbc22d95d	-0.009939519
106	0xbd8a45f5	-0.067516245
107	0x3d4ae5fe	0.049535744
108	0xbb64d0cc	-0.0034914492
109	0x3dc171ec	0.09445557
110	0xbd6257d5	-0.055259544
111	0x3e0cb518	0.13740957
112	0xbdb3e011	-0.08782972
113	0xbe03af19	-0.12859763
114	0xbb819061	-0.003953979
115	0xbcea8197	-0.028626246
116	0x3d62afca	0.055343427
117	0x3ce73c9d	0.028227145
118	0x3c27b712	0.010236518
119	0x3e30fc3a	0.17283717
120	0x3dc5bef7	0.09655564
121	0xbdae15e2	-0.085002676
122	0x3d82da0d	0.06389246
123	0x3defa8f9	0.11702151
124	0xbd463930	-0.048394382
125	0xbcc250f0	-0.023720235
126	0x3d91ff8b	0.07128819
127	0xbd84b6bd	-0.06480167
128	0x3d72509b	0.059158903
129	0x3da22981	0.079180725
130	0xbdb41e23	-0.087948106
131	0x3dd24d39	0.10268635
132	0xbe082046	-0.13293561
133	0x3db7179b	0.08940049
134	0x3d609f80	0.05483961
135	0x3de2e3a7	0.110785775
136	0x3cc287fd	0.023746485
137	0xbd99b107	-0.075044684
138	0x3dda421f	0.10657143
139	0xbdd3933f	-0.10330819
140	0x3d025022	0.0318147
141	0xbdbf451b	-0.09339353
142	0xbdca0088	-0.098633826
143	0x3d52a2da	0.05142484
144	0xbe1b6f5f	-0.15179203
145	0x3cae0e0c	0.021246932
146	0x3d9cfd56	0.076655075
147	0x3c0979c8	0.008390851
148	0x3dd40412	0.10352339
149	0x3d6281df	0.055299636
150	0xbd97796b	-0.073962055
151	0x3d8e7078	0.069550455
152	0xbdfeef12	-0.12447943
153	0xbc9b2f89	-0.018943565
154	0xbdbf1f2a	-0.09332116
155	0x3d8fdeb5	0.070249
156	0xbdde8aee	-0.108663425
157	0xbd862520	-0.0655005
158	0xbdcdbf69	-0.10046274
159	0xbe21a1e4	-0.15784413
160	0xbdf5e01e	-0.120056376
161	0xbe08676b	-0.13320701
162	0x3d94d7cb	0.07267722
163	0xbe2621c3	-0.16223817
164	0x3e288ebd	0.164607
165	0x3e21a575	0.15785773
166	0x3de9c989	0.11415393
167	0xbce6c910	-0.028172046
168	0xbe08a200	-0.13343048
169	0x3e94a8bb	0.2903498
170	0x3dae80bf	0.0852065
171	0xbc82420a	-0.01590063
172	0x3ddccc1b	0.107811175
173	0xbe0357ac	-0.12826413
174	0x3d46d9c1	0.04854751
175	0xbe04a9bb	-0.12955372
176	0x3ce06ee3	0.027396625
177	0xbe256ea2	-0.16155484
178	0xbd832ead	-0.06405387
179	0x3e073074	0.13202077
180	0xbe18819f	-0.14893197
181	0x3d5f071e	0.054450147
182	0xbd80c0cd	-0.06286774
183	0x3e079fa8	0.13244498
184	0xbdd79c7f	-0.10527896
185	0xbdf83d46	-0.12121062
186	0xbe1fe9e8	-0.15616572
187	0xbd74e8b0	-0.05979222
188	0xbdf61833	-0.120163344
189	0xbd7481bc	-0.059694037
190	0xbdf26efa	-0.11837573
191	0x3e14be98	0.14525831
192	0x3ce6e248	0.028184071
193	0xbe14f899	-0.14547957
194	0x3db948d9	0.09047098
195	0x3cec1611	0.028819116
196	0xbd240a74	-0.04004903
197	0x3d4b8bb8	0.049693793
198	0x3d8f46f5	0.06995956
199	0x3d911095	0.07083241
200	0x3d9466ad	0.07246146
201	0xbdb0a187	-0.08624559
202	0xbdaa7fab	-0.08325132
203	0xbd6f7c4e	-0.058468156
204	0xbe0626c9	-0.13100733
205	0xbdc07e1f	-0.09399056
206	0xbe06c30f	-0.13160346
207	0x3cb3e2f8	0.021958813
208	0x3d68e5b3	0.056859683
209	0xbd50c127	-0.050965454
210	0x3d849f1c	0.0647566
211	0x3e2a97fc	0.1665954
212	0xbe2de2cc	-0.16981047
213	0x3dbee1aa	0.09320386
214	0xbe086b83	-0.13322262
215	0x3dce7c8a	0.10082348
216	0xbdcde0ca	-0.10052641
217	0x3c394d09	0.0113098705
218	0x3d406b9d	0.046977628
219	0x3e087888	0.13327229
220	0xbd9784f2	-0.07398404
221	0x3e3a73b1	0.18208195
222	0x3e2a05f1	0.16603829
223	0xbcbc0d58	-0.022955582
224	0xbd5a0c86	-0.0532346
225	0xbcd37ea9	-0.025817232
226	0xbce284ee	-0.027651276
227	0xbc0e86ed	-0.008699161
228	0xbaf3d505	-0.0018602913
229	0x3bac1b4f	0.005252279
230	0xbe07c7c9	-0.13259806
231	0xbc2293ad	-0.009922904
232	0xbe1841a1	-0.14868785
233	0x3dcbab18	0.09944743
234	0x3d758bf6	0.05994793
235	0x3dd94bcf	0.106101625
236	0x3ded5f4f	0.11590444
237	0xbc1e4ab0	-0.009661362
238	0xbd342a49	-0.04398564
239	0xbe0810e9	-0.132877
240	0xbdd376d6	-0.103254005
241	0x3d84cd34	0.06484452
242	0x3e2b53a8	0.16731131
243	0x3d8114d8	0.06302804
244	0xbe15d9f4	-0.14633924
245	0x3d836d7e	0.06417368
246	0x3c97d96d	0.018536294
247	0x3dc9e7e5	0.098586835
248	0x3e220ed5	0.1582597
249	0x3c326605	0.010888581
250	0xbce1d451	-0.02756706
251	0xbdfbb73e	-0.1229081
252	0xbbed3e01	-0.0072400575
253	0x3ce80c18	0.02832608
254	0xbdc4d5a5	-0.09611062
255	0x3d874588	0.06605059

bias f4 [48]
0	0x3d0db96c	0.03460066
1	0x3d6849bb	0.05671094
2	0xbda62ae5	-0.0811365
3	0x3d97407c	0.07385346
4	0xbda37210	-0.0798074
5	0xbdb5721e	-0.08859657
6	0x3dc7f04b	0.09762629
7	0xbd0be207	-0.034151103
8	0x3dbdc652	0.09266342
9	0x3e08dc95	0.13365395
10	0x3bb09720	0.0053891093
11	0x3c4650bc	0.0121042095
12	0xbdb2333b	-0.08701178
13	0x3d511321	0.051043633
14	0xbd81dcbd	-0.063409306
15	0x3dc3ecb8	0.09566635
16	0x3cc5cf9b	0.024146846
17	0xbd9c8838	-0.07643169
18	0xbdda1928	-0.106493294
19	0xbdb67286	-0.08908562
20	0x3d89e0e5	0.06732348
21	0xbdc04c38	-0.093895376
22	0xbe0a2f4b	-0.13494603
23	0x3de02545	0.109446086
24	0x3de3655a	0.11103316
25	0x3cf308db	0.029667309
26	0x3da38772	0.079848185
27	0x3d54f193	0.051988196
28	0xbc825e66	-0.015914153
29	0xbd236f01	-0.039900783
30	0xbd801bd5	-0.062553085
31	0xbe081dae	-0.13292572
32	0xbc37b8ef	-0.011213525
33	0x3cdc9124	0.026924677
34	0xbd7b4403	-0.061344158
35	0x3ddf57f5	0.10905448
36	0xbdad0c67	-0.08449631
37	0x3d5f1440	0.05446267
38	0x3e4009b5	0.18753703
39	0xbd733033	-0.05937214
40	0x3db443d7	0.08802002
41	0xbd257b6d	-0.04040091
42	0x3d8ca9c8	0.06868321
43	0xbe0b11fd	-0.1358108
44	0xbdac00fd	-0.08398626
45	0x3d85e36a	0.065375164
46	0x3d188c6e	0.0372433
47	0x3da8d3d9	0.08243532

weight f4 [48, 48]
0	0xbdc99f02	-0.098447815
1	0x3d8b1562	0.06791188
2	0x3d345cf7	0.04403397
3	0xbdd0d689	-0.10197169
4	0x3dc95dbe	0.09832333
5	0xbde154da	-0.11002512
6	0x3e067d42	0.1313372
7	0x3e13a6e8	0.14419138
8	0x3d4756f2	0.048666902
9	0x3c269f75	0.010169853
10	0xbc631452	-0.013859825
11	0x3e1f604e	0.15564081
12	0x3df7b985	0.12095932
13	0x3d93a341	0.072088726
14	0x3cc66525	0.024218151
15	0x3d82b8fb	0.063829385
16	0xba369b24	-0.0006965867
17	0xbd2b97c9	-0.0418928
18	0xbcaf0fbc	-0.021369807
19	0xbce01c1b	-0.027357152
20	0x3d8715f4	0.06595984
21	0x3dfa8ef0	0.122342944
22	0x3d9fd800	0.078048706
23	0xbcfdf3e3	-0.031000083
24	0x3d6f60b6	0.05844184
25	0xbcb42939	-0.021992313
26	0x3ad09ace	0.0015915276
27	0x3d80f573	0.06296816
28	0xbe049fb2	-0.12951544
29	0xbd4a1b32	-0.04934234
30	0xbe0d3c8b	-0.13792627
31	0xbd970f10	-0.0737592
32	0x3d40dd38	0.04708597
33	0x3bd867d7	0.0066041755
34	0x3e09038b	0.13380258
35	0xbd83fd50	-0.064448
36	0xbda94dd5	-0.082667984
37	0xbceb38d1	-0.028713616
38	0xbe143ca8	-0.14476264
39	0xbd210493	-0.039311003
40	0x3d592747	0.053015973
41	0x3df38aeb	0.11891731
42	0xbde54173	-0.11194124
43	0x3e0cb8d5	0.13742383
44	0x3df6900a	0.12039192
45	0xbd75a7a3	-0.059974324
46	0x3e274cae	0.16337845
47	0xbcf70047	-0.0301515
48	0x3d5bb51a	0.05363951
49	0xbdeeab76	-0.11653797
50	0xbde1e211	-0.11029447
51	0xbe10cfb9	-0.1414174
52	0x3cd0235c	0.025407486
53	0xbe34a62c	-0.17641515
54	0xbe27f065	-0.16400297
55	0xbe07ee87	-0.13274585
56	0x3c511242	0.012760701
57	0xbd47c40d	-0.048770953
58	0xbd50b243	-0.050951254
59	0x3d99cf24	0.07510212
60	0x3d5c7144	0.053818956
61	0x3cce3ab0	0.025174469
62	0xbd4bd7b2	-0.04976625
63	0x3bffc54b	0.0078055016
64	0x3da65515	0.08121697
65	0xbe14022d	-0.14453955
66	0xbd897f90	-0.06713784
67	0x3e10dafc	0.14146036
68	0x3d1f64fd	0.03891467
69	0xbc16349f	-0.009167819
70	0xbbd253c1	-0.0064186756
71	0xbdf7d21e	-0.121006235
72	0xbdc699a7	-0.096972756
73	0x3e0a22be	0.13489816
74	0xbce8c9d1	-0.028416546
75	0x3d56f5bd	0.052480448
76	0xbc9986d0	-0.018741041
77	0x3b73786f	0.0037150641
78	0xbce087f6	-0.027408581
79	0x3d8d65bb	0.06904169
80	0xbdaf503b	-0.085602246
81	0xbe1e7ecb	-0.15478055
82	0x3dc113f2	0.094276324
83	0xbe3b9c12	-0.18321255
84	0xbe484fbf	-0.1956167
85	0x3d982f36	0.0743088
86	0x3e4933b1	0.19648625
87	0x3df95966	0.121752545
88	0x3e015c76	0.12632927
89	0x3dd6f1f5	0.104953684
90	0xbdf78236	-0.12085383
91	0x3de76160	0.1129787
92	0x3d853153	0.065035485
93	0x3e04ea1a	0.12979928
94	0xbd838e9e	-0.064236864
95	0x3c9c7fcf	0.019103913
96	0xbd668687	-0.05628064
97	0xbd43ef77	-0.047835793
98	0xbd0d0990	-0.034432948
99	0x3d44c4a5	0.048039097
100	0x3aa8b380	0.0012870878
101	0x3d1d65f9	0.038427327
102	0xbd850793	-0.06495585
103	0xbd7ff15e	-0.062486045
104	0x3d02be91	0.03192002
105	0x3bc8b7df	0.006125435
106	0x3db978e1	0.09056259
107	0xbd9b633e	-0.07587288
108	0xbdc9b8fd	-0.09849737
109	0x3ccd7781	0.025081398
110	0x3c67017a	0.014099473
111	0x3dedac7b	0.11605164
112	0x3d86b672	0.065777674
113	0x3e27a067	0.16369782
114	0x3dbe1eb9	0.09283204
115	0x3df3e40d	0.119087316
116	0xbe32526d	-0.17414255
117	0xbdf671f1	-0.12033451
118	0x3d92fc47	0.07177024
119	0xbd8bec39	-0.06832165
120	0x3cafed6c	0.021475516
121	0xbdc17c9d	-0.09447596
122	0x3da4af98	0.08041304
123	0xbc03e12f	-0.008049293
124	0x3e097aa9	0.13425697
125	0xbdf4fea1	-0.11962629
126	0x3d809e36	0.06280176
127	0x3deca074	0.115540415
128	0x3dcd078f	0.10011207
129	0xbdafa23b	-0.08575865
130	0x3df0a438	0.11750072
131	0x3dcb4279	0.09924788
132	0xbdc637a7	-0.096785836
133	0x3bfa61f7	0.007641073
134	0x3c5aa2bd	0.013344464
135	0x3dec7547	0.115458064
136	0x3bd75c48	0.00657228
137	0xbe21985e	-0.1578078
138	0xbc79e36b	-0.015251975
139	0xbd9a720a	-0.075412825
140	0xbd1b9e0f	-0.037992533
141	0x3e109225	0.1411825
142	0x3cca2467	0.024675561
143	0x3dcf4e59	0.101223655
144	0xbc4fe19a	-0.012688065
145	0x3e086f3f	0.13323687
146	0x3e0c7b08	0.13718808
147	0xbe08864d	-0.13332482
148	0x3c5f0fb2	0.013614582
149	0x3def2200	0.11676407
150	0xbd47f267	-0.048815157
151	0x3de6c2b1	0.11267603
152	0xbcf5bcdd	-0.029997284
153	0xbd19dc49	-0.037563596
154	0xbe0dc1ca	-0.13843456
155	0x3d0bc439	0.03412268
156	0x3ddbcea0	0.1073277
157	0xbdd704c4	-0.10498956
158	0x3e23f528	0.16011488
159	0xbd2ab34e	-0.041674905
160	0xbe181429	-0.1485144
161	0xbe006c55	-0.12541325
162	0xbd871a8b	-0.065968595
163	0xbdaf7af6	-0.08568375
164	0xbe153cfa	-0.14574042
165	0xbdd99cc0	-0.10625601
166	0xbdd20da3	-0.10256507
167	0x3d02d273	0.03193898
168	0x3cd61f41	0.02613795
169	0x3c13ddd9	0.009025061
170	0xbdd495a3	-0.103801034
171	0x3e123f2d	0.14281912
172	0x3d7f9d9f	0.06240618
173	0xbd1c1e89	-0.038115058
174	0x3df624a2	0.12018706
175	0x3d28f31e	0.04124748
176	0xbdfc8f7b	-0.12332054
177	0xbda9e0f8	-0.082948625
178	0xbe38a8c5	-0.1803313
179	0x3d8268ac	0.06367621
180	0x3d3d7e4e	0.04626303
181	0x3c18a9bf	0.009317814
182	0x3bdc04d2	0.006714442
183	0xbdc687fa	-0.09693904
184	0x3e196e97	0.14983593
185	0xbe08d3dd	-0.1336207
186	0x3cc82116	0.02442984
187	0x3e2fb18a	0.1715757
188	0x3da9cf04	0.08291438
189	0x3cf6bbea	0.030118901
190	0x3d0950bf	0.03352427
191	0xbdc9e6c6	-0.0985847
192	0x3dac88f6	0.08424561
193	0xbd1fa85c	-0.03897892
194	0x3d8376ba	0.0641913
195	0x3e1bb4aa	0.15205637
196	0x3d7c7ef8	0.061644524
197	0x3e001976	0.12509713
198	0x3e0f9bbd	0.14024253
199	0xbdc79cdd	-0.09746716
200	0x3d5533eb	0.052051466
201	0xbc5710c7	-0.013126559
202	0x3d9e20ac	0.077210754
203	0xbc1cfca3	-0.009581718
204	0xbd65b879	-0.05608413
205	0xbe5a462a	-0.21315828
206	0xbca8980a	-0.02058031
207	0xbd28104e	-0.041031174
208	0xbbbe4e8b	-0.005807703
209	0x3d8338c9	0.06407315
210	0x3ca229ee	0.019795384
211	0x3d887905	0.06663708
212	0xbc8bb29b	-0.01705294
213	0xbd0c408c	-0.034241244
214	0xbcfe2ece	-0.031028178
215	0xbdec3b94	-0.11534801
216	0x3d6ab0a8	0.05729738
217	0x3e21ed5d	0.15813203
218	0xbdd10dff	-0.10207748
219	0xbc96eb83	-0.018422848
220	0xbe1713b5	-0.14753611
221	0xbda5441d	-0.08069632
222	0x3de4ee45	0.11178259
223	0xbcf89a5b	-0.03034704
224	0xbbd11948	-0.0063811876
225	0xbcc2d465	-0.023782918
226	0xbd306398	-0.04306373
227	0x3d718697	0.058966246
228	0xbb440287	-0.0029908733
229	0x3cfe454e	0.031038906
230	0xbbe130e7	-0.0068722847
231	0xbe18bc6f	-0.14915632
232	0x3d83d8e0	0.0643785
233	0x3dd509bf	0.104022495
234	0xbdef3386	-0.11679749
235	0xbe092527	-0.13393079
236	0xbd16596f	-0.036706384
237	0xbe06addc	-0.1315226
238	0x3df4b908	0.119493544
239	0x3d26e6e9	0.040747557
240	0xbda2c2df	-0.07947325
241	0xbceccc67	-0.02890606
242	0x3b68323b	0.003543033
243	0xbd18e420	-0.037326932
244	0x3e17d803	0.14828496
245	0x3e117f22	0.14208654
246	0x3d6fe84e	0.058571152
247	0xbdb2c463	-0.08728864
248	0x3b103aac	0.0022007627
249	0xbda0d591	-0.078532346
250	0x3d7e106b	0.062027376
251	0x3df3d463	0.11905744
252	0xbd0f777a	-0.03502605
253	0xbc9a34d0	-0.018824011
254	0x3dabd3a6	0.08389978
255	0x3d899d61	0.06719471

bias f4 [48]
0	0xbdac6bb6	-0.08418982
1	0xbd46d6eb	-0.048544805
2	0x3bf44037	0.007453944
3	0x3cbfd897	0.023418708
4	0xbe071765	-0.13192518
5	0x3d9e229b	0.07721444
6	0x3ded9ff6	0.11602776
7	0x3dc05381	0.09390927
8	0xbd08546b	-0.033283632
9	0x3df16978	0.11787695
10	0x3ddc423d	0.107548214
11	0x3d038f66	0.032119177
12	0x3bdcc8ea	0.006737818
13	0xbd9fe23d	-0.078068234
14	0x3c0f25ff	0.008737086
15	0x3dc97497	0.09836691
16	0xbe01076c	-0.12600487
17	0xbcefedb3	-0.029288149
18	0x3e029553	0.12752275
19	0xbdc63c3c	-0.096794575
20	0x3de6f0cd	0.11276398
21	0x3c39819b	0.011322404
22	0xbd61b9e9	-0.05510894
23	0xbd81dc4a	-0.06340845
24	0x3d454830	0.048164546
25	0x3b7dbd2b	0.003871749
26	0xbd350cff	-0.044201847
27	0x3de8121d	0.1133158
28	0x3d97ec11	0.07418073
29	0x3d20a811	0.03922278
30	0xbb022e1f	-0.0019863916
31	0x3de8e99c	0.113726825
32	0x3d57196b	0.052514475
33	0x3d868fe0	0.06570411
34	0x3cb6f449	0.022333281
35	0xbd93d9f2	-0.07219304
36	0x3e016451	0.12635924
37	0x3c8a848d	0.016908908
38	0xbca54c57	-0.020178003
39	0xbcdae8d0	-0.026722342
40	0x3da3df84	0.080016166
41	0x3bd488fd	0.006486057
42	0x3d466e51	0.04844505
43	0xbc9177da	-0.017757345
44	0xbd9acb7d	-0.075583436
45	0x3d922ad2	0.071370736
46	0xbccc98b0	-0.02497515
47	0xbd30bce9	-0.04314891

weight f4 [4, 48]
0	0x3e10a048	0.14123642
1	0xbd138f51	-0.03602535
2	0xbd5683b4	-0.052371696
3	0xbde5c021	-0.11218286
4	0xbbf32794	-0.0074204896
5	0xbd2d24e3	-0.042271506
6	0xbdd0407a	-0.10168548
7	0x3cec691d	0.028858716
8	0xbd4ae1d1	-0.04953176
9	0xbc39120c	-0.011295807
10	0x3d80e968	0.06294519
11	0xbdc343d6	-0.09534423
12	0x3e071c0a	0.1319429
13	0x3c8edc98	0.017439172
14	0x3dda7ba1	0.106681116
15	0xbcaa6153	-0.02079836
16	0x3c1528cc	0.009103965
17	0x3d7dab3e	0.061930887
18	0xbc3dcdf0	-0.011584744
19	0xbdde40d2	-0.10852207
20	0xba4ffc13	-0.00079339853
21	0xbe02fc28	-0.12791502
22	0xbe188017	-0.14892612
23	0xbc942e9e	-0.018088635
24	0x3b8c187f	0.004275381
25	0x3b38b254	0.0028182464
26	0xbbf9cbe0	-0.0076231807
27	0xbdb1d5f5	-0.08683387
28	0x3e019579	0.12654676
29	0x3ba8ebb3	0.0051550507
30	0x3e0081d3	0.12549524
31	0x3e1f2a6f	0.15543531
32	0xbc3373c9	-0.010952898
33	0x3d727b0a	0.05919937
34	0x3d547f27	0.051879074
35	0xbe0bab46	-0.13639554
36	0x3c7c6e00	0.015407085
37	0xbc2fd03e	-0.010730801
38	0xbdf5b195	-0.11996762
39	0x3cdd198b	0.026989719
40	0xbd954107	-0.072877936
41	0x3e146e26	0.14495143
42	0x3d8ec045	0.06970266
43	0x3e1783fb	0.1479644
44	0xbd12a7e2	-0.035804637
45	0xbe029010	-0.12750268
46	0x3d81c912	0.06337179
47	0xbc67186f	-0.0141049465
48	0x3e1727e6	0.14761314
49	0x3d987382	0.07443906
50	0xbe041192	-0.12897328
51	0x3d506829	0.050880585
52	0x3cda5a4e	0.026654389
53	0x3e1beb76	0.1522654
54	0x3d0e975f	0.034812327
55	0xbca89078	-0.0205767
56	0x3e3deb48	0.18546784
57	0xbddabb06	-0.10680203
58	0xbd95f0c6	-0.073213145
59	0xbd3c889c	-0.04602872
60	0xbdeb36bf	-0.11485051
61	0x3c349308	0.011021383
62	0x3b4cdbde	0.003125898
63	0xbd1b13e8	-0.03786078
64	0x3dce2ba0	0.100669146
65	0xbd1130cf	-0.035446938
66	0xbe046398	-0.12928617
67	0xbe195c07	-0.14976512
68	0xbdf88155	-0.12134043
69	0x3d2e99bf	0.042627092
70	0x3df008dd	0.117204405
71	0xbb4feb8c	-0.003172609
72	0x3d95fe2f	0.07323872
73	0xbdb40785	-0.08790497
74	0xbcb83ebf	-0.022490857
75	0x3bf4dc54	0.007472554
76	0x3df5456a	0.1197613
77	0x3e4c4c17	0.19950901
78	0x3d12aba5	0.035808224
79	0x3cc3f7a1	0.02392179
80	0x3cebb1cb	0.028771302
81	0xbe0b7713	-0.13619642
82	0x3d40ff72	0.04711861
83	0xbd75c46f	-0.060001787
84	0xbde70f76	-0.11282246
85	0xbdf4a789	-0.11946017
86	0x3e07a521	0.13246585
87	0xbde38751	-0.11109794
88	0xbdbd4b9e	-0.092429385
89	0xbc4237f0	-0.011854157
90	0xbe0a7e6a	-0.13524786
91	0xbe032d86	-0.12810335
92	0xbdd2e40a	-0.10297401
93	0xbdb79148	-0.08963257
94	0xbd62ad8e	-0.055341296
95	0xbdd7516f	-0.10513579
96	0xbe2bd878	-0.16781795
97	0xbe07aba3	-0.13249068
98	0x3ddef641	0.10886813
99	0x3dbd952e	0.092569694
100	0x3dcda616	0.10041444
101	0x3cb19134	0.021675684
102	0xbe43bffb	-0.19116203
103	0x3e07335f	0.1320319
104	0x3d5251a6	0.051347397
105	0x3d9b66f4	0.07587996
106	0xbe00f579	-0.1259364
107	0xbd07e351	-0.03317577
108	0x3de3e209	0.11127097
109	0xbd037077	-0.032089677
110	0x3de36ffc	0.11105344
111	0xbe0d5d08	-0.1380502
112	0x3db85d6f	0.09002196
113	0x3dafabbb	0.08577677
114	0x3d9e1023	0.077179216
115	0xbd9f38a6	-0.07774477
116	0xba287b1f	-0.0006427038
117	0xbd8293e7	-0.063758664
118	0xbdc7f8c7	-0.097642474
119	0x3d16f72c	0.036856815
120	0x3deafe24	0.11474255
121	0xbdf5bdd9	-0.11999101
122	0x3e1fb3c1	0.15595914
123	0xbddd477d	-0.10804651
124	0xbac08217	-0.0014687207
125	0xbcdb8627	-0.026797367
126	0x3d560e95	0.05226
127	0xbe027a66	-0.12742004
128	0x3dd44931	0.10365523
129	0x3d129847	0.035789754
130	0x3e17e28e	0.14832518
131	0xbe2b0e55	-0.16704686
132	0xbd8eda89	-0.06975276
133	0xbdd974a5	-0.10617951
134	0x3c9a5770	0.018840522
135	0xbe149012	-0.14508083
136	0x3d7784ed	0.060429502
137	0x3db0564d	0.086102106
138	0xbe30bc29	-0.17259277
139	0xbd7b0ac1	-0.061289553
140	0x3df07575	0.11741153
141	0xbd5e4ec0	-0.05427432
142	0x3d137d5b	0.03600822
143	0x3d1cd226	0.03828635
144	0xbdf3c2a2	-0.11902358
145	0xbe172ce0	-0.14763212
146	0x3d3a8c18	0.04554376
147	0x3cb8eae5	0.022572944
148	0x3df1b527	0.1180213
149	0x3d88349c	0.066506594
150	0x3d5364b9	0.05160973
151	0xbc31d128	-0.010853089
152	0xbd01a110	-0.03164774
153	0xbcd00b8e	-0.025396135
154	0x3daa3a31	0.083118804
155	0xbda8f8e9	-0.08250601
156	0xbe231c86	-0.1592885
157	0xbe3c228e	-0.18372557
158	0x3d1d7a95	0.03844698
159	0xbcfd1a64	-0.030896373
160	0xbe2588ef	-0.16165517
161	0x3d33a80b	0.04386143
162	0xbe0f0a9e	-0.13968894
163	0xbd2b1cbd	-0.041775454
164	0x3d3f7078	0.046738118
165	0x3db8cbcf	0.090232484
166	0xbdbbbf9b	-0.09167405
167	0xbde316a3	-0.11088302
168	0xbe03c5ab	-0.12868373
169	0xbb00fac5	-0.001968072
170	0x3ab5a7b0	0.0013859179
171	0x3e0f72ae	0.1400859
172	0xbd939249	-0.07205636
173	0xbcc43841	-0.023952605
174	0x3dd77028	0.10519439
175	0xbd492090	-0.04910332
176	0xbb60f18c	-0.003432366
177	0x3d321af0	0.04348272
178	0x3e1f3ed7	0.15551315
179	0xbba46b3b	-0.0050176657
180	0x3d99c7bc	0.075087994
181	0xbd5bc6d4	-0.053656414
182	0x3dd9f160	0.10641742
183	0x3df54f79	0.11978049
184	0x3d3fb48f	0.046803053
185	0x3cd9e985	0.026600609
186	0x3d95d62b	0.0731624
187	0x3d8de3af	0.06928193
188	0xbd38747c	-0.045032963
189	0x3c8f7eb8	0.017516479
190	0x3e2539ef	0.16135381
191	0xbb610e0a	-0.0034340643

bias f4 [4]
0	0xbdca61de	-0.09881948
1	0x3ce0ec0d	0.027456308
2	0x3dd1a8b9	0.102372594
3	0xbd95a4dc	-0.07306835
