mPINNs-R1/mPINNs_result/result9/model.pth (torch, 35100 bytes, 10 tensors)

weight f4 [48, 2]
0	0x3e577498	0.2104057
1	0x3f315974	0.6927712
2	0xbe8b9f3e	-0.2726993
3	0x3f36639c	0.7124574
4	0xbe7bd0a2	-0.24591306
5	0x3ea78dc4	0.32725346
6	0x3de0b737	0.109724455
7	0x3f349399	0.70537716
8	0xbeb8138d	-0.35952416
9	0x3f1147e5	0.5675033
10	0xbe7d95f1	-0.2476423
11	0xbee3242c	-0.44363534
12	0x3f20214a	0.62550795
13	0x3ed3b322	0.41347605
14	0x3df9b20d	0.121921636
15	0x3f378cd0	0.7169924
16	0x3f2df621	0.6795369
17	0x3ebc8259	0.36818197
18	0x3eb3d8c0	0.35126305
19	0xbe7d06e0	-0.24709654
20	0xbe812db8	-0.25230193
21	0xbe6ed525	-0.23323496
22	0xbf341bcb	-0.7035491
23	0xbee3be82	-0.44481283
24	0x3f2b0217	0.66800064
25	0x3ed71a38	0.4201219
26	0x3ef0400d	0.46923867
27	0xbe53fcff	-0.20701979
28	0x3f11dc6f	0.5697698
29	0xbe7dde5e	-0.24791858
30	0x3efb650a	0.49100524
31	0xbf03c8e5	-0.51478416
32	0xbf06a441	-0.5259438
33	0xbef53eda	-0.47899514
34	0x3f1427f5	0.5787347
35	0xbf211730	-0.62926006
36	0x3ed795a0	0.42106342
37	0xbc1082af	-0.00882022
38	0xbd37b264	-0.04484786
39	0xbf4e7659	-0.80649334
40	0xbe4df066	-0.20111236
41	0xbec17399	-0.37783507
42	0x3edc74b9	0.43057802
43	0x3eab44a6	0.33450812
44	0xbf2cce98	-0.6750274
45	0x3ee6def6	0.4509198
46	0xbeaea9e1	-0.34113982
47	0xbc8a60a2	-0.016891781
48	0xbf2c52a0	-0.67313576
49	0x3e5b03af	0.21388124
50	0xbef9fd1a	-0.48825914
51	0xbe8c137a	-0.2735861
52	0xbf01d42a	-0.5071436
53	0xbe101ea5	-0.1407419
54	0xbec443ce	-0.3833298
55	0x3f212a3f	0.6295509
56	0xbd02145b	-0.031757694
57	0x3b9858e6	0.0046492694
58	0xbf1e1915	-0.6175702
59	0xbedf8c56	-0.43661755
60	0xbf21960c	-0.6311958
61	0x3ef416db	0.47673687
62	0xbe96afd1	-0.29431012
63	0xbef9a67d	-0.48759833
64	0x3f2dd649	0.679051
65	0x3d9d8c2b	0.076927505
66	0x3f0caebd	0.5495413
67	0xbd219639	-0.039449904
68	0x3f1c6db4	0.61104894
69	0xbdf19bf2	-0.11797322
70	0x3f021720	0.50816536
71	0x3f2a8663	0.6661131
72	0x3f0591a8	0.5217538
73	0xbe3815d1	-0.17977072
74	0xbf208cbf	-0.6271476
75	0xbec2454f	-0.37943503
76	0x3efd5b07	0.4948351
77	0x3e3a38f3	0.18185787
78	0xbddc79dd	-0.10765431
79	0xbf28ce8b	-0.6594016
80	0x3f223f8a	0.633782
81	0xbdd2894d	-0.10280094
82	0x3ea30eff	0.3184738
83	0x3d2442e2	0.040102847
84	0xbe6dfc19	-0.23240699
85	0x3d961411	0.07328046
86	0x3e77a3bc	0.24183553
87	0x3e92f763	0.28704366
88	0xbee20055	-0.44140878
89	0x3d7557ef	0.059898313
90	0xbf0b2102	-0.5434724
91	0x3eb4470e	0.3521046
92	0xbed6b952	-0.41938263
93	0xbee1c965	-0.44098964
94	0x3e5010c9	0.20318903
95	0xbe7b642d	-0.24549933

bias f4 [48]
0	0xbf2463de	-0.64214885
1	0x3e201fd6	0.15637144
2	0x3f237f4a	0.638661
3	0xbef6891e	-0.48151487
4	0xbf1e820d	-0.6191719
5	0xbe4eead1	-0.20206763
6	0xbd29d476	-0.041462384
7	0xbf0374c5	-0.5135005
8	0xbf243c81	-0.6415482
9	0x3e8dd526	0.27701682
10	0x3f359396	0.70928323
11	0xbe1a8a91	-0.15091921
12	0xbead05be	-0.33793443
13	0x3cbfa1ef	0.023392646
14	0xbe8d18b1	-0.275579
15	0x3f19cc75	0.600776
16	0xbf2bbdcb	-0.67086476
17	0xbec981a7	-0.3935673
18	0x3e53b427	0.20674191
19	0xbe37dc0d	-0.17955036
20	0x3e8646fb	0.2622603
21	0xbdaa6700	-0.08320427
22	0xbf397d37	-0.7245669
23	0xbf04d2e2	-0.5188428
24	0x3ee7c233	0.4526535
25	0x3f2df85a	0.6795708
26	0x3ed1192c	0.40839517
27	0xbebdac2b	-0.37045416
28	0x3eab8239	0.3349779
29	0x3f26e334	0.65190434
30	0x3ee5d147	0.44886228
31	0x3eb28eaf	0.34874484
32	0xbed127ad	-0.40850583
33	0xbeeada86	-0.45869845
34	0x3ec8fa6c	0.39253557
35	0x3eecb023	0.46228132
36	0x3ecc6168	0.39918065
37	0x3da2c15e	0.07947038
38	0xbef7fe0d	-0.48436013
39	0x3ec980f3	0.39356193
40	0xbefa521e	-0.48890775
41	0xbebed984	-0.37275326
42	0x3ef65a59	0.48115805
43	0xbf1ca8c9	-0.61195046
44	0x3db8d81e	0.09025596
45	0xbf0a5955	-0.5404256
46	0xbef93592	-0.48673683
47	0xbe8214bf	-0.25406453

weight f4 [48, 48]
0	0xbcbb9f74	-0.022903182
1	0x3e367882	0.17819408
2	0x3e02e489	0.12782492
3	0xbe155516	-0.14583239
4	0x3d90c9a0	0.07069707
5	0xbe11cd89	-0.14238562
6	0xbe07d09e	-0.13263175
7	0xbaaba7b5	-0.0013096245
8	0xbe2b8621	-0.16750385
9	0xbdeedaab	-0.11662801
10	0x3d44f862	0.04808844
11	0xbc8bde31	-0.017073723
12	0xbd784527	-0.060612824
13	0xbd807493	-0.06272235
14	0xbe2214ec	-0.15828294
15	0xbd2c6328	-0.04208675
16	0x3deb7dbd	0.11498592
17	0x3d448fdf	0.04798877
18	0xbca2a82c	-0.019855581
19	0xbd793e2a	-0.0608503
20	0x3df1a3cd	0.11798821
21	0xbe1e04e0	-0.15431547
22	0xbd5c2808	-0.053749114
23	0x3c218d03	0.00986028
24	0x3de69d6d	0.11260495
25	0x3daa3ef4	0.083127886
26	0x3e18ca26	0.14920864
27	0x3e02a74a	0.12759128
28	0xbcbecfd7	-0.023292465
29	0x3d6b1e6a	0.057402052
30	0x3d732205	0.059358615
31	0xbda61c43	-0.08110859
32	0xbc6e4f2b	-0.014545242
33	0xbe50ce19	-0.2039112
34	0xbe22a912	-0.15884808
35	0xbd1ba5c6	-0.03799989
36	0xbd086929	-0.033303414
37	0x3e1af576	0.15132698
38	0xbe12d1d1	-0.14337851
39	0xbd9afb06	-0.0756741
40	0xbe3082f5	-0.17237456
41	0x3dcfd6bf	0.101483814
42	0x3d4fb4af	0.050709423
43	0x3dd5e8c9	0.10444791
44	0x3e2d7e87	0.16942798
45	0x3e1228e1	0.14273407
46	0x3d401f7a	0.04690502
47	0x3db22f94	0.08700481
48	0x3c1db3ba	0.00962537
49	0xbcc77a41	-0.024350287
50	0xbcc3dba2	-0.02390844
51	0x3c1cfd6a	0.009581903
52	0xbc61ae44	-0.013774458
53	0x3dce3774	0.100691706
54	0xbd3bcc1b	-0.045848947
55	0xbb4e89b6	-0.0031515188
56	0x3e19b1bf	0.15009211
57	0xbd99dc99	-0.07512779
58	0xbd930e88	-0.07180506
59	0x3d30ef43	0.043196928
60	0xbd9836c9	-0.074323244
61	0xbe0d6ebd	-0.13811775
62	0x3d301d5b	0.042996746
63	0x3c880dca	0.016608138
64	0x3de21ade	0.11040281
65	0xbdd33df3	-0.1031455
66	0xbe143f06	-0.14477167
67	0x3e29559f	0.16536568
68	0xbd1dd317	-0.03853139
69	0xbd080aef	-0.033213552
70	0x3bfdca9e	0.007745101
71	0xbd20bef7	-0.03924462
72	0xbdc3e493	-0.095650814
73	0xbd8d6cc0	-0.06905508
74	0x3de99de4	0.11407068
75	0x3da880e4	0.08227709
76	0xba9f2774	-0.0012142495
77	0x3da1c93f	0.07899713
78	0x3db36d72	0.087611094
79	0x3dd7d9e2	0.10539605
80	0x3dddd0da	0.10830851
81	0x3ced866e	0.028994765
82	0xbe48a2e2	-0.19593385
83	0xbe0fe1dd	-0.14051004
84	0xbe18daf4	-0.14927274
85	0xbcb539a0	-0.022122204
86	0x3dfc1917	0.12309473
87	0xbb7f1cd2	-0.003892709
88	0xbd0330d9	-0.032029007
89	0xbe19fbaa	-0.15037408
90	0x3d65dfd5	0.056121666
91	0x3d882650	0.066479325
92	0xbba458ec	-0.005015483
93	0x3d1b5bd4	0.03792937
94	0xbd92224e	-0.07135449
95	0xbcf11520	-0.029429018
96	0x3d571128	0.052506596
97	0x3d4f37f9	0.05059049
98	0xbcf22dba	-0.02956282
99	0xbcc5869c	-0.024112038
100	0x3cbb42f5	0.022859076
101	0xbd1c9ca0	-0.038235307
102	0x3a92bc01	0.0011194946
103	0x3cc42b55	0.023946444
104	0x3e47667b	0.19472687
105	0x3ddcaea8	0.107755005
106	0x3de44617	0.11146181
107	0xbe0301c7	-0.12793647
108	0x3e162125	0.14661081
109	0x3deebf83	0.11657622
110	0x3d58e78d	0.0529552
111	0xbe1e8c7b	-0.15483277
112	0x3dfdf0d1	0.12399448
113	0xbc1a1c11	-0.009406106
114	0xbbfe8cc5	-0.007768246
115	0xbd7b7306	-0.06138899
116	0xbd98f006	-0.07467656
117	0x3e0276e8	0.12740672
118	0xbdf434f0	-0.119241595
119	0x3c95f592	0.018305574
120	0xbd528ab6	-0.051401816
121	0xbc8ef96d	-0.01745292
122	0xbe3a2057	-0.18176399
123	0x3de9050b	0.11377915
124	0xbde4d867	-0.11174088
125	0x3d15d2d7	0.036578026
126	0xbe18db07	-0.14927302
127	0xbd735813	-0.059410166
128	0xbd7bd182	-0.0614791
129	0x3dfbbddf	0.122920744
130	0x3dced13c	0.10098502
131	0x3ca230fd	0.01979875
132	0x3d93c870	0.07215965
133	0xbd33c9fc	-0.0438938
134	0xbd2cd871	-0.042198602
135	0xbe24db72	-0.16099337
136	0xbd08d4da	-0.033406116
137	0x3d92d8f4	0.07170287
138	0x3d00506b	0.031326693
139	0x3e231562	0.15926126
140	0xbe4578c6	-0.19284353
141	0xbd663610	-0.0562039
142	0x3dca928b	0.09891232
143	0x3e0205c4	0.12697512
144	0xbe24e9ae	-0.16104767
145	0xbbda4974	-0.0066615883
146	0xbcbd0804	-0.023075111
147	0xbdd795a6	-0.1052659
148	0xbe098f56	-0.13433585
149	0xbd617dd7	-0.05505165
150	0x3ce0ec2c	0.027456366
151	0x3dc0f023	0.094208024
152	0xbe0e9e7f	-0.13927649
153	0x3cfc0e17	0.030768437
154	0x3bf676cb	0.0075214854
155	0xbda5924f	-0.08084547
156	0xbcb3fed4	-0.021972097
157	0x3c788730	0.01516895
158	0xbcc51e14	-0.024062194
159	0xbdbad0b7	-0.091218404
160	0xbded0eb2	-0.115750685
161	0x3d6a875b	0.05725799
162	0xbdf96f6a	-0.12179454
163	0xbd8d9e1c	-0.069149226
164	0x3e326772	0.17422274
165	0xbdbf9fba	-0.09356637
166	0xbd2b4844	-0.041816965
167	0x3dd90933	0.10597458
168	0x3db3bb82	0.08775999
169	0x3e11eed9	0.1425127
170	0x3d767e47	0.06017902
171	0xbe144775	-0.14480384
172	0xbd4823d0	-0.04886228
173	0x3d45cdc0	0.04829192
174	0x3d1895eb	0.037252348
175	0xbdac5f24	-0.08416584
176	0xbe0fbe7d	-0.1403751
177	0x3da44aa9	0.08022053
178	0xbde66385	-0.112494506
179	0x3c9433b8	0.018091068
180	0xbda6f923	-0.08152988
181	0xbda017fa	-0.07817073
182	0xbdd0a5e1	-0.10187889
183	0xbda9e081	-0.08294774
184	0xbd299359	-0.041400287
185	0xbcda1493	-0.026621139
186	0xbdc34d63	-0.09536245
187	0xbca4e709	-0.020129697
188	0x3e0079ce	0.12546465
189	0xbdce0267	-0.10059052
190	0xbc3fae9d	-0.011699346
191	0x3ca6a436	0.020341974
192	0xbc5073d1	-0.012722925
193	0x3d2fc65e	0.042913787
194	0xbd85ec7e	-0.06539248
195	0x3df27724	0.118391305
196	0x3d544b08	0.051829368
197	0x3e0a79ad	0.13522978
198	0xbdf4c353	-0.11951318
199	0x3dc10679	0.09425063
200	0xbe1825b1	-0.14858128
201	0xbdee58e5	-0.11638049
202	0x3ded312f	0.11581647
203	0x3b832482	0.004002155
204	0x3d268987	0.0406585
205	0xbd731ce8	-0.05935374
206	0xbd056fde	-0.032577388
207	0x3df628b3	0.120194815
208	0xbd99f2d7	-0.07517021
209	0xbe16b152	-0.1471608
210	0x3daee406	0.08539586
211	0x3d268725	0.040656228
212	0x3d42d4a9	0.04756609
213	0xbe16a5ee	-0.14711735
214	0x3dbd7a0a	0.09251793
215	0x3db0f241	0.08639956
216	0xbda93c1e	-0.082634196
217	0x3dbe830a	0.093023375
218	0x3de9d3a7	0.114173226
219	0x3c9dc519	0.019259023
220	0x3d9d37cf	0.0767666
221	0xbd57c365	-0.052676577
222	0x3e13c9aa	0.14432397
223	0xbde6dbb2	-0.11272372
224	0xbe0fca5b	-0.14042036
225	0xbd757412	-0.059925146
226	0x3be04aab	0.0068448386
227	0xbdbb2b0c	-0.0913907
228	0x3df626e0	0.120191336
229	0x3d9dd91a	0.077074245
230	0xbccbdbdd	-0.024885112
231	0x3d2c7fc8	0.04211405
232	0x3d4b29f7	0.049600568
233	0x3da16be0	0.07881904
234	0x3ddecc67	0.108788304
235	0x3de458b6	0.11149733
236	0xbc045d5e	-0.008078901
237	0xbd9d1d6c	-0.076716274
238	0xbde79fd8	-0.11309785
239	0xbde4b2f1	-0.11166943
240	0xbceda4df	-0.02900928
241	0x3d9ef616	0.07761781
242	0xbde05dbb	-0.10955378
243	0xbd09764a	-0.033560075
244	0x3e09be5a	0.1345152
245	0xbdaa9bb1	-0.08330477
246	0x3e2213b0	0.15827823
247	0x3bd10c71	0.006379657
248	0xbcacc7be	-0.021091338
249	0xbd33a9ae	-0.04386299
250	0x3df43f61	0.11926151
251	0xbc4e03e0	-0.012574166
252	0x3e36fd5a	0.17870083
253	0x3d47b907	0.04876044
254	0xbcfddcab	-0.030989012
255	0xbdcac5bf	-0.09900998

bias f4 [48]
0	0x3d7ad7ea	0.061241068
1	0xbb90f1db	-0.0044233627
2	0x3b3c2436	0.0028708107
3	0xbbe6c026	-0.007041949
4	0x3dffec62	0.12496258
5	0x3c10678d	0.008813751
6	0xbddb674b	-0.10713061
7	0x3dc062da	0.093938544
8	0xbc83c388	-0.016084448
9	0xbc56a362	-0.013100477
10	0xbe1332e7	-0.14374886
11	0x3d2e5ee4	0.042570964
12	0xbdbd863d	-0.092541195
13	0x3d19156b	0.03737394
14	0x3db374f4	0.087625414
15	0xbe26b9d3	-0.16281824
16	0x3d296570	0.041356504
17	0xbe02e562	-0.12782815
18	0x3d9e2726	0.07722311
19	0xbdb11a52	-0.08647598
20	0xbca6a371	-0.020341607
21	0x3de14d88	0.11001116
22	0x3cf1e5ac	0.029528461
23	0xbe01d2f2	-0.12678126
24	0x3e0b0287	0.13575183
25	0xbd3991e2	-0.04530514
26	0xbd37c841	-0.04486871
27	0x3def1bd4	0.1167523
28	0x3e067775	0.13131507
29	0x3dc6b57d	0.09702585
30	0xbd99ff84	-0.07519439
31	0xbe25a320	-0.16175508
32	0xbd623c62	-0.055233367
33	0x3c5693c5	0.013096754
34	0x3ccefa4b	0.025265833
35	0xbd3853b8	-0.045001715
36	0xbdea9845	-0.11454824
37	0x3be911ff	0.007112741
38	0x3d82d17c	0.06387612
39	0xbdfbb4d2	-0.12290348
40	0x3d84bb2a	0.06481011
41	0xbd518adc	-0.051157817
42	0xbd509e77	-0.050932374
43	0x3dacc2e0	0.08435607
44	0xbc10e7ed	-0.008844358
45	0x3e0ba1c1	0.13635923
46	0x3e0f0c5e	0.13969561
47	0xbd0d91d4	-0.0345629

weight f4 [48, 48]
0	0x3dc54119	0.09631557
1	0xba6267fc	-0.00086367107
2	0x3df9cccb	0.12197264
3	0xbe016fe3	-0.12640338
4	0xbda41ddc	-0.08013508
5	0xbd28c37b	-0.04120205
6	0xbddc2187	-0.10748582
7	0x3df98212	0.12183012
8	0xbd87dfcb	-0.06634482
9	0xbb3f42c7	-0.002918409
10	0xbd247e8f	-0.04015976
11	0xbd7f44af	-0.06232136
12	0x3de2f6d4	0.11082235
13	0x3cb03dd8	0.021513864
14	0xbe441356	-0.19148001
15	0x3db4ff94	0.0883781
16	0xbda29105	-0.079378165
17	0x3dd75970	0.10515106
18	0xbcaf0bab	-0.021367868
19	0xbdb11071	-0.08645714
20	0x3dd14aa4	0.10219315
21	0x3da56718	0.08076304
22	0x3dd00494	0.10157123
23	0xbe0cc6c6	-0.13747701
24	0xba720d83	-0.0009233581
25	0xbab0d22d	-0.0013490372
26	0x3d9ceb34	0.07662049
27	0x3d8b2312	0.067937985
28	0xbd9cfa74	-0.07664958
29	0x3dbb3b1c	0.091421336
30	0x3e15ca8f	0.14628051
31	0x3c8ece10	0.017432243
32	0xbdbb0374	-0.09131518
33	0xbdd35dd1	-0.103206284
34	0xbb8493cd	-0.0040459395
35	0xbc14b01a	-0.009075189
36	0xbdc3d662	-0.09562375
37	0xbe1cceab	-0.15313213
38	0xbdddd9a5	-0.10832528
39	0x3dda015e	0.10644792
40	0x3cf85696	0.030314725
41	0xbd8d39b1	-0.068957694
42	0xbe18874c	-0.14895362
43	0xbdd95458	-0.106117904
44	0xbc2b1616	-0.010442277
45	0x3d22c55d	0.039739
46	0x3dfd2022	0.123596445
47	0xbe1fb751	-0.15597273
48	0x3de9dd52	0.114191666
49	0x3dc44f4f	0.095854394
50	0x3d3d0d6f	0.04615539
51	0xbde123ed	-0.109931804
52	0x3e1e1f21	0.15441562
53	0xbdd68b1e	-0.10475753
54	0xbd9df411	-0.077125676
55	0x3db5c9ab	0.08876356
56	0x3e0d4890	0.13797212
57	0x3d8eaf95	0.06967083
58	0x3d5c92e9	0.053851042
59	0xbdd51f3e	-0.104063496
60	0xbdfc61f7	-0.12323373
61	0xbc32d25d	-0.010914412
62	0xbdec27fa	-0.115310624
63	0x3e0e2510	0.13881326
64	0xbdfeb188	-0.12436205
65	0x3cf7b956	0.030239742
66	0xbe130ea1	-0.14361049
67	0xbe0679d7	-0.13132416
68	0xbdd9d94b	-0.106371485
69	0x3d617612	0.05504424
70	0x3d5cec4d	0.05393629
71	0xbd99469c	-0.07484171
72	0xbd9cf565	-0.07663993
73	0x3d886271	0.06659401
74	0x3dd048cd	0.10170136
75	0x3e0eb084	0.13934523
76	0xbd8dd1a2	-0.0692475
77	0xbcc7afb8	-0.024375781
78	0x3dc98bac	0.098410934
79	0x3d2f3d18	0.042782873
80	0xbc354800	-0.011064529
81	0x3d4a8580	0.04944372
82	0x3e3254ea	0.17415205
83	0x3d24b93b	0.040215712
84	0xbc01ab50	-0.007914379
85	0x3d6f9009	0.058486972
86	0xbdefc152	-0.11706795
87	0xbdbdc686	-0.09266381
88	0xbe0aa685	-0.13540085
89	0x3d766683	0.060156357
90	0xbe1b7454	-0.15181094
91	0xbd84576f	-0.06461989
92	0x3a7e3d29	0.00096984446
93	0xbd12c1f5	-0.035829503
94	0x3dc67627	0.096905045
95	0x3db418ab	0.087937675
96	0x3ddb2583	0.10700514
97	0x3801e738	3.0971336e-05
98	0x3e1969f8	0.1498183
99	0xbd92d60b	-0.07169732
100	0xbcb0c826	-0.021579813
101	0x3cc54559	0.02408092
102	0xbd661367	-0.056170847
103	0xbdbd5764	-0.09245184
104	0xbc47cab7	-0.012194327
105	0xbe1d58a0	-0.15365839
106	0x3e33d0f9	0.17560185
107	0xbd7505b8	-0.059819907
108	0xbde9aa06	-0.114093825
109	0x3c15f6af	0.009153052
110	0x3e16a025	0.14709528
111	0x3d20c1d2	0.03924734
112	0xbca2e117	-0.019882722
113	0x3d023202	0.031785972
114	0xbdea8886	-0.11451821
115	0xbde3557c	-0.11100289
116	0xbd9a006f	-0.07519614
117	0xbe265f38	-0.1624726
118	0xbaa54518	-0.0012609093
119	0xbc9a0623	-0.018801754
120	0x3dd60af5	0.10451309
121	0x3da61481	0.081093796
122	0xbd6505e2	-0.055913813
123	0x3e008f38	0.12554634
124	0x3d587b61	0.05285204
125	0xbd70a430	-0.05875033
126	0xbe04dcc4	-0.1297484
127	0x3e146e0c	0.14495105
128	0xbde2570b	-0.110517584
129	0x3b844b42	0.0040372917
130	0xbd41c9b4	-0.0473115
131	0xbd34e586	-0.044164203
132	0xbbc69502	-0.0060602436
133	0x3db4d39b	0.08829423
134	0xbdb62a3f	-0.088947766
135	0x3da51dfe	0.08062361
136	0x3d4ed8dd	0.050499786
137	0xbd86b7bb	-0.065780126
138	0xbd76d257	-0.06025919
139	0x3e0ebd2d	0.13939352
140	0x3e302467	0.17201386
141	0xbdf6872b	-0.120375
142	0xbd5d8893	-0.054085325
143	0xbd62d333	-0.055377197
144	0xbe09fa08	-0.13474286
145	0xbdb30cf5	-0.08742706
146	0x3e050c26	0.12992916
147	0xbe64cbe5	-0.22343405
148	0xbd025649	-0.03182057
149	0x3e0db34d	0.13837929
150	0x3d324e00	0.043531418
151	0x3e19609a	0.14978257
152	0x3d259abc	0.04043077
153	0xbd11dc99	-0.03561077
154	0xbc4671d7	-0.0121121025
155	0x3bcd012d	0.0062562437
156	0x3d86bc2a	0.06578858
157	0xbe73087d	-0.23733707
158	0x3ddf93c9	0.1091686
159	0xbd683172	-0.05668778
160	0xbe2185ce	-0.15773699
161	0x3e2e4b02	0.170208
162	0x3cdd1fd1	0.02699271
163	0xbd83be50	-0.064327836
164	0x3c9364fe	0.017992493
165	0x3e46be99	0.19408645
166	0xbe3a9f6b	-0.18224876
167	0xbd7d990e	-0.061913542
168	0x3d149896	0.03627833
169	0x3c3baf76	0.011455407
170	0x3e035764	0.12826306
171	0xbde97b79	-0.11400504
172	0xbe5f498a	-0.21805397
173	0x3c63b945	0.013899152
174	0xbda6665c	-0.08124992
175	0xbda697d7	-0.0813443
176	0xb7f42e88	-2.9108734e-05
177	0xbd31edad	-0.043439556
178	0x3d5d3cd4	0.05401309
179	0xbe74e1ca	-0.23914257
180	0xbd05fe44	-0.03271319
181	0x3db77da6	0.089595124
182	0x3dc1101f	0.09426903
183	0x3d91d486	0.07120614
184	0x3e49c9ae	0.19705841
185	0x3c473de1	0.012160749
186	0xbd7198ed	-0.058983732
187	0x3da6f291	0.081517346
188	0x3cf9ded0	0.030501753
189	0xbe60b72e	-0.21944878
190	0xbe0ecf04	-0.13946158
191	0x3d4158c6	0.0472038
192	0x3defe5f9	0.11713786
193	0xbe0a91c7	-0.13532172
194	0xbdafc813	-0.08583083
195	0xbd9ef270	-0.07761085
196	0x3dc34894	0.095353276
197	0xbd9badb2	-0.07601489
198	0xbdba4127	-0.09094458
199	0xbd8cd81d	-0.06877158
200	0xbd9625e2	-0.07331444
201	0x3dc48c68	0.09597093
202	0xbd2abb82	-0.041682728
203	0x3df5b146	0.11996703
204	0xbe1950fb	-0.14972298
205	0x3e357bcf	0.1772301
206	0x3c9b735e	0.01897591
207	0xbdc34fb2	-0.09536685
208	0x3e7f5271	0.24933793
209	0x3de7ac6d	0.113121845
210	0xbd84ff76	-0.06494038
211	0xbe13ce2f	-0.14434122
212	0x3d324fca	0.043533124
213	0x3ce3345f	0.027734933
214	0x3dc0ec86	0.09420113
215	0xbdbbdaaa	-0.09172566
216	0x3d90ad7a	0.07064338
217	0xbe426173	-0.18982486
218	0x3cd42b45	0.025899539
219	0xbc8514b7	-0.01624523
220	0x3cb20a87	0.021733535
221	0xbcc5c7ea	-0.024143178
222	0xbd21a48c	-0.039463565
223	0xbdef3628	-0.11680251
224	0xbcfe3edc	-0.031035833
225	0xbdc6cccb	-0.0970703
226	0xbd834885	-0.064103164
227	0x3d11ed2d	0.03562658
228	0x3e07eece	0.1327469
229	0xbe1b0520	-0.15138674
230	0x3df4cbf1	0.11952961
231	0x3dff0a8b	0.12453183
232	0x3d8df4bc	0.06931445
233	0xbcbdab70	-0.023153037
234	0xbd010738	-0.031501025
235	0x3e0b6aa8	0.13614905
236	0x3dff162d	0.124554016
237	0x3e1b2b3e	0.15153214
238	0x3e09e456	0.1346601
239	0xbe2ca62e	-0.16860268
240	0xbd544901	-0.051827434
241	0x3dc4ea36	0.09614985
242	0xbd5d5ab2	-0.054041572
243	0x3c845a4c	0.016156338
244	0xbb801829	-0.00390913
245	0x3cc0c1a0	0.023529828
246	0xbc377ee3	-0.011199686
247	0x3ca6ccf4	0.020361401
248	0xbdb4b97d	-0.088244416
249	0xbe12b354	-0.14326221
250	0x3d0c9588	0.03432229
251	0xbd90cd32	-0.07070388
252	0x3d5e6ce6	0.054303072
253	0xbe0f8229	-0.14014496
254	0x3d6c22f8	0.057650536
255	0xbd5bd2fd	-0.05366801

bias f4 [48]
0	0xbd2dec63	-0.042461764
1	0x3e26ab03	0.16276173
2	0xbd6f1712	-0.05837161
3	0xbe180d0e	-0.1484873
4	0xbca25dc2	-0.019820098
5	0x3df5c7a4	0.12000969
6	0x3d56650a	0.052342452
7	0xbdf6df41	-0.12054301
8	0xbd0babe7	-0.034099486
9	0xbdef991a	-0.11699124
10	0x3b24cdaf	0.002514701
11	0xbd393ee3	-0.04522599
12	0x3e00165d	0.12508531
13	0xbbe70bf3	-0.007050985
14	0x3d6a13ed	0.05714791
15	0x3dfef970	0.1244992
16	0x3d64828d	0.055788565
17	0xbcf6633c	-0.030076616
18	0x3d92fb6d	0.07176862
19	0x3e03146a	0.12800756
20	0x3dad84db	0.08472606
21	0x3d2a4dc9	0.041578088
22	0xbe17f764	-0.14840466
23	0xbcbb816b	-0.02288886
24	0xbd5c69e9	-0.05381194
25	0xbda6b505	-0.081399955
26	0x3d05bc8b	0.03265051
27	0xbcd4c4c3	-0.02597273
28	0x3cc76684	0.024340875
29	0xbb6fd718	-0.0036596712
30	0x3dd53317	0.10410135
31	0x3d8de861	0.069290884
32	0xbd850a87	-0.064961486
33	0xbd19f185	-0.037583847
34	0xbd8df31a	-0.069311336
35	0xbe13bb5e	-0.14426944
36	0x3da69066	0.081330106
37	0xbdb67fff	-0.08911132
38	0xbd2a3ba1	-0.041560773
39	0x3df245a7	0.118296914
40	0xbd00ffef	-0.031494077
41	0xbdb4e63b	-0.088329755
42	0xbcfd3243	-0.030907756
43	0x3c3430b9	0.0109979445
44	0x3df9fe87	0.1220675
45	0x3dc27642	0.09495212
46	0x3d616792	0.055030413
47	0x3ddc14bc	0.10746142

weight f4 [48, 48]
0	0xbca91828	-0.020641401
1	0xbd01765e	-0.031607024
2	0x3df93e85	0.12170128
3	0xbdce2e8d	-0.100674726
4	0x3e0cb62e	0.13741371
5	0x3d74b16c	0.059739515
6	0x3d78ac04	0.060710922
7	0x3e0b577c	0.13607591
8	0x3ca15f77	0.019698841
9	0xbd3ff905	-0.046868343
10	0xbd8517af	-0.06498658
11	0xbdf8cbbd	-0.12148235
12	0x3daf0455	0.08545748
13	0xbcb5ac72	-0.022176955
14	0x3e07ae36	0.1325005
15	0x3c8634c0	0.016382575
16	0xbdeb415f	-0.11487078
17	0x3dca3074	0.09872523
18	0xbe1704c5	-0.14747913
19	0x3d90ca8f	0.07069885
20	0xbe044edd	-0.12920709
21	0x3e1f4e04	0.15557104
22	0x3b5443d3	0.003238906
23	0xbdab252f	-0.083567016
24	0x3db0f7be	0.08641003
25	0x3d125cdb	0.035733085
26	0x3d21bad4	0.039484814
27	0x3e0a51fb	0.13507836
28	0xbd08dfe6	-0.03341665
29	0xbd378052	-0.04480011
30	0xbe070a6c	-0.1318757
31	0xbced6c9e	-0.028982457
32	0x3d5f3f8c	0.054503962
33	0x3db2188a	0.08696087
34	0xbdf7ab0a	-0.1209317
35	0x3cf05396	0.029336732
36	0xbdac8bbe	-0.08425091
37	0xbdc3177b	-0.09525963
38	0xbe1593d1	-0.14607169
39	0xbda4872a	-0.08033593
40	0xbdac8b57	-0.084250145
41	0xbd457390	-0.048205912
42	0x3d7b1fbf	0.061309572
43	0xbe0a613b	-0.13513653
44	0xbd17af10	-0.037032187
45	0x3d9c0b9b	0.07619401
46	0x3de2d580	0.11075878
47	0xbd81c720	-0.06336808
48	0x3d9872f0	0.074437976
49	0xbda54c15	-0.08071152
50	0x3da1ee93	0.079068325
51	0xbd77d7fc	-0.060508713
52	0x3d91f094	0.07125965
53	0xbcf63bd3	-0.030057823
54	0x3db0cd27	0.0863288
55	0x3cf659bf	0.030072091
56	0x3d9ef7d9	0.07762117
57	0x3d3be633	0.045873832
58	0xbe04f3e6	-0.12983665
59	0x3db2dbab	0.087333046
60	0xbdb28432	-0.087166205
61	0x3db3cb7d	0.08779047
62	0x3da8f658	0.08250111
63	0xbcb6773a	-0.022273649
64	0xbe046a90	-0.12931275
65	0xbd64e9de	-0.055887096
66	0x3d6d8eb6	0.057997428
67	0xbdf498ae	-0.11943184
68	0x3dbe70e2	0.092988744
69	0xbd1180fe	-0.035523407
70	0xbe132a63	-0.14371638
71	0x3d8831ea	0.06650145
72	0xbe075fe9	-0.1322018
73	0x3dfd7870	0.12376487
74	0x3dd18888	0.102311194
75	0x3d88b73c	0.06675574
76	0x3e04fe6c	0.12987679
77	0x3e219381	0.15778925
78	0x3e074719	0.13210715
79	0x3d91ca1e	0.07118629
80	0xbcba868f	-0.02276924
81	0xbe0272d6	-0.12739119
82	0xbe24d609	-0.16097273
83	0x3df51f75	0.119688906
84	0xbdb16ee1	-0.086637266
85	0xbdbaac2b	-0.0911487
86	0xbd180728	-0.0371162
87	0x3da8257b	0.08210274
88	0xbde3403f	-0.11096238
89	0xbcc59a9e	-0.024121579
90	0xbd8317c2	-0.06401016
91	0x3d8e1dd9	0.06939287
92	0xbc821086	-0.01587702
93	0x3d6d10fe	0.057877533
94	0x3e11bf38	0.142331
95	0x3d0c960f	0.034322795
96	0xbdc14b2e	-0.094381675
97	0x3bb3ab61	0.0054830764
98	0xbcbf6e92	-0.023368154
99	0x3a4cd650	0.00078139175
100	0x3d7375c6	0.05943849
101	0xbdbad3ea	-0.09122451
102	0x3e076301	0.1322136
103	0xbdcaac9c	-0.09896204
104	0xbdc4c1b5	-0.09607259
105	0x3e17b894	0.14816505
106	0x3da44fe6	0.08023052
107	0xbdf81bfc	-0.121147126
108	0xbd369bbb	-0.04458211
109	0xbcfd824d	-0.030945921
110	0xbd0fb402	-0.03508378
111	0x3e341c3e	0.17588899
112	0xbc4823f3	-0.012215602
113	0xbdf6ca66	-0.12050323
114	0x3deec214	0.11658111
115	0x3df8f8ec	0.12156853
116	0xbe059834	-0.13046342
117	0x3ce8f56a	0.028437335
118	0x3df24b6b	0.11830791
119	0x3ddec692	0.10877718
120	0x3d22c025	0.039734025
121	0xbcb49086	-0.02204157
122	0xbd686c22	-0.05674375
123	0xbe1c0a88	-0.15238392
124	0xbc1fe6e6	-0.00975964
125	0x3e14f600	0.14546967
126	0xba871aab	-0.001030763
127	0x3d739833	0.05947132
128	0xbddde06b	-0.1083382
129	0x3e121d33	0.14268951
130	0xbe12e324	-0.1434446
131	0x3d892447	0.066963725
132	0x3e1ad001	0.1511841
133	0xbdababd7	-0.08382385
134	0x3dfc6217	0.12323397
135	0xbdc245e9	-0.094859906
136	0x3e08f67d	0.13375278
137	0x3d1c0aa1	0.038096074
138	0xbe346993	-0.17618398
139	0x3da7d11a	0.0819418
140	0x3dff604f	0.12469541
141	0xbde9b60a	-0.11411674
142	0x3d7055d0	0.058675587
143	0x3d832f8f	0.064055555
144	0x3ddcb510	0.107767224
145	0xbcadd4ba	-0.0212196
146	0xbd6c8e1c	-0.057752714
147	0x3bbca4ef	0.0057569663
148	0x3d6c4073	0.05767865
149	0x3cd7c1c0	0.026337504
150	0xbd8d8de8	-0.06911832
151	0x3dea6526	0.11445074
152	0x3c9b8ae6	0.01898713
153	0x3d23c71c	0.039984807
154	0xbd7b6f85	-0.06138565
155	0x3dee5fea	0.11639388
156	0x3e006677	0.12539087
157	0xbe1d91ef	-0.153877
158	0x3ce854be	0.02836072
159	0x3d37ec4e	0.044903092
160	0xbd5c1196	-0.05372771
161	0xbda104aa	-0.07862218
162	0x3c95dcc5	0.018293748
163	0xbd8dee8b	-0.06930264
164	0xbe30bb83	-0.1725903
165	0xbbb034e3	-0.0053773983
166	0xbc991c2a	-0.018690187
167	0x3e189a13	0.14902525
168	0xbe0cea3e	-0.13761231
169	0xbcbc58b6	-0.02299152
170	0xbd955974	-0.072924525
171	0x3c5922f0	0.013252959
172	0x3a3f927b	0.0007307899
173	0x3e18e1ef	0.14929937
174	0x3b1c0c11	0.0023810903
175	0xbcf4fb07	-0.029904855
176	0xbbd4c3cb	-0.006493067
177	0x3cc6bd13	0.02426008
178	0xbd919163	-0.071078084
179	0x3d659561	0.056050662
180	0x3d7ffbf4	0.06249614
181	0x3c87852e	0.016542997
182	0x3d141dbe	0.036161177
183	0x3cb45bd6	0.022016447
184	0x3ddfc218	0.10925692
185	0x3c90a6ad	0.017657602
186	0xbdf68a74	-0.120381266
187	0xbbed01bc	-0.007232873
188	0xbda5b99b	-0.08092042
189	0x3c9dff89	0.019286888
190	0x3d3ef41e	0.046619527
191	0x3e275287	0.16340075
192	0xbe298aa7	-0.16556798
193	0x3d1b42ad	0.037905384
194	0x3d0c9543	0.034322035
195	0x3dc033cb	0.09384879
196	0xbbdacfa5	-0.006677585
197	0xbdc33089	-0.09530742
198	0xbcfd847c	-0.030946963
199	0xbd2f6ab2	-0.042826362
200	0xbd71a52e	-0.05899542
201	0x3e224df4	0.1585005
202	0xbde89d5f	-0.11358141
203	0x3bafd873	0.005366379
204	0xbb6f06d9	-0.0036472587
205	0xbdd258f3	-0.10270872
206	0x3decee53	0.11568894
207	0x3e3823ed	0.17982455
208	0x3dd7977a	0.10526939
209	0xbda91fe2	-0.08258034
210	0x3e1b67d1	0.15176322
211	0x3e21f462	0.15815881
212	0x3c9620c6	0.018326174
213	0x3d8334d7	0.06406563
214	0xbdd1a32a	-0.10236199
215	0xbdaf24f2	-0.08551969
216	0x3e7f0c79	0.24907102
217	0xbc040b6f	-0.008059367
218	0x3df78218	0.1208536
219	0x3ddc4b07	0.10756498
220	0xbe150551	-0.1455281
221	0x3ddebb6b	0.10875591
222	0x3decd489	0.11563975
223	0x3e272e6b	0.16326301
224	0xbe05d703	-0.13070302
225	0x3e23313b	0.15936749
226	0x3ccc4e25	0.024939606
227	0xbdd5cb8c	-0.10439214
228	0xbd697f4a	-0.057006158
229	0x3e263e19	0.16234626
230	0x3dc3b1fe	0.09555434
231	0xbca69bf2	-0.020338032
232	0x3c0bfd97	0.008544347
233	0x3daf2c67	0.08553391
234	0x3bca8f41	0.006181628
235	0xbdd29e30	-0.10284078
236	0xbe1f35fb	-0.15547936
237	0x3d8c4aa0	0.06850171
238	0x3df41b98	0.119193256
239	0x3d7ecb03	0.062205326
240	0xbd3b0e4f	-0.045667943
241	0x3dc39f30	0.09551847
242	0xbd3d3411	-0.046192233
243	0x3d69f536	0.057118617
244	0xbc9a42ef	-0.018830745
245	0x3d89584a	0.06706293
246	0xbd07c281	-0.033144478
247	0x3ccd0756	0.025027912
248	0x3cabeb16	0.020986121
249	0xbdb86755	-0.09004084
250	0xbdbb7d52	-0.09154762
251	0x3e0cebc5	0.13761814
252	0x3de7add8	0.11312455
253	0xbdf7f63a	-0.12107511
254	0x3e04a8df	0.12955044
255	0xbd74a502	-0.059727676

bias f4 [48]
0	0x3dece4c0	0.11567068
1	0x3b63ff9e	0.003478981
2	0x3b820e44	0.0039689858
3	0x3df30586	0.11866288
4	0xbdb9a1db	-0.090640746
5	0x3dc99520	0.098428965
6	0xbd150325	-0.036379952
7	0x3c1f750a	0.009732494
8	0x3d8c196b	0.068407856
9	0xbe01775f	-0.12643193
10	0xbd77730c	-0.06041245
11	0x3e05c337	0.1306275
12	0xbd85003b	-0.064941846
13	0x3becce94	0.0072267745
14	0x3df5f30d	0.12009249
15	0x3e2673dd	0.16255136
16	0x3d31c6bc	0.04340242
17	0xbd75e273	-0.060030412
18	0xbe138bea	-0.14408842
19	0xbd3886e8	-0.04505053
20	0x3d2c2b3a	0.04203341
21	0x3db5aa72	0.088704005
22	0xbce69f18	-0.028152034
23	0xbdcd1d91	-0.10015405
24	0x3c636f9e	0.013881592
25	0xbdb681a7	-0.08911448
26	0x3dbfc3ab	0.093634926
27	0xbe0672ba	-0.13129702
28	0x3dde333d	0.10849617
29	0xbdecc560	-0.11561084
30	0xbd950036	-0.07275431
31	0xbd88c2bf	-0.0667777
32	0x3db8ae21	0.090175875
33	0x3d5fb715	0.05461796
34	0xbdd35440	-0.10318804
35	0x3dde183c	0.10844466
36	0x3e05b0bf	0.13055705
37	0xbdcad758	-0.09904355
38	0x3cbb8421	0.022890152
39	0xbdc73752	-0.097273484
40	0x3d8be5ce	0.06830941
41	0x3d5258f1	0.051354352
42	0xbbd940eb	-0.0066300533
43	0xbe05affa	-0.13055411
44	0x3e1a0894	0.15042335
45	0xbd4a5036	-0.0493929
46	0xbd53b40e	-0.051685385
47	0xbd735bdd	-0.05941378

weight f4 [4, 48]
0	0x3d94cbbe	0.07265423
1	0xbd8ce3a8	-0.068793595
2	0xbe0dbba0	-0.13841105
3	0xbdd9aebd	-0.10629032
4	0x3c8a733e	0.016900655
5	0xbd8be2cb	-0.06830367
6	0x3c5f8b4b	0.01364405
7	0xbdaa0b9a	-0.08302994
8	0x3d65d6f9	0.056113217
9	0xbdac516b	-0.08413967
10	0x3bd5ab02	0.00652063
11	0x3b6dba4c	0.0036274372
12	0x3aa6ae42	0.0012716728
13	0xbd66ab31	-0.056315605
14	0xbe05cd2a	-0.13066545
15	0xbd8d4594	-0.068980366
16	0x3dd1a6e5	0.10236911
17	0xbd49f1c4	-0.04930283
18	0x3ddd8498	0.10816306
19	0x3d653a81	0.055963997
20	0xbdad4123	-0.084596895
21	0x3dc524ff	0.09626197
22	0x3e1b98ad	0.1519496
23	0xbd2f5a56	-0.04281076
24	0xbe135cc3	-0.14390855
25	0xbd6ded8d	-0.058087874
26	0x3b807cd8	0.0039211325
27	0xbdce9ff4	-0.100891024
28	0xbd289d7b	-0.04116581
29	0x3d9eea44	0.07759526
30	0x3df55154	0.11978403
31	0xbd0db3aa	-0.03459517
32	0xbccf2f40	-0.025291085
33	0xbd0534d9	-0.032521103
34	0xbcadf05c	-0.021232776
35	0x3e0641ae	0.13110992
36	0xbc192c9b	-0.009349014
37	0x3d9f10ff	0.077669136
38	0xbde2abf9	-0.110679574
39	0xbd84565d	-0.06461785
40	0x3daa7618	0.08323306
41	0x3df3cd96	0.11904447
42	0x3d83f9f2	0.06444158
43	0xbe0f91b9	-0.14020433
44	0xbe30df63	-0.17272715
45	0xbc86719a	-0.016411591
46	0x3e0d5cc2	0.13804916
47	0xbd10aa0a	-0.035318412
48	0x3da71723	0.0815871
49	0x3d986bb7	0.0744242
50	0xbd6feec1	-0.058577303
51	0x3da50ce4	0.08059099
52	0xbdf209ec	-0.11818299
53	0xbe0c0af2	-0.1367605
54	0x3e3d7c88	0.18504536
55	0xbe2d8fb0	-0.16949344
56	0x3cfdd662	0.030986015
57	0x3d2c529d	0.042070974
58	0x3c3f9ad5	0.01169463
59	0xbdbb3448	-0.09140831
60	0xbde3ded9	-0.11126489
61	0x3d9802eb	0.074224316
62	0x3e1ce6a0	0.15322351
63	0xbcefaac6	-0.029256236
64	0x3d151d7f	0.036405083
65	0x3dfdc9f0	0.12392032
66	0x3e0dfae6	0.13865241
67	0x3d601f3c	0.054717287
68	0x3e2c9a7f	0.1685581
69	0x3dba9855	0.09111086
70	0x3c816c74	0.015798785
71	0xbdb4b745	-0.088240184
72	0x3dbd25f6	0.09235756
73	0x3c09561d	0.008382347
74	0x3ca17156	0.019707363
75	0xbdba0eed	-0.09084878
76	0x3e1a3827	0.15060483
77	0xbca8b4e7	-0.020594073
78	0xbde3aa61	-0.111164816
79	0x3e26a75d	0.16274782
80	0x3d9973a6	0.07492761
81	0x3d30d393	0.043170523
82	0x3de02c8b	0.10945996
83	0xbdcc898a	-0.09987171
84	0x3dd352cb	0.10318526
85	0xbd820b58	-0.0634982
86	0x3c258f71	0.010105
87	0x3d3f1230	0.046648204
88	0x3d86c243	0.06580021
89	0x3dd8f030	0.10592687
90	0x3debc296	0.11511724
91	0x3d9228f3	0.07136717
92	0xbdadbb8a	-0.08483036
93	0x3b8067b0	0.0039186105
94	0xbd9adaf4	-0.07561293
95	0x3d2a4e78	0.04157874
96	0x3e16620f	0.14685844
97	0xbccbdd10	-0.024885684
98	0xbd3af52e	-0.045643978
99	0x3cc9929e	0.024606045
100	0xbb24faec	-0.0025173975
101	0x3cbc23ce	0.022966292
102	0x3e1eb96e	0.15500423
103	0x3df61923	0.12016513
104	0x3daad34c	0.08341083
105	0xbd758cca	-0.05994872
106	0x3e32561f	0.17415665
107	0x3e25c88a	0.16189781
108	0xbd72dc99	-0.05929241
109	0xbe0dd9e1	-0.13852645
110	0x3d8e72c1	0.06955481
111	0x3d51fe9f	0.051268216
112	0xbe095e9c	-0.13414997
113	0x3e2a7c5b	0.16649
114	0x3df6b866	0.1204689
115	0xbe185267	-0.14875184
116	0x39b86554	0.0003517071
117	0x3d39c605	0.04535486
118	0x3db076c2	0.08616401
119	0xbe1ce665	-0.15322264
120	0xbd921751	-0.071333535
121	0xbc091c70	-0.008368596
122	0x3d780539	0.060551856
123	0xbd9cf87f	-0.07664584
124	0xbe1a0f85	-0.15044983
125	0xbe094b5a	-0.1340765
126	0x3da9589f	0.08268856
127	0x3e29d4bf	0.16585062
128	0x3c90ec43	0.017690783
129	0xbd474aff	-0.048655506
130	0x3e120df7	0.1426314
131	0x3cdea2b6	0.027177196
132	0x3c818589	0.015810745
133	0xbc63713c	-0.013881978
134	0xbded7607	-0.115947776
135	0x3c452752	0.0120333005
136	0x3e0d2c13	0.13786344
137	0xbe0746ca	-0.13210598
138	0x3d942f8f	0.072356336
139	0xbdd65025	-0.10464505
140	0x3e444023	0.19165091
141	0x3e0ee906	0.13956079
142	0x3dbe3c30	0.092888236
143	0x3cc7a1b5	0.0243691
144	0xbdbcaed8	-0.09213036
145	0x3df70931	0.120623
146	0x3dd1bd57	0.10241192
147	0xbdaf1574	-0.08549014
148	0x3cad8fb0	0.02118668
149	0xbd4d5282	-0.050127514
150	0x3dce5d2e	0.10076366
151	0x3d9c548c	0.076333135
152	0x3ceec7d4	0.02914802
153	0x3e00e482	0.12587169
154	0xbd3a8993	-0.045541357
155	0x3d9c8c78	0.0764398
156	0xbc20e290	-0.009819642
157	0x3dadb8ed	0.084825374
158	0xbbf7e091	-0.007564612
159	0xbce20cfb	-0.02759408
160	0xbd8dccef	-0.069238536
161	0x3de217c4	0.11039689
162	0xba910af4	-0.0011065886
163	0x3d4d3374	0.050097898
164	0x3ca75088	0.020424142
165	0x3c3751bd	0.0111889215
166	0x3d9efe94	0.07763401
167	0x3da699cc	0.08134803
168	0x3dc882d6	0.0979058
169	0x3de9832b	0.114019714
170	0x3e17d8f1	0.1482885
171	0x3df3ee6d	0.119107105
172	0xbd87bde0	-0.06628013
173	0x3dd0dbde	0.10198186
174	0xbdaf4a4d	-0.085590936
175	0x3d5f84ac	0.054569885
176	0xbdd53e6b	-0.10412296
177	0xbe1d0340	-0.15333271
178	0xbd0d827a	-0.03454826
179	0x3df27191	0.11838067
180	0x3d32ea99	0.04368076
181	0xbd8e7c2d	-0.069572784
182	0x3dcac1fe	0.09900282
183	0x3dc683d2	0.096931115
184	0xbd765b67	-0.06014576
185	0x3cf7c3a1	0.03024465
186	0xbc41fc70	-0.011839971
187	0x3cae85d3	0.021304047
188	0xbda6afd6	-0.08139007
189	0xbc9b0c93	-0.018926894
190	0x3cf284b6	0.029604297
191	0xbd1f3ebd	-0.03887819

bias f4 [4]
0	0x3db590df	0.088655226
1	0x3c5ea34e	0.01358874
2	0xbdb07db0	-0.08617723
3	0x3de3c5f0	0.11121738
